save/fsrcnn-pcsr-phase1/iter_300000.pth (torch, 128049 bytes, 54 tensors)

encoder.head_conv.0.weight f4 [48, 3, 5, 5]
000000 92 71 5c 3e 3b 34 d9 bc 8d 9f c2 be a3 a4 05 3f
       0.21527699 -0.026514163 -0.38012353 0.5220434
000010 7c 79 1d bc b0 fc ca bd 83 b8 cd 3d da 5d 1c 3c
       -0.009611484 -0.099114776 0.100449584 0.00954386
000020 d1 c1 9d be 2e 24 69 3e 61 c9 13 bf 8f 5b 8f 3f
       -0.30811933 0.22767708 -0.57729155 1.1199816
000030 06 83 01 be 57 7c 8c 3f 23 19 b9 be 02 0b 88 3e
       -0.12647638 1.0975446 -0.3615199 0.26570898
000040 0f c3 38 bf 00 fb 2a 3d 21 8b 30 3d a5 1e 04 be
       -0.72172636 0.04174328 0.043101434 -0.12902315
000050 62 10 f9 3d 7b af bd 3e 2f 7e 91 be 09 e1 1c bd
       0.12161328 0.37047943 -0.28416583 -0.038300548
000060 ae d2 0c 3e ef b0 80 3d 1c e8 09 be 70 e3 8f be
       0.13752243 0.062837474 -0.13467449 -0.2810321
000070 72 14 8a 3e 17 e1 ca 3d e8 02 b2 bd 98 67 04 3d
       0.26968724 0.09906214 -0.086919606 0.032325357
000080 9e 78 c3 3e 36 25 9d be 91 0b 28 3b b8 09 01 bf
       0.3817796 -0.30692452 0.002564166 -0.50405455
000090 dc 86 9c 3f a9 d8 c2 be 45 e9 9d 3f 08 0e 19 bf
       1.2228656 -0.38055924 1.2336813 -0.59787035
0000a0 c3 1a ce 3d f5 f5 31 bf b8 2f 56 3f ea e4 64 bd
       0.10063698 -0.69515926 0.83666563 -0.055882372
0000b0 9f 89 0d be 63 d5 48 3e e0 c7 95 bd 4f 28 a0 be
       -0.1382203 0.1961265 -0.07313514 -0.31280753
0000c0 dc bb ca bc b0 cd 7c 3e 0e 0e ea 3d 02 97 a7 be
       -0.024747781 0.24687839 0.11428462 -0.32732397
0000d0 a3 91 c2 be 22 70 1a bd 29 a2 62 3e 70 c2 2f be
       -0.38001737 -0.037704594 0.22132172 -0.17164016
0000e0 49 88 e2 3e 53 4f 1f 3f 90 80 da be 09 50 39 bd
       0.44244602 0.62230414 -0.4267621 -0.045242343
0000f0 72 7e 09 bf 49 e3 05 3f f5 5f eb be d5 93 36 3f
       -0.53708565 0.52299935 -0.45971647 0.71319324
000100 7b 0f 17 bf e5 77 c8 3d e0 9d 8a be 69 43 9f 3f
       -0.59007996 0.09788493 -0.27073574 1.2442447
000110 6b 7e d2 3e 14 df ae 3c ab b2 0b 3e 84 f6 6a be
       0.41112074 0.021346606 0.13642375 -0.22945601
000120 bf f4 b3 be 92 4e d6 bd 02 67 7b 3e 96 ce cd bb
       -0.35147664 -0.10464205 0.24551013 -0.0062807305
000130 1c bc 79 3d 8e fa 75 3d f3 1b be bd a1 ca 08 3d
       0.06097041 0.0600534 -0.09282675 0.033396367
000140 91 ab 25 bb ff b1 8b bc c8 01 07 be 2d cd 96 bd
       -0.0025279264 -0.017052649 -0.13184273 -0.07363353
000150 04 3c b2 bd a4 21 e8 3d 3e 27 c2 3d 32 6d 02 40
       -0.08702853 0.113345414 0.09480141 2.0379148
000160 16 18 b1 be b5 f4 eb 3d 82 40 32 bd 90 0e 18 3c
       -0.3458869 0.115212835 -0.04351855 0.009280816
000170 e7 f5 f3 3b 12 c2 34 be 0b 61 c1 3d b6 f3 d2 bb
       0.0074450853 -0.17652157 0.094423376 -0.006437744
000180 cd a9 58 bd fe db f3 3b 8f e6 82 3d d8 fa 64 3c
       -0.05289631 0.0074419966 0.06391632 0.013975821
000190 6f f4 fb 3b 35 8c f8 3c 91 f3 91 3d eb 41 fd bd
       0.007689051 0.030340293 0.07126535 -0.123660885
0001a0 7d 02 92 3c 23 c0 be 3c 20 c2 46 39 4a 04 4a bd
       0.017823452 0.023284977 0.00018955069 -0.049320497
0001b0 b4 96 fd bc 37 72 a5 bd 6e ec 40 bc 4b d0 d3 3c
       -0.03095565 -0.080784254 -0.011775119 0.025856158
0001c0 92 ff e0 3f 2e 2b cb bd 6b 7a 19 3e c5 a6 84 bd
       1.7577994 -0.09920345 0.14988105 -0.06477121
0001d0 91 f9 03 be 1b 46 65 3e e9 ce 18 be 38 bc fd 3c
       -0.12888171 0.22390024 -0.1492268 0.030973539
0001e0 35 18 62 b9 3c 52 3e bd c8 8e 03 3e 74 7f 3e bd
       -0.00021562057 -0.046465144 0.12847435 -0.046508268
0001f0 22 63 69 3c 33 b5 ca bc 83 3a e7 3d bc a1 bc 3c
       0.0142448265 -0.024744606 0.11290457 0.02302634
000200 79 48 fc bd a8 8f 89 3d 4c cf 11 3e ba cb 0e bd
       -0.123185106 0.067168534 0.14239234 -0.034862258
000210 5b 16 82 be 07 af 66 3d bd 18 44 bd ad 1a 8a bd
       -0.2540768 0.056319263 -0.047875155 -0.06743369
000220 43 5f bb 3d a1 5d e4 3f d2 a7 11 bd c6 ad 08 3e
       0.09149029 1.7841073 -0.035560437 0.1334754
000230 24 11 25 bd 38 2c b8 bd c0 dd 08 3e 75 c9 82 be
       -0.04029955 -0.08992809 0.13365841 -0.25544325
000240 55 f3 e7 bc 1b 87 14 3d c8 eb f9 bb 3d 13 ab 3d
       -0.028314272 0.03626166 -0.0076269843 0.08353279
000250 2b e5 a7 bd 81 37 3d 3d c8 93 06 3b 28 b8 41 be
       -0.08198007 0.04619551 0.0020534862 -0.18917906
000260 9a af 4c be 57 67 f8 bd f4 cc 98 bc c2 99 81 bd
       -0.19988862 -0.121290855 -0.018652417 -0.06328155
000270 9f ea 11 bf 23 23 d1 3e 9d 92 e6 be 17 0a fe bd
       -0.5699863 0.4084712 -0.45033732 -0.12404268
000280 59 8d 44 be 7c 08 e3 3e 74 e6 49 40 1d c3 e8 3e
       -0.19194545 0.4434241 3.1546907 0.4546136
000290 0b 84 cf bd ce 45 94 be a7 4a 1f bf 5a d4 b6 be
       -0.10132607 -0.28959507 -0.62223285 -0.35708886
0002a0 c5 66 e9 be c8 de e6 bd 69 63 c6 3d 9a ac 17 be
       -0.4558622 -0.11272961 0.0968693 -0.14811936
0002b0 86 fd fa be 69 9a 22 3c 3d a4 d4 3d ea 86 19 be
       -0.49021548 0.00992451 0.103828885 -0.14992872
0002c0 dd 2f b0 bd 83 e5 99 be ca 86 b6 be f3 9c 2e 3c
       -0.08602879 -0.30057916 -0.3564971 0.010657537
0002d0 b4 5a 9f 3c 2c 15 ac bd 5f 80 46 3f 75 5c 64 be
       0.01945243 -0.08402476 0.7753963 -0.22300895
0002e0 de a0 a8 bd 1a 68 c0 be f5 f2 00 3f e5 0e 04 40
       -0.08233808 -0.37579423 0.50370723 2.063409
0002f0 54 e1 4e 3f 28 0f 45 be 30 83 a2 be 02 5c 60 be
       0.80812573 -0.19244063 -0.31740713 -0.21910098
000300 db dc 09 be 52 dd 75 be 51 b3 99 be c6 9b 40 bd
       -0.13463156 -0.24010208 -0.3001962 -0.047023557
000310 24 2c 00 be 6f d3 39 bf fd cb 40 be 55 23 77 3d
       -0.12516838 -0.7258825 -0.18827815 0.06033643
000320 1d 98 b2 bc f8 f7 1a bd e1 38 8c be 69 cb d9 be
       -0.021801049 -0.037834138 -0.27387145 -0.42538002
000330 8e 94 3e 3e f8 17 d1 3a a6 c2 61 bd 41 b3 0f 3f
       0.18611357 0.0015952578 -0.05511727 0.56132895
000340 df 08 10 be 45 5b 8c be 0d 8b c5 be 2c cf ae 3e
       -0.14065884 -0.27413383 -0.3858265 0.34142435
000350 64 47 ab 3e 24 3c 77 3f 3c 3f 9e bd d9 1b 0b be
       0.33452904 0.9657614 -0.07726905 -0.13584842
000360 69 66 82 3e 9d 48 cf 3e 17 e0 35 3e a2 d0 ae be
       0.25468758 0.40485087 0.17761265 -0.3414355
000370 4a 8b 7f 3d 79 f5 43 be cf ae 1c bf 3c 15 9a be
       0.062388696 -0.19136609 -0.61204237 -0.30094326
000380 c1 a3 44 3e 6f 95 b5 3c 1b 1b 95 3d 13 e2 11 be
       0.19203092 0.022165982 0.072805606 -0.14246397
000390 b6 d7 85 3d 94 7c 08 3c 21 1b 25 be 25 5d 0d 3e
       0.06535284 0.008330483 -0.1612363 0.13805063
0003a0 fe db 35 3e a1 15 40 bc 8b a9 9e bd e9 23 62 bc
       0.17759702 -0.011723907 -0.077471815 -0.013802507
0003b0 45 89 9b 3d 75 7b 3a c0 d2 76 89 3e 59 c3 76 bd
       0.075945415 -2.9137852 0.26848465 -0.06024489
0003c0 aa 80 8c 3d 22 e3 61 be b5 3f 47 40 f6 42 55 be
       0.06860478 -0.220593 3.1132634 -0.20826325
0003d0 ab 28 2b 3d 1d 7a ae 3d fe 37 d5 bd 02 6c 78 be
       0.04178683 0.08519385 -0.1041107 -0.24259952
0003e0 02 9c 14 bd b7 a5 86 3d b6 30 18 3c 34 9b 4c 3c
       -0.036281593 0.06574576 0.009288957 0.012488175
0003f0 0f 70 a9 bd d7 1f 74 3d e4 73 54 3a 2b f3 3f bd
       -0.082733266 0.059600677 0.0008104427 -0.046862762

encoder.head_conv.0.bias f4 [48]
000000 59 5d eb b9 3a a8 eb 3e 09 09 f8 3c 11 9f bb bc
       -0.00044892242 0.46026784 0.030277746 -0.022902997
000010 ee 15 0b 3d 19 c3 9e 3e be c6 2f c0 73 f5 3b bd
       0.03395646 0.31008223 -2.7465053 -0.045888375
000020 d5 4e 8d bd 68 05 86 be 9e ca 22 bf 8b 80 8e 3c
       -0.06899802 -0.26176 -0.6359042 0.017395278
000030 2a 3a 2e 3e 06 5a 82 3f d7 91 c7 bb 4c de 32 3e
       0.17014375 1.0183723 -0.0060903835 0.17467612
000040 11 6a 81 bd e4 4a 08 bf 64 9b e2 bf 65 10 77 3d
       -0.06319059 -0.53239274 -1.7703671 0.06031837
000050 b6 aa 07 3e 18 0e 29 bc 23 31 08 c0 a6 be 3e 3e
       0.13248715 -0.010318302 -2.127999 0.18627414
000060 b2 f0 e5 3d cd ea 4c bd d7 c8 36 be a1 b4 1b bd
       0.112275496 -0.05002861 -0.17850052 -0.038014058
000070 4d e0 68 bd 48 21 c2 bf 6a 65 21 3d 66 61 2a 3b
       -0.056854535 -1.5166407 0.039403357 0.0025997995
000080 a7 6a 8b bd 14 6a c4 3c 5a 29 66 3d ea b2 f9 3d
       -0.06807452 0.023976363 0.05619178 0.12192328
000090 3c 24 3e 3e bf aa 02 3c 69 16 b0 bf dd 6f 41 3d
       0.1856851 0.007975279 -1.3756839 0.04722582
0000a0 8d 5a e8 3d ae b8 f8 3d 5f a9 bb 3d 9e 8c 95 3b
       0.11345396 0.121446 0.09163164 0.004563882
0000b0 b7 2f e8 3d b4 a0 95 3d ef 57 0d bd e8 9d ee 3d
       0.11337226 0.07306042 -0.034507688 0.11651212

encoder.body_conv.0.0.weight f4 [12, 48, 1, 1]
000000 a2 46 3c bd 27 43 05 bd 30 27 5b 3e 93 9d f1 be
       -0.0459658 -0.032534745 0.21401668 -0.47190532
000010 13 a5 14 c0 82 21 42 3f ba 31 e2 3d 8e aa 97 be
       -2.3225753 0.7583238 0.11044641 -0.2962231
000020 f9 d8 22 3e 1a c4 08 c0 c6 02 b6 be ed 41 86 bf
       0.15903081 -2.136969 -0.3554899 -1.0488869
000030 af 7d e9 be 9d 51 cc 3e 84 e5 2a bf 9c 7a 1f 3e
       -0.456037 0.39906016 -0.66756463 0.15574116
000040 d8 3a 98 be 0b 4e 3e 3e 01 ce 77 be 4e 06 81 3f
       -0.29732394 0.18584459 -0.24199678 1.0080049
000050 e8 29 55 bf 93 39 c2 bf 34 45 3b 3d 74 88 f6 be
       -0.8326707 -1.517382 0.045720294 -0.4815098
000060 0c 9a ad 3f 6c a8 73 be f4 3b 6b be 75 bd dd 3e
       1.3562636 -0.23794717 -0.22972089 0.43308607
000070 f8 a4 53 bd ab 78 74 3f 79 34 5e bf ea 5c 8a 3f
       -0.051671 0.95496625 -0.86798817 1.0809605
000080 74 c3 e0 be 1c d7 a4 bf 23 74 e1 3e 90 f1 3d 3f
       -0.4389912 -1.2878146 0.44033918 0.7419672
000090 8a 42 2b bd f0 2c d6 be fa 2f 06 3e ec e2 6d 3f
       -0.041811503 -0.4183116 0.13104239 0.9292438
0000a0 75 77 9d bd e8 d8 9b 3c ff 46 a6 3d 57 c8 0b be
       -0.076888 0.019024327 0.0811901 -0.13650642
0000b0 c6 46 dd 3e 4a 27 44 be 50 54 8e bd 7d 88 13 be
       0.43218058 -0.19155613 -0.06949675 -0.14407535
0000c0 2c ad 01 3d f3 b8 98 3e a6 f7 e2 bc c8 38 a1 3c
       0.03165929 0.29828605 -0.027705979 0.019680396
0000d0 48 48 38 bd 5f 1a 37 bd 2b c9 92 be e9 08 da 3c
       -0.044990808 -0.044702884 -0.28669104 0.026615577
0000e0 bc 21 4d 3e 46 1a 2d bd 54 1c 0b be d7 6f f5 3d
       0.200324 -0.042261384 -0.13585025 0.119842224
0000f0 5b fa b1 bd 5c 6c 51 bf 55 61 71 be 94 f8 9c 3d
       -0.0869033 -0.8180597 -0.23572285 0.076646
000100 84 6d 13 3e 05 49 fb 3d f4 56 76 bd 73 44 22 bd
       0.14397246 0.12269787 -0.06014152 -0.03961606
000110 61 3c 9a 3d ce 4c 80 bd 4d 58 8c 3e cd 07 1c ba
       0.075310476 -0.06264649 0.27411118 -0.000595209
000120 f8 39 9d 3d e4 9b bb 3d 3f 06 03 3e 85 eb 3b 3d
       0.07677072 0.09160593 0.12795351 0.045878906
000130 ee cf 27 bf 0a 0f 61 3d a6 87 cb bc 40 59 66 bc
       -0.6555165 0.054945983 -0.024844956 -0.014059365
000140 23 58 2a 3d 2a 2a 0a 3e 71 b1 a5 3d ca 86 8f 3d
       0.04158796 0.13492647 0.08090485 0.07008131
000150 20 0c f1 be 86 78 cc bd 45 16 f5 bb dc d8 74 3d
       -0.47079563 -0.099839255 -0.0074794614 0.059777126
000160 7b 46 49 3e 74 1c 1d bf ee 59 7b 3e 3e 99 ea 3d
       0.19655792 -0.6137154 0.24546024 0.1145501
000170 40 53 04 be c8 68 81 3d b7 5e a8 3c f7 42 0c be
       -0.12922382 0.063188136 0.020552976 -0.1369742
000180 9e c7 f7 3d 2e 03 9e be 0b 66 06 bc 61 4c 4a bf
       0.12098621 -0.308618 -0.00820304 -0.79022795
000190 f7 43 08 bf a8 89 28 3e 70 bf 7d 3d 25 78 4f be
       -0.53228706 0.16458762 0.061950147 -0.20260675
0001a0 a6 cb 4a 3e 6a 75 a2 3e 67 33 e9 be b5 d9 31 bf
       0.19804248 0.31730205 -0.4554703 -0.6947282
0001b0 20 54 4c be f8 45 1d be 39 c1 3e bf 6d be 81 3e
       -0.19953966 -0.15358722 -0.74513584 0.25340596
0001c0 79 f1 f2 3d 3f 61 b3 3e 71 7a 2a 3e 6d 1f e7 3e
       0.118624635 0.3503513 0.1664827 0.45141163
0001d0 cb 9e 88 3e 4f 15 3b bf b9 6d a1 3f 46 7d 06 bd
       0.2668365 -0.7307939 1.261161 -0.032834314
0001e0 68 98 91 3e 31 6d db 3d 43 7e d8 ba c3 d0 88 3d
       0.2843659 0.10714186 -0.0016517121 0.06680443
0001f0 f1 5b f4 bc f0 00 97 be f6 b1 4d bf 64 ad aa 3f
       -0.029828997 -0.29492903 -0.8034967 1.3334165
000200 28 e3 9a 3d 69 61 ac bc 23 6a a2 bf 16 c8 d9 3f
       0.07562858 -0.021042543 -1.268864 1.7014186
000210 10 d7 96 bc b1 28 33 bf f9 06 5c be b6 5a a5 3e
       -0.018413097 -0.69983965 -0.21487035 0.3229577
000220 19 29 9e bd c2 43 4c 3b 45 e3 3e bd 1d 99 9f 3e
       -0.077226825 0.0031168316 -0.04660346 0.31171504
000230 28 2f 28 3e 1e 61 2e 3e 55 b9 de 3c 84 d3 76 be
       0.16424239 0.17029235 0.027187983 -0.24104124
000240 07 97 16 3e f3 d8 47 be cb 5a 3c 3d 7a be d8 bd
       0.1470605 -0.19516353 0.045985024 -0.105832055
000250 17 8d db 3d ff 7c 68 3d 17 8c 34 bd a6 b4 63 bd
       0.1072027 0.05675983 -0.044078913 -0.0555922
000260 26 81 69 bd 89 c9 7c 3d ce 04 c3 3e 1b 60 b1 bd
       -0.05700793 0.061715636 0.38089603 -0.08660909
000270 92 55 a0 bf c2 e2 72 be 63 e8 7b 3c 5a a8 7b 3c
       -1.2526114 -0.23719314 0.0153752295 0.015359962
000280 0d 35 27 3c 34 02 77 3e 28 14 08 3d 2f de 0a 3d
       0.010205519 0.24121934 0.033222347 0.033903297
000290 28 59 75 bc 7f d3 f0 bd fb ea 98 bd 52 4a f6 3b
       -0.01497487 -0.1175909 -0.07466694 0.007516184
0002a0 7c b9 0c 3b f4 48 71 be ed 66 b1 bc 11 63 a4 bd
       0.0021472862 -0.23562986 -0.021655524 -0.08026708
0002b0 c3 13 bb bb 04 49 25 3d d0 09 84 bc 31 9c 23 bd
       -0.005709143 0.040352836 -0.01611796 -0.039943878
0002c0 c5 e3 97 bb 25 c8 ac bd 15 1e d0 bd 18 f0 d5 bd
       -0.0046353065 -0.08436612 -0.10161988 -0.10446185
0002d0 7d 89 6a bd 53 ae 00 be 8e b3 8f 3c 84 5b 7e bd
       -0.057260025 -0.125665 0.017541673 -0.062098995
0002e0 8e 8e 06 3b 9e 9c 48 3b b2 a8 ff bc 17 f1 e1 3e
       0.0020531747 0.003061093 -0.03120837 0.4412925
0002f0 aa e0 b8 3b e9 4b 81 3d 2d 99 04 bc 5f 90 b3 3d
       0.0056420164 0.06313307 -0.008093161 0.08767771
000300 72 89 bc 3b d4 25 e8 bd 5d dc cd 3c 99 ba 25 be
       0.0057536894 -0.1133534 0.025129491 -0.16184463
000310 9e ca b8 be e8 6d 8d 3d 45 dd 8e be cc ed 1c be
       -0.36092085 0.069057286 -0.2790319 -0.15325087
000320 eb b4 d8 bb d7 45 b6 bd 3b ac 67 3e d2 6a 3a be
       -0.006613364 -0.0890004 0.22624294 -0.18204811
000330 91 cc 7c 3d 87 e3 30 3e df bb 2d bd 1b 4d 1e bd
       0.061718527 0.17274295 -0.042415496 -0.038647752
000340 86 33 49 be 38 25 81 bd 3f 1d 4d 3c 76 d3 20 3d
       -0.19648561 -0.06305927 0.01251918 0.039264165
000350 10 c4 0a 3d 9a ef 7e bc 1e 67 72 3e 41 37 62 bd
       0.033878386 -0.015560055 0.23672149 -0.055228475
000360 e9 e6 a9 3c 3d 35 ee 3c 9b 5d 97 bd fd 15 ee 3c
       0.02073999 0.02907812 -0.07390901 0.02906322
000370 35 6c 3f bc db 59 24 3e a4 40 21 be 23 4a c5 3d
       -0.011683513 0.16049902 -0.15747315 0.09633281
000380 eb d8 aa be 55 37 c7 3d fe ea 5e bc 22 c0 d3 3d
       -0.3336862 0.097273506 -0.013605831 0.10339381
000390 95 a2 6b 3c 06 29 ef 3d ca 2c c4 bd 18 de 76 3e
       0.014382024 0.116777465 -0.09578855 0.2410816
0003a0 6e 15 42 3c 95 86 95 bd df c1 2d bd ab df 69 bd
       0.01184593 -0.0730106 -0.042421218 -0.057098072
0003b0 d7 21 82 bf c0 b3 8c 3c 9b f4 53 be 6f 5d 87 bf
       -1.0166577 0.017175555 -0.20698778 -1.0575389
0003c0 db bf b0 bb 59 6c 0e 3f 39 37 d0 3b e1 1f fc bd
       -0.0053939647 0.55634075 0.0063542393 -0.12310768
0003d0 49 d5 86 3d 7b 9e 83 bc 21 05 01 3e 88 31 06 bd
       0.0658365 -0.01606678 0.12599613 -0.03276208
0003e0 8c 5f d4 3b 1b 29 91 bc 3c 35 5a 3e f9 e2 2f bb
       0.0064811166 -0.017719796 0.2130937 -0.0026838167
0003f0 8b 04 5e 3b 05 15 be 3e b3 32 79 bc ca 7b 0c 3b
       0.003387722 0.37125412 -0.015209842 0.0021436089

encoder.body_conv.0.0.bias f4 [12]
000000 4a e2 c0 3c 84 91 79 3f 4f e4 65 3e 6c 19 57 3f
       0.023545403 0.97487664 0.22450374 0.84023166
000010 54 78 ed 3e fa d5 ab be fa a2 02 3f 12 d2 97 3e
       0.46380866 -0.3356169 0.5102993 0.29652458
000020 de f0 d9 3e de 2a 90 3f 36 e7 41 3e 67 81 5b bf
       0.4256658 1.1263082 0.18935856 -0.8574433

encoder.body_conv.1.weight f4 [12, 12, 3, 3]
000000 2f 52 96 bd be b5 db 3c 7c 51 cc 3d d1 f3 29 be
       -0.07339894 0.02682006 0.099764794 -0.16596915
000010 33 bb 66 bd d7 d4 8b bc 94 a8 e0 bd 77 1d ec bd
       -0.05633087 -0.017069263 -0.10969654 -0.115290575
000020 97 ac 83 3c 95 dc 8e 3d 22 6d 02 3e f9 f4 02 be
       0.016073508 0.069756664 0.12736943 -0.12788762
000030 e9 f6 a9 3d 26 d1 12 bf 0c 26 b9 3e 9f 32 0a 3e
       0.082990475 -0.57350385 0.3616184 0.13495873
000040 af 31 85 3c a6 8f 32 3e 92 fa d0 3d 81 cf 23 be
       0.016259043 0.1743761 0.102040425 -0.15997125
000050 2d e4 45 3d 98 47 bc bd 8c 3f 00 bf 40 9e ab bd
       0.04831331 -0.09193343 -0.50096965 -0.08379793
000060 35 d7 f8 3d 75 8c 72 be d5 83 1e be 90 8b 63 3e
       0.121504225 -0.23686393 -0.15479977 0.22221208
000070 9e af 89 bd bc 51 59 3d 0b 13 b7 be 37 d3 8c be
       -0.067229494 0.053056464 -0.35756716 -0.27504894
000080 60 f7 a9 be 0e 7c ed 3d d8 1a d0 bd 6d 89 2d be
       -0.33196545 0.11595927 -0.1016137 -0.16946955
000090 44 8e bc bd 1a b4 a2 3d 7c ce 33 3d ff 6e 29 3e
       -0.092068225 0.07944508 0.04389809 0.16546248
0000a0 8b 1f 3b bd d0 02 27 bc 29 58 58 3e 8b ab 16 3e
       -0.04568438 -0.010193542 0.2112738 0.14713876
0000b0 57 26 01 be 68 28 06 3e 4b b0 b6 bd 1e b1 ae bd
       -0.12612282 0.13101351 -0.08920344 -0.08529876
0000c0 b0 eb d5 be fd d5 ba 3d 13 1b cc 3e 3d c0 9e 3d
       -0.41781378 0.09122846 0.39864406 0.0775151
0000d0 7b 47 68 be 74 5c bf 3d 8a 74 04 bd 3c 0a 04 3c
       -0.22683518 0.09343806 -0.032337703 0.008059081
0000e0 47 cb 8e 3d 73 ea 85 3d fc 51 20 3e ea 9f b9 bd
       0.06972366 0.06538858 0.15656275 -0.09063704
0000f0 18 c6 88 bc 0e fd ab 3d 64 41 8c 3e fb c0 5a bd
       -0.016696021 0.08397876 0.2739364 -0.053406697
000100 46 f6 18 3e 6c 2d fc bc 19 dd 3b bd 1b 54 15 3f
       0.14937696 -0.030783378 -0.045865152 0.5833146
000110 72 00 d2 be 6a a6 96 ba 8c f5 37 be 65 28 84 3c
       -0.41015965 -0.0011493687 -0.17964762 0.016132543
000120 4d f5 aa 3d 12 16 e2 3a 5c b2 4d bd a7 0c 25 bd
       0.08347569 0.0017249009 -0.050218925 -0.04029527
000130 fb 9c 05 3f 61 cf 9b be 78 dc e5 bd 52 6b ef bc
       0.5219266 -0.30431655 -0.11223692 -0.029225979
000140 4c 23 45 3d e0 a8 ee bd 76 b9 eb be b9 28 9e 3e
       0.048129365 -0.11653304 -0.46039933 0.30890444
000150 ca 25 8d bd 32 b9 fd bd b3 fb 76 bd a2 88 d5 bd
       -0.06891973 -0.12388839 -0.060298633 -0.10426451
000160 ec 63 62 3e 3c e0 18 be 90 71 d6 3d a6 cf b7 bc
       0.2210843 -0.14929289 0.10470879 -0.022437882
000170 70 aa fa bd 9b 63 40 3e d8 32 28 bc 21 ca 0a be
       -0.122395396 0.18787996 -0.010266028 -0.13553669
000180 13 65 4c 3e 79 20 80 3e d1 22 a5 3d ed 5e 74 bd
       0.19960432 0.25024775 0.08063281 -0.05966084
000190 6d f4 7f 3d e5 aa 58 3d 09 80 ab 3c 7b 21 cd 3e
       0.062488962 0.052897353 0.020935075 0.40064606
0001a0 7d ec 1e bc fd 64 0b be 4b a1 2a 3e ff e8 62 bd
       -0.009699938 -0.13612743 0.16663091 -0.055397984
0001b0 9e 09 f0 bc ee ab 11 bd 5d 60 3e bd 32 d6 c2 bc
       -0.02930146 -0.035564356 -0.046478618 -0.023783777
0001c0 b1 ca 8b be df 69 c6 bc 5d c5 3d bd 2a b2 a7 3d
       -0.2730308 -0.024220405 -0.0463308 0.08188279
0001d0 62 06 ed bc 56 69 be 3d e0 be a0 3d 3c 28 f9 bd
       -0.028933708 0.09297435 0.078489065 -0.12165877
0001e0 2a 5b 9c bd b5 5d a2 bc ee ee a4 3d a2 6f 6d bd
       -0.07634576 -0.019820074 0.08053385 -0.05796779
0001f0 23 11 85 bb 15 72 9c bd f7 3c a8 bd 03 91 14 3e
       -0.0040608807 -0.07638947 -0.08214753 0.14508443
000200 10 f6 a7 3d d0 a6 9f be 8a 94 ec bd 78 99 60 3d
       0.082012296 -0.31181955 -0.11551769 0.05483386
000210 e0 f0 6f bd b3 7b 9b be 4c 08 7d 3b 05 c9 7d be
       -0.058579326 -0.30367813 0.0038609682 -0.24783714
000220 80 d2 95 3e 1b bb 9a 3b 87 c1 81 3e ae 5a d5 3d
       0.2926216 0.0047220117 0.25342962 0.104176864
000230 bf 9c 2f 3c 84 b6 da 3d c0 32 0c be f1 0d af bd
       0.0107185235 0.10679343 -0.13691235 -0.08547581
000240 9d 05 74 bd 10 0c 9c 3d 8b 21 d7 bd 98 bd 24 be
       -0.059575666 0.07619488 -0.10504445 -0.1608795
000250 f1 7a 92 3e e8 e5 13 bd 6d ce b2 bd f2 42 23 3e
       0.28609422 -0.036107928 -0.08730779 0.15943506
000260 9a 1e a8 bc c0 6b 41 bd f2 25 e8 3d 2e bd 8c 3d
       -0.020522404 -0.0472219 0.113353625 0.06872021
000270 0e 1c 8e be c8 fb 17 3f b2 25 ee 3d 75 90 6b 3e
       -0.2775578 0.5936856 0.116282836 0.23004325
000280 28 cd 12 bf 9a b9 53 bd 55 c9 6f 3d b6 b3 a6 bb
       -0.57344294 -0.051690675 0.058541615 -0.005087341
000290 44 43 a4 3d 75 f7 ad 3e 9a 2b 86 3e 6d e9 dc bd
       0.080206424 0.33977857 0.2620514 -0.1078671
0002a0 35 3c 15 3e 30 77 85 3e b6 37 dc bc 40 d8 f6 3d
       0.14573748 0.26067495 -0.026882034 0.12052965
0002b0 df 78 c7 bd 04 44 18 bd 55 29 5f 3e 5d fc 91 3e
       -0.09739851 -0.03717424 0.2179311 0.2851285
0002c0 13 d2 96 be 81 b2 6e bd d9 57 54 be 10 63 68 3e
       -0.2945715 -0.058275703 -0.20736636 0.2269404
0002d0 64 04 43 be 91 58 07 3e 60 c3 10 3e f1 d7 e3 3d
       -0.19044644 0.13217379 0.1413703 0.11125172
0002e0 66 d2 00 3d ca 5b f3 bd a9 0e 77 bd fc e5 d7 3d
       0.03145065 -0.11882742 -0.060316715 0.10541913
0002f0 7d cb a7 3d 62 1f 06 be 26 c3 8f 3e c9 11 90 bd
       0.08193109 -0.13097909 0.28078574 -0.07034642
000300 96 94 48 be c3 3c 35 bf 9c 02 b6 bd 28 ec 90 3c
       -0.19587931 -0.7079584 -0.088872164 0.017690733
000310 db 93 38 be c2 2d 24 3c c4 57 59 3d 5c 81 e5 3d
       -0.18025152 0.010020675 0.053062215 0.11206314
000320 49 2b 83 3d 99 76 d9 3c a0 2f f5 3d e2 93 c7 3d
       0.0640474 0.02654581 0.119719744 0.09745003
000330 88 84 27 3d 3b fc 04 3e 66 7d 8e 3c 4c 08 de bc
       0.040897876 0.12986843 0.017393779 -0.027103566
000340 6d 4d 1d be 72 c9 c3 bd b2 36 cf 3c d4 97 1a be
       -0.15361567 -0.09559907 0.025294635 -0.1509698
000350 84 be ac 3c 34 06 ae 3c 28 4f 17 3d 2e d5 6a 3d
       0.021086939 0.021243192 0.036940724 0.05733221
000360 52 de d3 bc 5b 60 14 bd c8 6b 2f be f9 ad c8 3d
       -0.025862847 -0.036224704 -0.17130959 0.09798808
000370 dc f7 ab bd d5 73 31 be a4 a2 a4 bb 19 ed 11 3b
       -0.08396885 -0.17329343 -0.005024271 0.0022266565
000380 7b 74 68 bd 69 72 60 bd 58 85 41 3e b7 19 92 bd
       -0.05675171 -0.05479661 0.18898523 -0.07133811
000390 5f 76 b6 bd 5e 2b d4 3d 25 00 1f be 3b b7 b3 bd
       -0.08909296 0.10359834 -0.15527399 -0.08775183
0003a0 85 10 92 3d 96 36 a2 bd f7 3f 49 be 4a 07 43 be
       0.07132057 -0.07920568 -0.19653307 -0.1904575
0003b0 38 cb 90 bc 0c 79 9b bd 60 a1 09 3b d1 51 e9 3c
       -0.017675027 -0.07591447 0.0021000728 0.028481396
0003c0 22 fb 96 3e 7e e2 78 3d 60 5d a3 3d bb 8c 7b 3e
       0.29488474 0.060762875 0.07976794 0.24565403
0003d0 12 16 64 3d a3 35 cd 3d 99 0c b7 3e 2f be 5a bc
       0.05568511 0.10019996 0.357518 -0.013351007
0003e0 09 0d 16 3d c7 34 95 3d d3 a4 a4 bd 8c ce 35 3b
       0.036633525 0.07285457 -0.0803925 0.002774152
0003f0 d1 48 96 bc e1 e4 db bd a3 fc 0b 3d c4 0b 81 bd
       -0.018345268 -0.107370146 0.03417648 -0.06301072

encoder.body_conv.1.bias f4 [12]
000000 62 ba c3 3e d2 37 6b be 6e 35 eb 3f 24 43 b8 3e
       0.38228136 -0.22970513 1.837568 0.35988724
000010 26 96 26 40 b9 d2 ac 3f ec 7c 9a be ba b5 cc bf
       2.6029143 1.3501807 -0.30173433 -1.5992959
000020 cc 78 05 3e 54 85 82 bf c7 80 61 3f bd be af 3f
       0.13034362 -1.0196939 0.88087124 1.3730084

encoder.body_conv.2.weight f4 [12, 12, 3, 3]
000000 d7 1d 0f 3e 2f 3f 04 3e 34 9f 95 be 28 a3 3f 3e
       0.13976227 0.12914728 -0.29223025 0.18714583
000010 ea 86 c0 bd 5d c6 a3 3e ad 07 f1 bd 42 75 0b be
       -0.09400733 0.31987277 -0.11769042 -0.13618949
000020 de 09 e7 bd ab e9 d9 bd a3 2a de 3d 78 6c 8f bd
       -0.11281179 -0.10640272 0.10847976 -0.07003111
000030 fa ea 8b 3d 33 56 b9 3c f0 5d 1c 3d ca ba e8 3d
       0.068319276 0.02262411 0.038175523 0.11363752
000040 80 dc 81 be 96 13 84 3d 41 b0 e1 3d e6 47 86 be
       -0.2536354 0.06449048 0.11019946 -0.2622673
000050 3f 54 d2 3d d8 dc 6f bd 4e 0b b6 bd 4e de 61 be
       0.10269975 -0.058560222 -0.08888875 -0.22057459
000060 b3 8a c4 3d 5e ed dc 3d e3 d0 cd 3d 45 70 1e 3c
       0.09596767 0.10787462 0.100496076 0.009670322
000070 1d e5 69 3c 20 a6 85 be 78 d8 0b 3c 39 20 a5 3e
       0.014275816 -0.26103306 0.008535497 0.32251146
000080 b7 96 3c be 93 c7 95 bd b7 19 03 3e 80 90 15 bd
       -0.18416868 -0.073134564 0.12802778 -0.03651476
000090 87 da c7 bd 13 e3 87 be da 39 3d 3c 27 9a cd 3d
       -0.09758478 -0.2654043 0.011549437 0.10039168
0000a0 f5 a4 00 3f 27 55 1e bd 02 bb 42 3e dc 70 e8 be
       0.50251704 -0.038655426 0.1901665 -0.45398605
0000b0 58 ae 01 3e 05 97 c8 bd eb c0 02 be 29 a8 a9 3d
       0.12664163 -0.0979443 -0.12768905 0.08284027
0000c0 b1 e0 eb be d8 66 5e 3e 77 a1 da 3e 16 41 66 bd
       -0.46069863 0.2171892 0.42701313 -0.056214415
0000d0 b5 37 a1 3e 52 d0 eb bc 4b cf 5b bd 5a 7e 8c 3c
       0.31487814 -0.028785858 -0.053664487 0.017150093
0000e0 5e 94 b2 3c 22 23 de bd ca ec 21 be 39 b1 fd 3d
       0.021799263 -0.10846545 -0.15812984 0.12387318
0000f0 d6 1f 14 3e 41 16 74 3e 55 fd 4a be bf d5 cd bd
       0.1446527 0.23836614 -0.19823201 -0.100505345
000100 63 27 9e 3e 68 28 98 bd b7 a5 4b 3e 9c 29 26 bf
       0.30889425 -0.07429582 0.19887434 -0.6490724
000110 e2 68 75 3e 06 5e 3a bc ec 6f bf bb 1c da 59 3e
       0.23965791 -0.011374956 -0.0058421995 0.21274608
000120 bc 44 fe 3c b9 e9 49 bd 4f b2 a7 bd e5 51 ab 3d
       0.031038634 -0.04929516 -0.081883065 0.083652295
000130 82 57 91 3d 1c c3 a3 3c 25 d5 e4 bd 2e c1 bc 3b
       0.07096769 0.019990496 -0.111734666 0.0057603335
000140 34 fa 3c 3c 41 76 39 bd c0 94 35 3e 06 33 ed 3d
       0.011534262 -0.04527879 0.17732525 0.115819976
000150 d9 19 2f 3e e3 8a 44 3e fd 58 e6 be c7 4b 82 3d
       0.17099704 0.19193606 -0.44989768 0.0636211
000160 4d ce a1 bc 33 43 ba bd e4 e1 1a be be 07 f3 bd
       -0.019751692 -0.090948485 -0.15125233 -0.11866711
000170 25 11 86 3b a0 67 06 bf 4c 65 2a 3e 9e 14 9e 3e
       0.0040913993 -0.5250187 0.16640204 0.30875105
000180 71 fb 7c bd 86 30 8d 3e 78 bc 82 bd c3 57 35 be
       -0.06176323 0.27576083 -0.06383604 -0.1770926
000190 10 03 b8 bd 77 e8 c4 3d 9d 91 77 be dc ce a4 bd
       -0.08984959 0.09614652 -0.24176641 -0.08047268
0001a0 8a 82 8a 3e 12 09 dd bd 27 38 8a 3e 89 e1 bc bd
       0.27052718 -0.10792746 0.26995966 -0.09222705
0001b0 9a 46 6b bc c4 da 6f 3e e7 32 7e 3d b8 2e 7c be
       -0.014360094 0.23423296 0.062060263 -0.24627197
0001c0 e4 00 15 be 06 a5 94 be dc 76 00 3b 39 e4 d3 3d
       -0.14551121 -0.29032153 0.0019602096 0.103462644
0001d0 be 71 9d 3d 1f 00 f1 3b 01 50 8e bc 68 d2 00 3e
       0.0768771 0.0073547508 -0.017372133 0.12580264
0001e0 2e 55 07 be 9d ab 10 3e 0d f0 97 3d 8c 98 1e bd
       -0.13216087 0.14127965 0.07418833 -0.0387197
0001f0 ca 6f 5a be 87 75 a0 3d b4 a7 f1 bc b6 5b 08 bf
       -0.21331707 0.078349166 -0.029498912 -0.5326494
000200 ee 0d 1f be 10 a0 7e bd d6 c9 2b 3e d2 b2 b5 3e
       -0.15532658 -0.062164366 0.16776213 0.35487992
000210 03 ae a1 3d db ee 2e bd e4 4e 57 be d0 e6 35 3e
       0.07894518 -0.04270826 -0.21026188 0.17763829
000220 5b 3c 4d bd bc 05 1b 3d 62 5d 72 3e 0e 16 aa bd
       -0.050106388 0.037847266 0.23668435 -0.08304988
000230 49 c9 e8 bd 25 83 01 3e 1b b5 8c 3d ae 57 96 bb
       -0.11366517 0.12647684 0.068704806 -0.004588089
000240 db 1d 23 3d 19 d9 a1 3e cd 61 7c 3c 48 44 d7 be
       0.039823394 0.31610945 0.015404177 -0.42044282
000250 0a 07 dc 3d 18 bc 57 be 0f f6 8a 3d fd b6 a8 3e
       0.1074353 -0.21067846 0.06785213 0.3295211
000260 d3 56 cd 3c 5f e8 40 3e f2 13 33 bb 82 19 52 bd
       0.025065815 0.18838643 -0.002732512 -0.051293857
000270 ab c7 82 bd 97 34 5b be ed ac 15 3d 9d 70 55 3d
       -0.0638574 -0.2140678 0.036541868 0.05210935
000280 29 1b ed 3c 76 07 de 3d ad 0f 4c be 83 f1 4b bc
       0.028943615 0.10841267 -0.19927855 -0.012447718
000290 2f 38 4f be 0e 3c e6 3c 6f 20 03 be 37 17 e9 3d
       -0.20236276 0.028104808 -0.12805341 0.11381381
0002a0 2b e7 a2 3b dd a2 e6 bd 47 8d 8b bd 81 84 1f 3e
       0.004971405 -0.112615325 -0.06814056 0.1557789
0002b0 2b 63 2e 3e 07 e6 88 3e 14 88 f0 bd d8 9b 27 be
       0.17030017 0.26737997 -0.11744705 -0.16368043
0002c0 3a ab e6 bc 65 ae be 3d 63 42 49 3d 18 de 6c bb
       -0.028157819 0.09310607 0.049135577 -0.003614312
0002d0 12 86 56 bd 5e 48 69 bd 18 f2 7a 3d 5b 43 b1 3e
       -0.052373953 -0.05695378 0.061266035 0.346217
0002e0 8c 51 06 bf c2 d2 13 bd ad be fc 3d 2d 72 59 3d
       -0.5246818 -0.036089666 0.12341056 0.053087402
0002f0 e5 fd ae 3d 79 81 08 3d 16 e9 c1 3e f6 da a1 bd
       0.0854452 0.0333266 0.37873143 -0.079030916
000300 b6 8d ab bd b1 fd 14 be 1b f2 9f 3e b0 5a f5 3d
       -0.083766386 -0.145499 0.312394 0.11980188
000310 c8 21 c3 bd 38 d6 c6 bd 34 31 bf 3d 01 ad 5d bd
       -0.09527928 -0.09708828 0.093355566 -0.054120068
000320 b4 d8 16 bb 67 72 97 3d 54 4e a9 bc 0a e6 57 bd
       -0.0023017349 0.073948674 -0.020667233 -0.052709617
000330 08 5e 5e bd d0 7e c9 3d 70 fa 33 bd e4 3f d1 3d
       -0.054288894 0.09838641 -0.043940008 0.10217264
000340 ac c3 7b bd db eb 89 3c ed ec 88 3e 60 8b ec 3d
       -0.061465904 0.016836097 0.2674326 0.11550021
000350 f3 a7 ba bd f7 89 db 3c b8 e1 69 bd bb f0 0b bd
       -0.09114065 0.026799185 -0.057100028 -0.034165125
000360 2c f8 77 be ba 8f 8a bd ae 3b ce 3d 25 8e 36 be
       -0.24215764 -0.06765695 0.10069977 -0.17827661
000370 97 9e 9c 3d 01 2d c4 bd 73 08 c2 bd 7b 3f 9d 3d
       0.07647436 -0.09578896 -0.09474268 0.076781236
000380 71 a6 9a bd e3 37 b0 3d a0 28 56 3e df 19 55 3e
       -0.075512774 0.086044095 0.20913935 0.2081065
000390 fe 1a d4 bc b4 e3 b9 be c1 f5 88 3e 67 48 db bd
       -0.025891777 -0.36306536 0.26749995 -0.10707169
0003a0 d6 e5 33 bd 92 37 bd 3c 64 a8 3c bd 77 a0 78 3d
       -0.04392036 0.023097787 -0.046059027 0.060699906
0003b0 d6 8b cc bc 65 f6 24 be 41 8c 6c 3d 8a 52 62 be
       -0.024969023 -0.16109617 0.057750944 -0.22101799
0003c0 87 67 16 3e 62 5a 76 bd 91 2f 9f 3d 7d 9e 1a be
       0.1468793 -0.06014479 0.077727444 -0.15099521
0003d0 6c 32 c1 3e 74 22 2a 3e d1 e4 16 bd 08 2d 15 bd
       0.3773378 0.16614705 -0.03683931 -0.0364199
0003e0 cc 3d 9b bb 0e 97 cf bc 43 7d 35 3d 02 95 35 3e
       -0.0047375914 -0.025340583 0.044308912 0.17732623
0003f0 30 2d dc 3d 7a 6f 1d 3d 7b f6 8b be fa f9 3d 3d
       0.10750806 0.03843639 -0.27336487 0.046380974

encoder.body_conv.2.bias f4 [12]
000000 ad 81 aa bc c6 79 c2 bc 15 97 02 bd 16 db 23 3b
       -0.020813787 -0.023739707 -0.031882364 0.0025002412
000010 fb 84 9d bc 2c ef 61 bd a9 ba 87 3b 7a f6 b1 bc
       -0.01922845 -0.055159733 0.0041421247 -0.021723974
000020 22 5f 51 3d c3 1f 0a 3d f5 a4 c4 bc 95 d0 83 3d
       0.051116116 0.033721697 -0.024004439 0.06436268

encoder.body_conv.3.weight f4 [12, 12, 3, 3]
000000 dd 61 b9 3b f9 b4 9f be ab 9e 9e bd ef 5a 91 3e
       0.005657418 -0.3119276 -0.07745107 0.2838969
000010 0b 53 96 be 8d 27 ff bd d1 09 26 3e de 1a 75 3e
       -0.29360232 -0.124587156 0.16214682 0.2393603
000020 d6 8d b6 bd 29 df d2 bb 2c f5 f1 3b 4a 8d 1d 3e
       -0.08913772 -0.006435294 0.007383963 0.15385929
000030 c8 74 dd 3e 57 ce 4e 3d 2c 3f 0c 3e d9 6c 96 bd
       0.4325316 0.05048975 0.13695973 -0.0734498
000040 e7 7d ae 3d 5c 42 2e 3e 2b 64 17 3d d6 1f b5 3e
       0.08520108 0.17017502 0.036960762 0.3537585
000050 9e 9a a2 bd 43 31 36 be 5f 73 92 bd 26 26 51 3e
       -0.07939647 -0.1779223 -0.071509115 0.20424709
000060 2b 0c c2 bd 01 3b fd bd 32 ec 16 3e 88 d4 f8 3d
       -0.09474977 -0.1236477 0.14738539 0.12149912
000070 aa ae 04 be 29 14 8d 3d c1 a5 5d bd 69 4f b5 3d
       -0.12957254 0.06888611 -0.054113153 0.08853037
000080 75 4c c5 bd ea 7a 44 bd f4 71 ba 3d 5d e2 13 bc
       -0.09633724 -0.047968782 0.09103766 -0.009026137
000090 35 01 2f bd c3 36 b5 3e 4b 2e 5a be 30 53 49 be
       -0.04272576 0.35393342 -0.21306722 -0.1966064
0000a0 9e f0 8f 3e 34 f4 f1 3d df ff e7 3c a1 27 be 3c
       0.28113264 0.11814156 0.028320251 0.023212256
0000b0 c2 ff c2 bd d4 b9 6a be 70 ba 45 be 52 71 de 3d
       -0.09521438 -0.2292245 -0.19309402 0.10861458
0000c0 7a 18 63 3e 10 9a 7e 3e ca b3 9c be 56 bf e5 3d
       0.22177306 0.24863458 -0.30605918 0.11218135
0000d0 e4 7a bc 3d 5e e7 72 be e1 29 4f bd 83 44 99 3e
       0.09203127 -0.23721072 -0.05057705 0.29935083
0000e0 d1 92 ce 3e ec 4c 43 3b 0a 7e 02 bf 99 90 99 3e
       0.40346387 0.0029800488 -0.5097357 0.29993132
0000f0 65 55 21 3e 33 82 bb be ca 79 92 3d 57 d2 4b be
       0.15755232 -0.36622772 0.07152136 -0.19904457
000100 a4 d3 79 3e 39 06 a0 3e a8 93 74 be 0c 89 89 be
       0.2439714 0.31254748 -0.23884451 -0.2686237
000110 0e 81 4c 3f cc 6a 83 be 81 93 ea 3c 26 85 84 3d
       0.7988442 -0.25667417 0.028634788 0.064707085
000120 68 bc 50 bc d2 70 c1 be 1c 26 57 3e a9 87 6f 3e
       -0.012740232 -0.37781388 0.21010631 0.23391594
000130 f7 37 f2 be cb 9f 3b be a7 80 5c 3c 12 fa b4 bd
       -0.47308323 -0.18322675 0.0134584075 -0.088367596
000140 60 a9 f1 3d e0 a3 f5 3d 4c ed d2 bd d1 cf e9 3d
       0.11799884 0.11994147 -0.10299167 0.11416591
000150 97 df b0 3d aa e4 fb be fb 6a 18 3e 01 eb 30 3e
       0.086363964 -0.49197894 0.1488456 0.17277147
000160 2d e2 81 3d 93 06 5a be df 36 dc bc 6c 17 3d be
       0.06341968 -0.2129157 -0.026881633 -0.18465966
000170 5a 8b dc 3d 2f 49 83 3d 9f 45 1c 3d ce e4 98 bd
       0.10768767 0.06410443 0.038152333 -0.07465516
000180 ea 76 0f bd b2 5b 38 bd cf 05 64 3e b3 8d 96 3d
       -0.035025515 -0.045009322 0.22267841 0.07351246
000190 8b 2a 63 3e 9b 88 10 3d 8e 15 b2 be de e9 b3 3d
       0.22184198 0.035286527 -0.3478207 0.08784841
0001a0 be d7 de bd 42 f5 1b 3c 21 b9 4a 3d 1c 25 d4 3c
       -0.10880993 0.009518923 0.04949296 0.025896601
0001b0 71 d4 e0 bc 92 15 3a 3e 19 81 a5 bd 81 0d af 3e
       -0.02744505 0.18172291 -0.08081264 0.3418999
0001c0 b2 98 72 bd a0 59 ad be 0d f7 90 3d f9 ad 0b bd
       -0.059227653 -0.3385744 0.07078371 -0.03410146
0001d0 2c 39 90 bb b3 ed 01 3e 0a 06 71 be ad 6e 89 3d
       -0.0044013467 0.12688331 -0.2353746 0.06710563
0001e0 89 13 15 3e 3f ad 33 be 86 ab 0e be 07 0c 01 3e
       0.14558233 -0.17546557 -0.13932618 0.12602244
0001f0 78 cb 13 3e 29 c2 4d bd 5b 08 e4 bb 2b f0 af 3d
       0.14433086 -0.050233994 -0.006959004 0.0859073
000200 68 31 ce bd 99 86 80 bc 5a f2 c9 3e 0e 4d ee bc
       -0.10068017 -0.015689181 0.39442712 -0.029089477
000210 85 c1 9a be b9 9d 0b 3e 9a 76 2d be d3 c6 93 3d
       -0.3022577 0.13634385 -0.16939774 0.07215657
000220 d6 1f 37 bc b9 bf c6 3d d5 fe fe 3d 13 d2 2c 3f
       -0.011177024 0.09704537 0.12450949 0.6750805
000230 71 43 1c 3e 72 d3 0e 3e 90 65 0e 3e c8 08 07 3e
       0.15260102 0.13947847 0.1390593 0.13186944
000240 7c ce c6 3d 09 80 33 be e0 46 fd 3d c3 6a 04 3e
       0.097073525 -0.1752931 0.12367034 0.12931351
000250 33 8a 4d 3c 1f 8d d1 3d 7b b8 0d be a8 c5 81 be
       0.012545156 0.10231995 -0.13839905 -0.25346112
000260 fb 74 1f 3e c8 e2 8e 3d 3d b2 54 3e a5 1e 06 3b
       0.15571968 0.06976849 0.20771118 0.0020465043
000270 c0 12 0d be b4 9d 94 bd aa 7c b6 3c b6 84 47 bd
       -0.13776684 -0.07256642 0.022276241 -0.048710547
000280 75 bd 50 be 64 1d ab bd fe 4c 27 3d 94 55 c2 be
       -0.20384772 -0.08355215 0.04084491 -0.37955916
000290 8f 9e 60 bb 01 34 5e 3e b4 eb 4a bd dc 33 ae 3e
       -0.0034274196 0.21699525 -0.04954119 0.3402394
0002a0 be d7 a0 3c 1a 02 43 be 33 d0 61 3d fd 2c 15 3d
       0.019634124 -0.1904377 0.055130195 0.036419857
0002b0 24 3b 45 3c 5b fe 44 3d be 2e 85 bd ff 36 7e 3e
       0.012038026 0.048094135 -0.06503056 0.24825667
0002c0 b4 e8 98 bd 33 32 4a bd c3 e6 88 be 84 26 03 3d
       -0.074662596 -0.04936428 -0.26738557 0.032019153
0002d0 85 15 bd bd b3 20 90 bc 0d 0c 9e be 1c 18 87 3d
       -0.0923262 -0.017593717 -0.3086857 0.065963954
0002e0 04 25 40 be b0 b3 12 3d 72 64 d1 bc 0b ac a1 3e
       -0.1876412 0.035815895 -0.025560591 0.3157657
0002f0 4b ee da 3d c9 e6 b2 3d 30 1b a7 3e 0a bc d7 3d
       0.10689982 0.08735425 0.3263793 0.105339125
000300 e2 4c 30 be 94 7f f0 bd 2a e0 a6 be 36 d0 b7 bc
       -0.17216828 -0.117430836 -0.325929 -0.02243815
000310 2c b8 4f bb 9d 0d 9f 3c a7 7d 81 bd ed af f7 3d
       -0.0031695468 0.019415671 -0.063227944 0.12094102
000320 10 b6 38 3b 62 24 44 3e 15 a7 0d 3e 1a 2d 6c be
       0.002818469 0.19154504 0.13833268 -0.2306408
000330 ae 8f a8 bd 5c 8c f8 bc ba c8 7f bd 66 4c 4d bd
       -0.0823053 -0.030340366 -0.062447287 -0.050121687
000340 2b ad 39 be a8 5f 05 3e a2 a4 e7 bd 45 81 6c bd
       -0.18132465 0.13024771 -0.11310698 -0.05774047
000350 80 22 b7 3e 24 b1 09 be 25 2f 42 3d 54 c7 8f 3c
       0.3576851 -0.1344648 0.04740824 0.017551102
000360 9b 52 cd bb 95 81 4a 3e 4b 5a b2 3d 61 f0 86 3e
       -0.006265951 0.19775994 0.08708628 0.2635527
000370 a9 fc 77 3e a5 e4 f3 3d f9 5f 8e bd c6 46 e6 3e
       0.24217476 0.11908845 -0.06951899 0.4497587
000380 dc ea 41 3e 18 84 d6 3d 11 12 4d be f4 86 d5 3c
       0.18937248 0.10474414 -0.20026423 0.026065327
000390 d5 73 f4 3d bd dd 80 be ab 07 cb bd d0 6a 50 3d
       0.11936156 -0.25169173 -0.09913572 0.050883114
0003a0 e6 99 f6 bd 16 30 70 3e 5e ae 11 be 9e 08 d5 bd
       -0.120410725 0.23455843 -0.14226672 -0.10402034
0003b0 eb 11 31 3d 85 ed 80 be 7e a0 23 be db 17 e4 bd
       0.04322998 -0.25181213 -0.15979192 -0.111373626
0003c0 ca 15 e9 bc 34 91 48 be 21 ff 44 be 9a e3 90 be
       -0.028452773 -0.1958664 -0.19237949 -0.28298646
0003d0 d2 5c e9 bd ae 21 1e bc d9 40 09 bd f2 b7 cf be
       -0.11394657 -0.009651585 -0.03350911 -0.40570027
0003e0 e3 27 02 3e fc 03 d3 bd 52 f7 3b be 1f 32 f7 bd
       0.12710528 -0.10303494 -0.18356064 -0.12070107
0003f0 12 2f 81 be b4 ad fc 3c 12 cf 25 3e 7d 16 9e be
       -0.25231224 0.030844547 0.16192272 -0.30876532

encoder.body_conv.3.bias f4 [12]
000000 5e 50 49 bd e9 79 e1 bc 53 32 58 bd 34 1a 6f 3d
       -0.04914891 -0.027523952 -0.052782368 0.0583746
000010 50 db c7 3d c9 cf d5 bb e8 13 e3 3c 9e 23 88 3d
       0.097586274 -0.006525014 0.027719453 0.066474184
000020 23 05 06 be 2e 9d 03 3d c7 d6 bc bd 74 22 9b 3d
       -0.13087897 0.03213232 -0.09220653 0.07574931

encoder.body_conv.4.weight f4 [12, 12, 3, 3]
000000 94 b5 45 bc 0a f8 a1 bd 5e 94 53 bd 91 ae e9 bd
       -0.012067217 -0.07908638 -0.051655166 -0.11410249
000010 60 1b 07 3e dc 3e b4 3d 23 6d 85 3d cd d1 a4 3d
       0.13194036 0.08801052 0.06514957 0.08047829
000020 2e da ab 3d 73 3b db 3d 8d ff 39 3e 9a dd 95 3d
       0.08391224 0.107046984 0.18163891 0.07317658
000030 c6 a3 b1 3d 5e 62 3f 3d 04 a1 b2 3d 7c 85 c8 3c
       0.086738154 0.04672467 0.087221175 0.024477713
000040 10 76 20 be 59 37 a2 3d 03 bb fd 3d 14 23 cd bb
       -0.15670037 0.07920713 0.12389185 -0.006260285
000050 7b 1e b4 bc 62 9c de 3c ae 95 51 be 49 fc 18 3e
       -0.02198719 0.027174179 -0.20467255 0.14939989
000060 cf 0a 30 bd 57 61 28 be 03 89 05 bd 97 6d b5 bc
       -0.042979058 -0.16443382 -0.032601368 -0.022146983
000070 65 b4 82 bd ac 2f f1 bb fd 1f 83 bd a5 4a f4 bd
       -0.06382064 -0.0073604193 -0.06402586 -0.119283
000080 c2 65 32 3d 0a 07 1b 3c b1 21 07 be bf 9a 5e bd
       0.043554075 0.009462127 -0.13196446 -0.054346796
000090 0b 97 82 bd 74 12 d5 bd 5e 8f 69 3d a4 13 a0 bd
       -0.063764654 -0.1040391 0.05702149 -0.07816246
0000a0 7e 68 2d 3e 27 21 3e 3e b5 02 57 3d 45 28 9e 3d
       0.16934392 0.18567334 0.052492816 0.077225246
0000b0 df 60 a1 3d 10 e2 74 3d ae 89 f2 3d 77 27 f2 3c
       0.07879805 0.059785903 0.118426666 0.029559834
0000c0 a1 0d 26 3c 56 a4 1d 3e e2 d0 1b 3e cc a9 8e bc
       0.010135085 0.1539472 0.15216401 -0.01741495
0000d0 70 1d a7 3c 7b 4a 0c bc a7 10 f8 3d e1 f1 73 bc
       0.02039978 -0.008562679 0.12112551 -0.014889211
0000e0 dc 37 ac bd 36 6b 8c 3d c2 fd e8 bd f4 7f 2e 3d
       -0.08409092 0.06856386 -0.113765255 0.042602494
0000f0 b2 53 92 bd a3 a9 cc 3d b2 47 7f bd 68 9f b6 bd
       -0.0714487 0.09993293 -0.062324233 -0.08917123
000100 9c bc 66 be e1 38 8f bd d0 af 05 3e 5a 9b 5e 3d
       -0.22532886 -0.06993271 0.13055348 0.054347374
000110 70 ab 1c 3d 0a 73 43 3c 5e 46 30 bd 8e 40 43 3d
       0.038249433 0.011929283 -0.043035857 0.047668986
000120 b6 44 9e 3d 1c aa b3 bc 40 87 bc 3b 5d 8b 85 3d
       0.07727949 -0.0219317 0.0057534277 0.06520722
000130 ed 18 40 be 7f 8c 4c bd 21 3a bb 3c 76 fe 0a 3e
       -0.18759508 -0.049938675 0.022854866 0.13573632
000140 03 8e 40 3c b3 e9 2e bd b9 5c a1 bd f5 95 8a bd
       0.011752608 -0.04270334 -0.078790136 -0.06766883
000150 72 ba 8e 3e d5 5c 57 3f 2e 41 e2 3d bb c6 1c bd
       0.2787662 0.84126025 0.11047588 -0.03827546
000160 24 b3 93 bd bd 41 9a bc 7a 92 8e bd e4 d0 cc 3d
       -0.07211903 -0.018830175 -0.06961532 0.1000078
000170 15 dd 5c 3d e6 a1 72 be 0c 17 3a 3e 6a 1a 67 bd
       0.053921778 -0.23694572 0.18172854 -0.056421675
000180 d1 c5 00 be 83 70 9e be 01 75 24 be 48 a6 13 bd
       -0.12575461 -0.30945215 -0.16060258 -0.03604725
000190 0a 92 ea bd 93 ff d4 b9 e5 da 9e 3b 12 6b c0 bd
       -0.11453636 -0.0004062621 0.0048478716 -0.09395422
0001a0 4e 7c a3 bd 9a 23 34 bd b4 f9 c3 bc f1 23 9b bb
       -0.079826936 -0.043979265 -0.023922779 -0.004734509
0001b0 ef d7 3d bd de 90 57 be 1f 56 8d bd 66 67 93 bd
       -0.04634851 -0.21051356 -0.06901192 -0.07197456
0001c0 eb 8a ce 3d f7 23 12 3d 3c e3 47 3e d3 07 0c 3e
       0.1008509 0.03567883 0.19520277 0.1367486
0001d0 44 21 cf 3c f3 a0 81 3d dd 27 71 3e c7 1c a0 bd
       0.025284417 0.06329527 0.23550363 -0.07817989
0001e0 e2 ad e3 bd e2 1d 87 3e 52 c9 23 bd e9 a7 3e 3d
       -0.1111715 0.26389986 -0.039986916 0.04654685
0001f0 86 92 a8 be e9 fe 3b 3c fd a1 77 3e bf 14 54 be
       -0.3292429 0.01147435 0.24182887 -0.20711039
000200 bf d3 2e bd 14 32 f9 bd ed 12 18 be 69 ae 04 bd
       -0.042682406 -0.12167755 -0.1485097 -0.032392893
000210 d3 78 14 be 91 66 38 be 98 c3 05 be 74 21 9d bc
       -0.14499216 -0.18007876 -0.13062894 -0.01918099
000220 b3 e9 f9 bc 66 c4 6e 3d 92 af da bd 72 2a af bd
       -0.030506944 0.05829277 -0.10678019 -0.08553018
000230 d2 35 27 3e c5 87 be 3b e0 35 0e be a9 75 d2 bd
       0.16329125 0.005814525 -0.13887739 -0.10276348
000240 27 09 ae bd 67 ea 11 be 92 fa 87 bd 10 ca a7 3d
       -0.084978394 -0.14249574 -0.06639589 0.08192837
000250 6f 4e b2 3d ef 1a 11 3d 05 11 9c 3c f6 4a 90 be
       0.08706366 0.035426077 0.019051084 -0.2818219
000260 8c a0 36 bd 1f 3e cb 3d bf 53 27 3d e3 fd 62 3c
       -0.044586703 0.09923958 0.04085135 0.013854477
000270 16 b9 21 be 1f 58 a1 3d f4 f4 65 3e 1d a3 07 3e
       -0.15793261 0.07878136 0.22456723 0.13245817
000280 0c fe ab 3d 73 65 a5 bd 4c a3 bf 3d a6 6a e0 bc
       0.08398065 -0.080759905 0.09357318 -0.027394604
000290 c9 50 32 be 65 72 ea bd d8 01 15 be f7 10 03 3d
       -0.1741363 -0.114476 -0.14551485 0.0319986
0002a0 bf d7 8a be 05 f9 6f 3d a4 c9 02 3e 63 c0 25 be
       -0.27117726 0.058587093 0.12772232 -0.16186671
0002b0 75 51 8c be 7b 7d 1f be 03 a7 40 bb 3b 23 14 be
       -0.27405897 -0.15575211 -0.0029396422 -0.14466564
0002c0 9b e1 3d bd 79 e3 29 3e 94 40 63 3e 7c 82 ad 3d
       -0.046357732 0.1659068 0.22192603 0.084721535
0002d0 79 ea 9e 39 c6 60 24 be 7c d1 68 3d 8d dc ac bd
       0.00030310804 -0.16052541 0.056840405 -0.08440504
0002e0 33 aa 27 be 89 75 88 3d dd dc 06 bd b9 a9 0d 3e
       -0.1637352 0.06663043 -0.032925475 0.13834275
0002f0 a8 5d 44 bc ec 52 ab 3c e2 39 d6 be 2e a5 6e 3d
       -0.01198522 0.020913564 -0.41841036 0.058262996
000300 74 4a c8 3e eb 41 b1 be 6b 48 1c 3e 3c 9f 31 be
       0.39119303 -0.34620604 0.15262 -0.173459
000310 69 94 25 be 9c 6f a2 bd 5e 23 86 3c 90 bf 10 3d
       -0.16169895 -0.07931444 0.016374286 0.03533894
000320 6a 4d c4 3d 74 f4 00 be 87 b0 40 3d 17 11 0a be
       0.09585078 -0.12593251 0.04704335 -0.13483082
000330 43 4d 00 be 97 6d b9 3e 3e 76 ca bd b4 df 07 be
       -0.12529473 0.36216423 -0.09885834 -0.1326893
000340 33 5a 4a be 1c 86 5b bd 4f 36 83 be 37 73 20 bf
       -0.19760971 -0.053594694 -0.25627372 -0.62675804
000350 05 34 16 be a3 49 be bd f8 b8 b4 be ad 20 38 bd
       -0.14668281 -0.09291389 -0.3529737 -0.044953037
000360 02 09 eb bb cf 5d d4 3d d9 9f bb 3b 29 31 22 be
       -0.0071727047 0.10369455 0.0057258424 -0.15839066
000370 5f da 66 3c ae b0 17 3d 25 70 8f 3c 39 d0 49 bb
       0.01409015 0.03703373 0.01750953 -0.0030794276
000380 df 25 12 bd 2c 2b 7c 3e e2 d4 83 3e f2 50 6d 3e
       -0.035680648 0.24625844 0.25748354 0.2317541
000390 95 dc a1 3e b0 e9 54 3f 01 a8 43 3e 6b cc 59 3d
       0.31613603 0.8316908 0.19107057 0.053173464
0003a0 cf d9 69 3e de 58 a7 3d 5c 0e 6f bc 73 f4 0f 3e
       0.22836994 0.08171247 -0.014590826 0.14058094
0003b0 7c 9f 0f 3d 93 14 86 3b f1 b1 5b be fe 88 85 3d
       0.035064206 0.004091808 -0.21454598 0.0652027
0003c0 f5 57 eb bd a3 3d ca bd fd 16 e4 bc 78 88 cc bd
       -0.11491386 -0.098750375 -0.027842993 -0.09986967
0003d0 68 eb 9d bd 8c 8a 47 bc 1d 9d 5c bd 01 09 f7 bc
       -0.07710916 -0.012179028 -0.053860772 -0.03015566
0003e0 96 74 95 3c 49 ea f1 3d e1 6b 9a 3e 32 d4 15 3e
       0.01824407 0.118122645 0.3016043 0.14631727
0003f0 06 de e9 bd a3 83 90 bd 7d 12 3a 3d 22 cb c7 bd
       -0.11419301 -0.07056358 0.045427788 -0.097555414

encoder.body_conv.4.bias f4 [12]
000000 a3 69 dc bd 7c 54 3d 3d 6f dd cb be 82 8c a6 3c
       -0.10762336 0.04622315 -0.39817378 0.020330671
000010 d2 a1 29 bd 1b 95 18 bd 89 5d f9 3d e0 14 ad bc
       -0.04141409 -0.037251573 0.121760435 -0.021128118
000020 b0 0b 47 3d 9e 6f 97 3c 24 1b d8 bd d2 73 be bd
       0.04859513 0.01848584 -0.10552052 -0.09299435
