save/carn-pcsr-phase1/iter_400000.pth (torch, 755653 bytes, 132 tensors)

encoder.entry.weight f4 [52, 3, 3, 3]
-0.1543328 0.006110388 -0.20377778 0.17125042 0.64441186 -0.5594411 -0.024172876 0.38775563
-0.12996094 0.115641184 -0.018407142 -0.050200578 -0.27424178 0.4766834 -0.3444235 0.12007425
0.029614303 -0.022812063 0.043062314 0.31724986 -0.07524483 0.20711969 -0.13392095 -0.15905884
-0.09418629 -0.06737985 -0.09138731 0.12173686 -0.3694356 0.05330841 -0.12539029 0.4343497
-0.42894736 0.109221175 -0.237113 -0.048687976 -0.14606255 0.17230046 -0.08178906 0.08909154
0.18892038 -0.17546946 -0.045324564 -0.06957307 -0.023513203 0.051741965 0.15232073 0.15564258
-0.0025655332 0.13985004 -0.28133896 -0.06815112 0.08344335 -0.05083276 -0.09326347 0.39728123
0.08460514 0.03841851 -0.4806267 0.22973138 0.07565792 0.017436085 0.020458804 0.16232637
-0.30551198 -0.09772486 -0.26762635 0.47772473 -0.32053742 0.055756506 -0.35794574 0.04760559
-0.102079146 -0.08600489 0.0041588573 0.20323235 0.38178045 0.059390325 -0.12051606 0.12358507
-0.09109059 -0.020953184 -0.10071979 0.2222972 0.015860792 0.048872344 -0.20909224 -0.07756947
0.20247176 -0.037088964 -0.00051059044 0.12786661 0.1906472 0.11505032 -0.43682972 -0.0282699
-0.05617373 0.22511771 0.1470737 0.057284165 -0.35186732 -0.047738582 -0.052497655 0.3176891
-0.46331066 -0.14180025 0.10007347 -0.089146115 -0.11597469 0.23993206 0.08399135 -0.0018493348
-0.26481977 0.0045463457 -0.2030306 -0.06794039 0.108881645 0.13935204 0.03768256 -0.010401131
0.14601843 -0.5465012 0.51488924 0.06753284 0.23221251 -0.025476122 -0.044099 0.14135757
0.08443629 -0.16595551 -0.12002606 0.16204375 0.0009392736 -0.12919256 -0.14729635 0.0063652364
-0.1721997 0.19507898 -0.0010193238 -0.40736 -0.23068821 0.09929919 -0.062410574 0.10680852
0.054294616 -0.097466655 0.20772313 -0.0364451 0.49608314 0.12039862 0.055821802 0.0076977387
-0.017724052 -0.09440968 0.19358729 -0.1803654 0.20461911 -0.7635776 -0.2277618 -0.006331929
-0.070540234 0.14350355 -0.10460101 0.19908395 0.028653312 0.1272928 0.725344 0.106502265
-0.039815843 0.17092095 0.06803253 0.13876437 0.081968166 0.0693201 -0.00036496477 -0.45326793
-0.05939544 -0.009922195 0.11733169 4.2264728e-05 -0.0073822364 -0.21411355 -0.012339606 -0.18837781
0.36052 -0.13377544 0.043032106 -0.20297869 -0.12832025 -0.096631 -0.34178108 -0.012255307
-0.06431218 0.18767637 0.08179793 0.08895345 0.0059364066 0.19655539 0.20309763 -0.17705171
0.039581757 0.059302855 0.62733316 -0.6823123 0.11166693 0.09016127 -0.26984248 -0.0462664
0.15764135 0.0029781596 -0.058965735 -0.31129518 0.41202414 -0.20088917 -0.14496796 0.06985102
-0.031155115 0.029410867 0.06640914 0.066389464 -0.5859447 0.07365156 -0.2707975 0.30514362
-0.0015468509 -0.11359014 -0.052174717 -0.042779706 0.13378076 0.40698543 -0.2657178 0.09877566
0.15596256 -0.051357146 0.030220138 -0.004032047 0.08773189 0.17203714 -0.3680289 0.07995112
-0.1643785 0.078186356 -0.05617298 -0.08286957 -0.007286888 -0.057767365 0.067587785 -0.3002581
0.09662459 0.12818368 -0.044130757 0.024090689 0.04787163 0.017085953 0.06547423 -0.052537795
00000000: 6b09 1ebe a639 c83b 1fab 50be 455c 2f3e
00000010: 2df8 243f 8837 0fbf 3206 c6bc e887 c63e
00000020: 7b14 05be 49d5 ec3d 93ca 96bc 1f9f 4dbd
00000030: 6b69 8cbe d90f f43e 4758 b0be 7de9 f53d
00000040: b299 f23c 5de0 babc 1c62 303d 936e a23e
00000050: f619 9abd 2f17 543e 9322 09be 52e0 22be
00000060: bee4 c0bd 72fe 89bd 4529 bbbd 2d51 f93d
00000070: aa26 bdbe eb59 5a3d 5066 00be 1563 de3e
00000080: fd9e dbbe 5aaf df3d c0cd 72be 0b6d 47bd
00000090: 6c91 15be 886f 303e 0681 a7bd a075 b63d
000000a0: 5874 413e 44ae 33be 40a6 39bd 537c 8ebd
000000b0: c39e c0bc 62ef 533d f7f9 1b3e c560 1f3e
000000c0: 8122 28bb d934 0f3e a90b 90be d092 8bbd
000000d0: 59e4 aa3d 0336 50bd eb00 bfbd 7268 cb3e
000000e0: 7645 ad3d ba5c 1d3d b414 f6be b43e 6b3e
000000f0: 8af2 9a3d 1fd6 8e3c 3999 a73c e238 263e
00000100: 116c 9cbe f923 c8bd 5206 89be 5698 f43e
00000110: 7b1d a4be ef60 643d aa44 b7be 14fe 423d
00000120: df0e d1bd 5523 b0bd 0647 883b 241c 503e
00000130: ba78 c33e 4543 733d 20d1 f6bd 2b1a fd3d
00000140: b48d babd 03a6 abbc 2d46 cebd e1a1 633e
00000150: 7eee 813c 5e2e 483d 471c 56be bedc 9ebd
00000160: c254 4f3e 99ea 17bd 25d9 05ba 77ef 023e
00000170: 0539 433e 819f eb3d 25a8 dfbe 4796 e7bc
00000180: 6d16 66bd 4285 663e 7d9a 163e cda2 6a3d
00000190: f427 b4be 8889 43bd c807 57bd 25a8 a23e
000001a0: 0e37 edbe 1634 11be 52f3 cc3d 3d92 b6bd
000001b0: 2384 edbd c0b0 753e a803 ac3d 6165 f2ba
000001c0: 7596 87be 83f9 943b 41e7 4fbe 5524 8bbd
000001d0: 57fd de3d 4db2 0e3e 0759 1a3d 8169 2abc
000001e0: db85 153e 81e7 0bbf c8cf 033f a84e 8a3d
000001f0: 1ec9 6d3e 4db3 d0bc 27a1 34bd 0ac0 103e
00000200: efec ac3d 3ef0 29be 39d0 f5bd ccee 253e
00000210: 9639 763a 0e4b 04be dbd4 16be 7993 d03b
00000220: 1e55 30be c9c2 473e d59a 85ba 7d91 d0be
00000230: 8839 6cbe 605d cb3d 3ba2 7fbd 6dbe da3d
00000240: 0864 5e3d 999c c7bd 5fb5 543e 7547 15bd
00000250: 9cfe fd3e 8d93 f63d 67a5 643d 503d fc3b
00000260: 0832 91bc dd59 c1bd bf3b 463e b5b1 38be
00000270: ac87 513e d279 43bf 643a 69be 127c cfbb
00000280: 6677 90bd 98f2 123e 0e39 d6bd aadc 4b3e
00000290: 5aba ea3c 0b59 023e 25b0 393f dc1d da3d
000002a0: f015 23bd e705 2f3e a454 8b3d 3f18 0e3e
000002b0: edde a73d b2f7 8d3d be58 bfb9 bc12 e8be
000002c0: a248 73bd b490 22bc 994b f03d 6845 3138
000002d0: b0e6 f1bb 9540 5bbe 0f2c 4abc 1de6 40be
000002e0: 1496 b83e 6efc 08be 6f42 303d a5d9 4fbe
000002f0: 6266 03be 79e6 c5bd eefd aebe 7cca 48bc
00000300: 1bb6 83bd 3c2e 403e ac85 a73d 3a2d b63d
00000310: 3086 c23b d145 493e d3f8 4f3e 0b4d 35be
00000320: 7b20 223d 8de7 723d e898 203f 05ac 2ebf
00000330: a2b1 e43d 79a6 b83d cb28 8abe d681 3dbd
00000340: bc6c 213e 3a2d 433b 0e86 71bd 1562 9fbe
00000350: d4f4 d23e e4b5 4dbe 7b72 14be 0d0e 8f3d
00000360: 0339 ffbc 0fef f03c 8401 883d 33f7 873d
00000370: 7900 16bf a1d6 963d f8a5 8abe c93b 9c3e
00000380: b4bf caba f3a1 e8bd 28b5 55bd c639 2fbd
00000390: d3fd 083e 6560 d03e 2a0c 88be e54a ca3d
000003a0: a6b4 1f3e df5b 52bd 3990 f73c 431f 84bb
000003b0: c7ac b33d 812a 303e 496e bcbe 6abd a33d
000003c0: d652 28be 2b20 a03d a415 66bd 85b7 a9bd
000003d0: d9c6 eebb 799d 6cbd 776b 8a3d 6ebb 99be
000003e0: 1de3 c53d 9542 033e 74c2 34bd d659 c53c
000003f0: 0b15 443d d7f7 8b3c 5a17 863d df31 57bd

encoder.entry.bias f4 [52]
-0.13851842 -0.07395985 0.004731053 0.0019688278 -0.1119105 -0.15687193 -0.08817122 -0.061329816
-0.10138201 -0.27075884 -0.01021772 0.055371724 0.2024266 -0.09361061 -0.118522674 -0.20541266
-0.12789285 0.018668978 -0.25234553 -0.1822758 -0.11643946 -0.081939526 0.037004616 -0.0671507
-0.049099296 0.100128375 0.018458642 0.027732335 0.025551617 -0.11084507 -0.1890337 0.08428381
-0.19406797 -0.0049975375 0.05492816 -0.14803912 -0.17377701 0.04570686 -0.11985484 -0.13668954
0.00037384662 0.11371127 -0.04644878 -0.04054915 -0.03465179 -0.3661938 0.0037769442 -0.037393283
-0.24480163 0.0072660204 -0.05484597 0.2013198
00000000: c6d7 0dbe 4378 97bd f306 9b3b 7307 013b
00000010: 5531 e5bd 09a3 20be 1d93 b4bd f934 7bbd
00000020: 5fa1 cfbd e7a0 8abe 3968 27bc 76cd 623d
00000030: eb48 4f3e ebb6 bfbd 04bc f2bd b257 52be
00000040: 58f6 02be afef 983c 6f33 81be 82a6 3abe
00000050: d077 eebd e9cf a7bd 2792 173d 4e86 89bd
00000060: 581c 49bd 1b10 cd3d 9436 973c ec2e e33c
00000070: a051 d13c bd02 e3bd 0d92 41be fd9c ac3d
00000080: c1b9 46be 62c2 a3bb 5afc 603d 9197 17be
00000090: 9af2 31be 1e37 3b3d 7476 f5bd 58f8 0bbe
000000a0: d800 c439 74e1 e83d 1341 3ebd de16 26bd
000000b0: 09ef 0dbd c17d bbbe 9c86 773b b329 19bd
000000c0: 47ad 7abe cc17 ee3b 2ba6 60bd c726 4e3e

encoder.b1.b1.body.0.weight f4 [52, 13, 3, 3]
0.018585948 0.053871095 -0.020909814 0.19705182 -0.10053892 -0.026738053 0.043696955 -0.1206412
-0.0032394165 0.035935864 0.13647437 0.03753939 -0.0017418356 -0.09455498 -0.040141642 -0.13957334
-0.06282687 -0.023350598 0.04107793 0.042614598 0.030436594 -0.3552616 -0.2744179 -0.1450859
0.045992002 0.14339617 0.11777871 0.120541476 0.10888253 0.15178879 0.32999748 0.24365202
0.2130272 0.12368831 0.37249875 0.017105125 0.03546103 0.18406151 -0.02910223 -0.115479685
0.5571207 0.15311058 0.014683463 -0.2584005 -0.015296826 -0.16444637 0.05068795 -0.16130316
0.182361 0.9775492 -0.21340011 0.01028659 -0.18239601 0.026967179 0.06606944 0.10576314
-0.08060841 0.017053898 -0.21359392 0.061195124 -0.089098774 -0.00475257 -0.07224164 0.15060359
0.15524125 -0.06374879 -0.021721225 -0.034666054 0.23235093 -0.013580296 0.19941086 -0.09601085
0.079701796 -0.036442515 0.011440824 0.15764593 0.059919626 -0.016867766 0.046160083 0.13303818
0.03151901 -0.043025207 -0.012521661 0.032455675 0.2764471 -0.06765511 0.1699709 0.16321163
0.11224479 -0.10587379 0.07178477 -0.05709243 -0.07798227 0.03913968 0.17081484 0.013171684
0.0073457384 -0.01798292 0.06633749 -0.049072605 0.12628163 -0.032398432 0.08495571 -0.66526675
0.032248404 -0.1577038 -0.25815457 0.08757245 -0.01329726 -0.41203657 -0.037879106 0.13126302
-0.71279395 -0.24758321 -0.021860784 -0.37033314 -0.08402636 0.022911184 0.09933114 0.022583554
0.07863176 -0.12257116 0.1951614 -0.0022769228 0.12551813 0.08288302 0.0121323485 0.16990165
0.06436989 0.05991515 0.06769121 -0.012876488 0.035038155 0.1770735 -0.016513117 0.16661876
-0.047711924 -0.028782899 0.23147699 0.24589267 0.05885014 0.092202105 -0.05241036 -0.012174764
0.06722166 0.031817432 0.11503242 0.060977336 -0.1654427 0.12862556 0.012931415 0.29803687
0.1430868 0.06815551 0.09469343 -0.03835952 0.44931686 -0.19992337 -0.09787232 0.13535163
0.004845539 0.016441112 0.002587653 -0.0350838 0.044122845 0.078962125 0.36565077 0.21914892
0.040864598 -0.09417189 0.04899482 0.037049454 0.06185947 0.06796025 0.03483169 0.44927123
-0.13311885 -0.012491702 -0.006126262 -0.009305163 0.13598637 -0.021575142 -0.026983414 0.08168876
-0.28149515 -0.10752227 0.032584876 0.30419463 0.08099053 -0.042968217 -0.008964428 0.029158117
-0.020173049 0.39988747 0.08335238 -0.009676662 -0.023285897 0.03382438 -0.016278563 0.12847362
-0.033193756 0.100002944 0.2870519 0.110268995 0.10114145 0.23368712 0.03548418 -0.011452114
-0.10318067 -0.10286761 -0.008750975 -0.008444519 -0.10068619 -0.04072173 -0.08271573 -0.079763666
-0.08134839 -0.06343832 0.08330924 -0.028213369 0.07556076 0.1119644 -0.12752281 0.020446803
-0.08568844 0.11102567 0.12497281 8.837926e-05 0.037027016 0.14037703 -0.030229406 -0.028723933
0.03930282 0.024658818 -0.05133651 0.010545574 -0.0043127206 -0.090595916 0.016746832 0.16523397
0.013118099 0.020872308 -0.15332682 0.043160878 -0.012259068 0.02428615 -0.064972185 -0.11923892
0.07624244 0.032170516 -0.016489284 0.04189713 -0.1787227 0.054916903 0.02653809 -0.51844835
00000000: 8f41 983c f0a7 5c3d 0f4b abbc f4c7 493e
00000010: 59e7 cdbd c309 dbbc 94fb 323d bc12 f7bd
00000020: 644c 54bb 7c31 133d f0bf 0b3e e7c2 193d
00000030: 4e4e e4ba 0ba6 c1bd 906b 24bd 50ec 0ebe
00000040: 60ab 80bd c149 bfbc 5541 283d a58c 2e3d
00000050: 2a56 f93c d9e4 b5be 8180 8cbe 6691 14be
00000060: 1c62 3c3d 72d6 123e f735 f13d 73de f63d
00000070: cefd de3d 856e 1b3e 6ef5 a83e ea7f 793e
00000080: cd23 5a3e 4c50 fd3d 28b8 be3e 0c20 8c3c
00000090: 963f 113d 9f7a 3c3e cd67 eebc 9d80 ecbd
000000a0: 769f 0e3f 05c9 1c3e e892 703c 124d 84be
000000b0: 8a9f 7abc a164 28be 2b9e 4f3d a82c 25be
000000c0: d8bc 3a3e aa40 7a3f 8f85 5abe 1689 283c
000000d0: 05c6 3abe 46ea dc3c 6a4f 873d 589a d83d
000000e0: 0616 a5bd 9eb4 8b3c 5db8 5abe bda7 7a3d
000000f0: 6b79 b6bd 72bb 9bbb 6df3 93bd d437 1a3e
00000100: 90f7 1e3e ba8e 82bd b6f0 b1bc fefd 0dbd
00000110: 67ed 6d3e e47f 5ebc 5c32 4c3e 56a1 c4bd
00000120: b23a a33d bf44 15bd 4b72 3b3c ef6d 213e
00000130: 486e 753d 452e 8abc 5b12 3d3d 293b 083e
00000140: 141a 013d 333b 30bd a727 4dbc 3ef0 043d
00000150: 798a 8d3e c38e 8abd da0c 2e3e f320 273e
00000160: 99e0 e53d 5cd4 d8bd e503 933d c0d9 69bd
00000170: 2bb5 9fbd ee50 203d 16ea 2e3e 0cce 573c
00000180: 85b4 f03b eb50 93bc f3db 873d 5b00 49bd
00000190: f94f 013e 38b4 04bd 42fd ad3d ec4e 2abf
000001a0: e716 043d 1b7d 21be d62c 84be 2f59 b33d
000001b0: c0dc 59bc 75f6 d2be 1f27 1bbd d069 063e
000001c0: aa79 36bf 7486 7dbe 6315 b3bc 4e9c bdbe
000001d0: 0316 acbd 3cb0 bb3c 206e cb3d 2501 b93c
000001e0: b009 a13d 9706 fbbd 64d8 473e 6d38 15bb
000001f0: d387 003e 93be a93d c2c6 463c b3fa 2d3e
00000200: 5cd4 833d 9769 753d b0a1 8a3d e8f7 52bc
00000210: 2b84 0f3d c152 353e 8446 87bc 1c9e 2a3e
00000220: 946d 43bd 1dca ebbc 4e08 6d3e 4acb 7b3e
00000230: d80c 713d 75d4 bc3d 3fac 56bd a978 47bc
00000240: 82ab 893d ff52 023d 1e96 eb3d 5fc3 793d
00000250: d069 29be 6bb6 033e 49de 533c 4a98 983e
00000260: 5985 123e 1e95 8b3d a1ee c13d df1e 1dbd
00000270: dc0c e63e b6b8 4cbe 4871 c8bd 9e99 0a3e
00000280: 54c7 9e3b 83af 863c 9d95 293b 08b4 0fbd
00000290: 28ba 343d e5b6 a13d 9436 bb3e 9368 603e
000002a0: a361 273d 31dd c0bd cbae 483d 2bc1 173d
000002b0: 5b60 7d3d be2e 8b3d adab 0e3d e106 e63e
000002c0: 4f50 08be ffa9 4cbc cfbe c8bb af74 18bc
000002d0: 0340 0b3e 5abe b0bc 520c ddbc 704c a73d
000002e0: 2220 90be a334 dcbd b877 053d 66bf 9b3e
000002f0: 5dde a53d 71ff 2fbd 89df 12bc 01dd ee3c
00000300: f341 a5bc 0dbe cc3e a7b4 aa3d dd8a 1ebc
00000310: 11c2 bebc 6f8b 0a3d 9f5a 85bc 978e 033e
00000320: 2df6 07bd 58ce cc3d 77f8 923e b6d4 e13d
00000330: 4023 cf3d ad4b 6f3e dc57 113d a6a1 3bbc
00000340: 6350 d3bd 41ac d2bd 4060 0fbc e15a 0abc
00000350: 9034 cebd d4cb 26bd dd66 a9bd 225b a3bd
00000360: fc99 a6bd f3eb 81bd 099e aa3d b91f e7bc
00000370: 9abf 9a3d 974d e53d 5795 02be 0e80 a73c
00000380: 6c7d afbd 6d61 e33d bff1 ff3d 4158 b938
00000390: a4a9 173d ffbe 0f3e a9a3 f7bc 744e ebbc
000003a0: fefb 203d 4a01 ca3c 3b46 52bd 58c7 2c3c
000003b0: b951 8dbb 5a8a b9bd a730 893c 1833 293e
000003c0: 4ced 563c 67fc aa3c b501 1dbe 76c9 303d
000003d0: 42da 48bc bff3 c63c 2310 85bd 8933 f4bd
000003e0: ff24 9c3d 3bc5 033d 8914 87bc 539c 2b3d
000003f0: 1503 37be 8cf0 603d 6966 d93c 08b9 04bf

encoder.b1.b1.body.0.bias f4 [52]
0.18987304 -0.0753252 0.19561179 0.10695625 -0.07670987 0.14302355 0.10912034 0.06637193
-0.112812124 0.1321998 0.13124472 0.3255397 0.23221645 0.062499 0.4725713 0.2930535
0.40535975 0.22577247 0.09299599 0.15949845 0.43080628 -0.2113428 0.28653926 0.26304126
0.19221017 0.24916993 0.05663928 0.22711454 0.10851033 -0.12273529 0.1706728 0.107966505
0.1975947 -0.02686012 -0.25591913 0.24236956 -0.17282684 -0.07678056 -0.032534026 0.024940928
0.012291152 0.12055067 -0.021936754 0.25410768 0.21634123 0.2005101 0.2825306 -0.009516833
0.30515534 0.04743909 0.09743394 0.36087474
00000000: 146e 423e 1944 9abd 754e 483e e10b db3d
00000010: 101a 9dbd c474 123e 7c7a df3d 02ee 873d
00000020: 0b0a e7bd 625f 073e 0465 063e 24ad a63e
00000030: 26ca 6d3e f4fe 7f3d def4 f13e 1c0b 963e
00000040: 508b cf3e e630 673e ae74 be3d 9053 233e
00000050: a492 dc3e 3f6a 58be 46b5 923e 58ad 863e
00000060: bed2 443e 6726 7f3e 97fe 673d b790 683e
00000070: aa3a de3d a45c fbbd dac4 2e3e 8b1d dd3d
00000080: 4456 4a3e c109 dcbc d507 83be ba2f 783e
00000090: 85f9 30be 203f 9dbd 6642 05bd eb50 cc3c
000000a0: d460 493c 45e3 f63d b5b4 b3bc 671a 823e
000000b0: 8e88 5d3e 8552 4d3e daa7 903e 7eec 1bbc
000000c0: 523d 9c3e 7e4f 423d 728b c73d 93c4 b83e

encoder.b1.b1.body.2.weight f4 [52, 13, 3, 3]
0.019997936 0.033912856 -0.0015462029 0.07531877 -0.05193004 -0.011820857 0.008330684 0.032591138
-0.051310975 -0.023318104 -0.30132776 -0.056668434 -0.37872556 0.0768052 0.3208122 0.13772523
-0.049921595 -0.10459119 0.1514891 0.035632145 -0.022050912 -0.3229854 0.06575206 0.026883667
0.12363379 0.10767323 0.057241112 0.04968796 -0.12158652 -0.043417476 -0.3431713 -0.01835541
-0.12808762 -0.16869484 0.030956035 -0.07351808 0.11641132 0.055734124 0.07387747 0.31571805
0.001969642 0.06206364 0.054984897 0.10759125 0.13056569 0.2515587 0.12324622 0.0020096493
0.020743772 0.15280376 0.010824495 -0.15717314 -0.17236546 0.19771542 -0.08807517 0.013515131
0.1285465 0.013879309 -0.5496408 0.24202143 0.07819148 -0.004323677 0.007175856 0.17290182
0.1065359 0.051055662 -0.07531209 -0.2533714 -0.05827729 -0.030865304 -0.13875905 0.013270128
-0.053158548 0.07308977 -0.016497146 0.07191977 -0.27317014 0.04235975 -0.13120283 -0.06151881
0.04286144 -0.013821657 0.17918146 -0.13060589 -0.0825572 -0.6788338 0.042412195 0.009735895
0.17914477 0.14751954 0.074761644 0.17239808 -0.110383235 0.23420206 -0.8100232 0.06185088
-0.010632545 0.06376751 0.09021155 0.064674415 0.028711125 -0.052822687 -0.114923745 0.22546542
0.24009095 -0.0012262007 -0.16210471 0.10990078 0.15265931 0.045036662 -0.19014116 0.22910929
-0.07300342 -0.016177015 -0.025805077 0.049631473 0.038420647 -0.0042809923 -0.0081870705 0.025108855
-0.042331874 -0.05906543 0.034270376 -0.00755915 -0.021831539 0.014827095 0.003177423 -0.08127587
-0.032289434 0.033266477 0.108895354 -0.052776895 -0.024464874 -0.0009665306 -0.0635303 0.016342947
-0.014488186 0.0039415713 -0.011610706 -0.13076177 0.00015184749 -0.025673246 -0.029069098 0.021981703
0.07943791 0.09804885 0.042362094 0.10165944 0.17045934 0.006223326 0.13148932 0.08555977
-0.014658713 -0.11686211 -0.095489755 -0.07001983 -0.09909846 -0.12033596 -0.09513235 -0.12772399
-0.10417479 -0.030749824 -0.045381233 -0.0797588 -0.046077825 0.023526385 -0.017895984 -0.23307142
-0.065879405 -0.07571746 -0.119930305 0.0044269958 -0.09900415 -0.075960904 0.0025210916 0.24940488
0.007275362 -0.031012798 -0.020071888 -0.019741058 -0.0275115 -0.037495192 -0.025680464 -0.0014891126
-0.04097881 0.03359296 0.034958716 0.048658643 0.112502486 0.09534981 0.09586162 0.055089287
0.29071286 0.3693522 0.06252196 0.11091434 0.009818863 0.046417236 -0.049702305 0.047479354
-0.04505675 -0.06547029 0.26795024 -0.0212474 -0.02604382 0.24228004 0.01238059 -0.030737154
-0.13572517 -0.05781925 -0.13861774 -0.2395109 -0.16549522 -0.04578651 -0.07905334 -0.058284633
-0.00715232 0.033534255 0.0728111 -0.08388128 -0.05174906 0.18961468 0.09736497 0.39653307
0.23102202 0.02462426 0.19752228 0.20854661 0.10451536 0.2424299 0.17004864 0.04542829
-0.037671033 0.055084523 0.047444727 0.00087207137 0.09237142 0.016849343 -0.061235502 0.09863213
0.07364918 -0.032501068 0.059770904 -0.0353136 -0.14689481 -0.08991802 0.1079671 0.2200336
-0.032318696 -0.05732838 -0.091150455 -0.056987062 0.058423694 0.13681169 0.10978584 0.0762586
00000000: b6d2 a33c 35e8 0a3d f6a9 caba ba40 9a3d
00000010: 98b4 54bd 45ac 41bc 6c7d 083c 497e 053d
00000020: 752b 52bd 9c05 bfbc a247 9abe 291d 68bd
00000030: 51e8 c1be 0b4c 9d3d 7f41 a43e d807 0d3e
00000040: 967a 4cbd e833 d6bd f51f 1b3e 03f3 113d
00000050: 1da4 b4bc 585e a5be 04a9 863d 233b dc3c
00000060: b633 fd3d c883 dc3d a875 6a3d 9a85 4b3d
00000070: 5a02 f9bd 86d6 31bd 26b4 afbe 165e 96bc
00000080: 6729 03be 57be 2cbe 8397 fd3c a690 96bd
00000090: 0f69 ee3d 7749 643d 124d 973d cca5 a13e
000000a0: 1c15 013b 7236 7e3d d837 613d cd58 dc3d
000000b0: 03b3 053e 4dcc 803e 8468 fc3d 52b4 033b
000000c0: d8ee a93c 9778 1c3e 3959 313c fff1 20be
000000d0: 9280 30be e975 4a3e c160 b4bd 916e 5d3c
000000e0: b2a1 033e 0b66 633c 42b5 0cbf 77d4 773e
000000f0: db22 a03d a2ad 8dbb 7123 eb3b 2d0d 313e
00000100: 7e2f da3d be1f 513d 3a3d 9abd e5b9 81be
00000110: 2bb4 6ebd 3cd9 fcbc da16 0ebe f36a 593c
00000120: c7bc 59bd 17b0 953d 0625 87bc ac4a 933d
00000130: f5dc 8bbe 6b81 2d3d 095a 06be 26fb 7bbd
00000140: 7a8f 2f3d 3b74 62bc 587b 373e 8dbd 05be
00000150: c013 a9bd 0dc8 2dbf 69b8 2d3d 4e83 1f3c
00000160: ba71 373e 5d0f 173e a21c 993d 1f89 303e
00000170: 9b10 e2bd aad2 6f3e ae5d 4fbf 5957 7d3d
00000180: 2034 2ebc 8a98 823d d5c0 b83d 0574 843d
00000190: 9833 eb3c 9a5c 58bd 245d ebbd 68e0 663e
000001a0: 67da 753e 78b8 a0ba c7fe 25be a913 e13d
000001b0: b952 1c3e 5d78 383d 5db4 42be a09b 6a3e
000001c0: d182 95bd a985 84bc 2b65 d3bc 5f4a 4b3d
000001d0: f85e 1d3d 9147 8cbb 1023 06bc 16b1 cd3c
000001e0: 3064 2dbd 98ee 71bd 185f 0c3d bfb2 f7bb
000001f0: 0ed8 b2bc 58ed 723c 503c 503b f773 a6bd
00000200: ed41 04bd 6e42 083d 8704 df3d 962c 58bd
00000210: 8f6a c8bc c55e 7dba 2d1c 82bd a5e1 853c
00000220: db5f 6dbc 4c28 813b d53a 3ebc 6ae6 05be
00000230: 4039 1f39 b350 d2bc 5122 eebc f912 b43c
00000240: 58b0 a23d d6cd c83d e083 2d3d d332 d03d
00000250: e58c 2e3e 0bed cb3b 23a5 063e f639 af3d
00000260: 192b 70bc 6755 efbd 2290 c3bd 8e66 8fbd
00000270: 22f4 cabd b372 f6bd c0d4 c2bd 14ca 02be
00000280: 9859 d5bd 0ee7 fbbc ace1 39bd 9558 a3bd
00000290: 1abc 3cbd 68ba c03c 999a 92bc 46aa 6ebe
000002a0: c8eb 86bd c111 9bbd 059e f5bd 5510 913b
000002b0: b0c2 cabd 6491 9bbd e638 253b fe63 7f3e
000002c0: 2966 ee3b 8d0e febc cd6d a4bc 00b8 a1bc
000002d0: cc5f e1bc 8f94 19bd d65f d2bc 542e c3ba
000002e0: 66d9 27bd c698 093d df30 0f3d 494e 473d
000002f0: b467 e63d c346 c33d 1953 c43d 4ea5 613d
00000300: 51d8 943e bb1b bd3e 830b 803d 0f27 e33d
00000310: 4cdf 203c 0020 3e3d a594 4bbd b679 423d
00000320: 6d8d 38bd 4a15 86bd c630 893e 070f aebc
00000330: d959 d5bc 4218 783e f5d7 4a3c 7ccc fbbc
00000340: 8afb 0abe e1d3 6cbd cff1 0dbe 5842 75be
00000350: 9477 29be a38a 3bbd b8e6 a1bd debb 6ebd
00000360: 025e eabb 375b 093d fc1d 953d f3c9 abbd
00000370: d3f6 53bd 5a2a 423e 4967 c73d 6206 cb3e
00000380: 0991 6c3e d1b8 c93c 4843 4a3e 3e8d 553e
00000390: 260c d63d 8b3f 783e 3b21 2e3e 0413 3a3d
000003a0: f14c 1abd 4fa0 613d 6755 423d b89b 643a
000003b0: 3a2d bd3d a207 8a3c 14d2 7abd a4ff c93d
000003c0: 62d5 963d d71f 05bd 56d2 743d fea4 10bd
000003d0: 986b 16be f026 b8bd db1d dd3d 7d50 613e
000003e0: 9c60 04bd 2ad1 6abd 17ad babd 446b 69bd
000003f0: af4d 6f3d 5d18 0c3e 66d7 e03d 782d 9c3d

encoder.b1.b1.body.2.bias f4 [52]
0.09521948 0.07208462 0.043281384 -0.04480387 0.52579045 0.14709578 -0.19387478 -0.076505
0.14734691 0.23780003 0.22373341 -0.01978456 0.334382 0.43807957 0.20635208 0.3410266
0.049010813 0.1913334 0.016520761 0.22174108 -0.0046737986 -0.013321575 0.015919399 0.3961695
0.59437144 0.15677077 0.2294071 0.07418373 0.11114346 -0.056858815 -0.048631884 0.1532193
0.027935615 0.3584163 0.3345279 -0.08293436 0.26187587 0.029027572 0.05296873 0.20958939
0.31640947 0.1595095 -0.10129251 0.14664635 -0.09846417 0.04177501 -0.087906845 0.026890086
-0.08380028 -0.082488835 0.1329137 0.086815074
00000000: 6e02 c33d 1aa1 933d d247 313d 4384 37bd
00000010: 349a 063f 47a0 163e 1c87 46be a7ae 9cbd
00000020: 1ce2 163e da81 733e 5f1a 653e 3b13 a2bc
00000030: 1e34 ab3e f74b e03e f64d 533e 0a9b ae3e
00000040: 90bf 483d e7ec 433e 8c56 873c 1810 633e
00000050: aa26 99bb bc42 5abc 6669 823c bbd6 ca3e
00000060: ba28 183f 8488 203e b2e9 6a3e a4ed 973d
00000070: 2f9f e33d cae4 68bd 3a32 47bd 85e5 1c3e
00000080: 3bd9 e43c 5782 b73e 3e47 ab3e 7dd9 a9bd
00000090: 9814 863e 3bcb ed3c bdf5 583d 9a9e 563e
000000a0: 6c00 a23e 7556 233e 7372 cfbd 762a 163e
000000b0: 95a7 c9bd 461c 2b3d 8108 b4bd 9948 dc3c
000000c0: 7b9f abbd e8ef a8bd 871a 083e 1acc b13d

encoder.b1.b1.body.4.weight f4 [52, 52, 1, 1]
-0.013906021 -0.22741823 -0.06311864 0.065718465 -0.3233139 0.1505832 0.14963843 -0.049734656
-0.0010568473 -0.18018498 0.028378492 -0.051185053 0.10937308 0.07288045 -0.13660997 0.11841075
0.09688162 0.04622378 0.12263399 0.028279155 -0.14290309 0.09007445 -0.011508521 -0.172506
0.322378 0.033715952 0.019450037 -0.025362793 -0.038372267 -0.013493523 -0.27144757 0.055517413
0.095475346 -0.016634613 -0.08322359 -0.012966594 -0.04566332 0.014590329 -0.027555462 0.059057225
0.09646583 0.0020275505 0.024463626 0.042070743 -0.015452758 -0.11998223 0.058865868 0.09448541
-0.013010142 0.064721204 0.07434944 0.022168795 0.017978933 -0.050079282 -0.085362464 0.056016807
0.027752064 0.08888846 0.016147064 0.054783173 0.012942543 0.04555146 -0.054285664 -0.017593348
0.10411099 -0.11167881 -0.04957167 0.107110955 -0.13972892 -0.048275333 -0.051901873 -0.054614555
-0.17850786 -0.082517795 -0.032716986 0.07023716 -0.0049759843 0.026474297 0.012807241 -0.04066201
0.09201649 0.0824955 0.103793666 -0.023405598 0.10397508 0.07888503 -0.11957983 -0.06629209
0.008763066 -0.118212454 -0.02431505 -0.026985906 0.16068745 0.11327928 0.007179545 0.05146124
-0.18386056 0.011214944 0.1558342 0.11261504 -0.016233666 -0.051416464 -0.03815363 0.04486354
-0.04559671 -0.015599429 -0.26486883 -0.37640855 0.17578961 0.12992895 0.07286573 0.15070474
-0.10889387 -0.15278496 -0.08565841 0.070673265 0.042057592 0.16568914 0.044708807 0.18205357
0.13435158 0.057611078 0.012020479 0.0016456256 -0.013424391 0.15999386 0.049872972 0.03150509
0.0060180547 -0.019098688 0.04154773 -0.093335785 0.20105334 0.102046825 0.14865674 -0.3491501
0.4206488 -0.10463866 -0.12938498 0.2377531 -0.025362218 -0.0510476 -0.6618663 0.13593698
0.109044164 0.17328466 0.26202983 -0.22335461 -0.038884185 0.16187896 0.06869718 -0.013507944
0.10662584 -0.03482009 -0.12985939 0.10093985 -0.318481 0.19948713 -0.32471913 0.16143772
0.06339913 -0.16586563 0.018158244 -0.27514106 0.19598402 0.027898684 0.33454704 -0.097066335
-0.15226848 -0.049381796 -0.15083028 -0.07973214 0.058235396 -0.07735597 0.11745351 0.090059996
0.008064276 0.14752975 0.26026472 0.18266562 0.10298438 0.12351763 0.03726183 -0.022261478
0.12350775 -0.25356144 -0.045100205 0.25977185 -0.05475875 0.029530702 -0.30036882 0.0076493113
0.0527037 0.06098312 -0.0049222754 -0.057670753 -0.07549271 0.24724932 0.15327871 -0.055421934
-0.09745191 0.14964189 0.28579262 -0.16984145 -0.19341366 -0.0021580118 0.11872697 0.15600817
-0.11570868 -0.17992336 0.13144931 -0.14605452 -0.048825916 0.28128338 0.2854158 -0.034316506
-0.017534569 -0.0014203547 -0.10682468 0.012580581 0.0039686738 -0.03217864 0.02293381 0.06318035
0.10447006 -0.21653192 0.10687361 -0.16780077 0.17322396 0.12755325 0.17417154 -0.039753467
-0.24264738 0.019872349 -0.11197084 0.24166457 0.13273695 -0.010560422 -0.15958779 -0.1415412
0.14155261 0.17583731 -0.2516945 -0.024755377 -0.031650253 -0.18401146 -0.044959765 0.054994013
0.05107747 0.043168698 0.105316624 0.03716454 0.0124522615 0.3316937 0.68876517 -0.0033605162
00000000: 14d6 63bc 53e0 68be 5844 81bd 6797 863d
00000010: 6689 a5be 7b32 1a3e d13a 193e 91b6 4bbd
00000020: e985 8aba 6982 38be 037a e83c 6ba7 51bd
00000030: fefe df3d 5842 953d 7ce3 0bbe 5681 f23d
00000040: df69 c63d 2555 3d3d 8827 fb3d b0a9 e73c
00000050: 3055 12be f478 b83d 3c8e 3cbc 6aa5 30be
00000060: bb0e a53e bd19 0a3d af55 9f3c a2c5 cfbc
00000070: 3d2c 1dbd f013 5dbc 2dfb 8abe 3a66 633d
00000080: 9488 c33d 5045 88bc 2171 aabd d671 54bc
00000090: 7609 3bbd 460c 6f3c febb e1bc fde5 713d
000000a0: e18f c53d a7e0 043b f167 c83c 5f52 2c3d
000000b0: 912d 7dbc 3eb9 f5bd 561d 713d 9181 c13d
000000c0: 7e28 55bc 8d8c 843d 8544 983d 559b b53c
000000d0: 8e48 933c ef1f 4dbd 84d2 aebd e171 653d
000000e0: 4c58 e33c 270b b63d d946 843c 5264 603d
000000f0: f60c 543c 2b94 3a3d a55a 5ebd ed1f 90bc
00000100: 2538 d53d dcb7 e4bd aa0b 4bbd fd5c db3d
00000110: 1915 0fbe 5bbc 45bd 0f97 54bd 83b3 5fbd
00000120: c4ca 36be 17ff a8bd 3f02 06bd 80d8 8f3d
00000130: 950d a3bb a0e0 d83c 76d5 513c 358d 26bd
00000140: 2473 bc3d 67f3 a83d c691 d43d 19bd bfbc
00000150: e3f0 d43d 798e a13d 45e6 f4bd 26c4 87bd
00000160: f692 0f3c 5f19 f2bd 5b30 c7bc 8c11 ddbc
00000170: 408b 243e f8fe e73d 6342 eb3b 05c9 523d
00000180: f145 3cbe e2be 373c 0093 1f3e b7a2 e63d
00000190: 77fc 84bc 129a 52bd fb46 1cbd d5c2 373d
000001a0: 9ec3 3abd bf94 7fbc e39c 87be 9fb8 c0be
000001b0: 3102 343e 180c 053e a13a 953d 5852 1a3e
000001c0: c003 dfbd a973 1cbe ad6d afbd 25bd 903d
000001d0: 9544 2c3d 6aaa 293e 9520 373d 406c 3a3e
000001e0: 7693 093e 98f9 6b3d 8bf1 443c 08b2 d73a
000001f0: faf1 5bbc 6ed5 233e 9a47 4c3d 7b0b 013d
00000200: 1a33 c53b da74 9cbc f42d 2a3d d526 bfbd
00000210: ede0 4d3e edfd d03d 7939 183e cdc3 b2be
00000220: 485f d73e cb4c d6bd 7f7d 04be 8c75 733e
00000230: 6dc4 cfbc 4a17 51bd 1270 29bf 1033 0b3e
00000240: 8c52 df3d 8971 313e c628 863e 12b7 64be
00000250: 0645 1fbd 99c3 253e 1bb1 8c3d 6c50 5dbc
00000260: a65e da3d 839f 0ebd dcf9 04be 8db9 ce3d
00000270: f10f a3be 5b46 4c3e 9641 a6be ee4f 253e
00000280: 67d7 813d aed8 29be 99c0 943c 4adf 8cbe
00000290: 09b0 483e c88b e43c c049 ab3e b7ca c6bd
000002a0: 45ec 1bbe 9144 4abd 4173 1abe 9b4a a3bd
000002b0: 3d88 6e3d cf6c 9ebd 778b f03d 6071 b83d
000002c0: 0620 043c 0a12 173e 6b41 853e b20c 3b3e
000002d0: 7ae9 d23d d0f6 fc3d dc9f 183d b45d b6bc
000002e0: a2f1 fc3d ced2 81be feba 38bd d100 853e
000002f0: b64a 60bd 5fea f13c f1c9 99be 13a7 fa3b
00000300: d6df 573d 70c9 793d 0a4b a1bb 2b38 6cbd
00000310: ec9b 9abd ed2e 7d3e 18f5 1c3e 1c02 63bd
00000320: de94 c7bd b93b 193e 6953 923e ebea 2dbe
00000330: 3b0e 46be 6e6d 0dbb 2027 f33d 9bc0 1f3e
00000340: acf8 ecbd d43d 38be a69a 063e 518f 15be
00000350: affd 47bd 6004 903e 0522 923e 778f 0cbd
00000360: a8a4 8fbc 322b baba e6c6 dabd c81e 4e3c
00000370: a60b 823b c0cd 03bd afdf bb3c b364 813d
00000380: 66f4 d53d 8bba 5dbe 8de0 da3d f7d3 2bbe
00000390: 9f61 313e 529d 023e 065a 323e 88d4 22bd
000003a0: 8e78 78be 56cb a23c f850 e5bd eb76 773e
000003b0: 32ec 073e 9f05 2dbc fb6a 23be 2df0 10be
000003c0: 2bf3 103e b20e 343e 1ade 80be cacb cabc
000003d0: b2a3 01bd 806d 3cbe bb27 38bd 6741 613d
000003e0: 9c36 513d a9d1 303d 3eb0 d73d d839 183d
000003f0: 9204 4c3c c2d3 a93e ea52 303f 1b3c 5cbb

encoder.b1.b1.body.4.bias f4 [52]
0.028138017 0.18366629 -0.12264823 1.1810603 0.24105272 0.12672205 -0.1530733 2.2414725
-0.14867347 0.042318244 1.5297916 -0.0024826012 -0.017858893 1.5555713 -0.30575085 -0.04830833
0.20874605 -0.26874992 -0.082691014 -0.06664934 0.9543039 0.10876512 0.13832997 -0.24801604
0.72161585 1.080934 -0.03092683 2.2117012 1.540602 0.20984462 0.22188973 0.07132389
-0.0059509506 -0.13599147 -0.01654528 0.30533883 1.9383867 0.24450855 -0.04964657 2.255697
0.17598313 1.2155966 0.015319324 -0.038248904 1.4042201 -0.038388923 0.005628245 -0.015880223
0.1040223 0.21379094 0.13770999 0.7625809
00000000: b381 e63c 0413 3c3e ff2e fbbd fc2c 973f
00000010: 86d6 763e 6dc3 013e 3fbf 1cbe 4974 0f40
00000020: dc3d 18be e555 2d3d 36d0 c33f 23b3 22bb
00000030: d04c 92bc f61c c73f 608b 9cbe f5de 45bd
00000040: 86c1 553e 9799 89be e859 a9bd 737f 88bd
00000050: 434d 743f 3fc0 de3d 5fa6 0d3e ebf7 7dbe
00000060: d1bb 383f 0c5c 8a3f 435a fdbc 838c 0d40
00000070: 7232 c53f 82e1 563e 1037 633e 4212 923d
00000080: 3100 c3bb 5941 0bbe f889 87bc 5f55 9c3e
00000090: 0e1d f83f 7360 7a3e 345a 4bbd 575d 1040
000000a0: ec34 343e ab98 9b3f e7fd 7a3c e2aa 1cbd
000000b0: 7cbd b33f b43d 1dbd 246d b83b 3e17 82bc
000000c0: a509 d53d 03ec 5a3e d903 0d3e 8038 433f

encoder.b1.c1.0.weight f4 [52, 104, 1, 1]
0.39266548 -0.108519934 -0.248987 0.30955285 0.24120899 -0.027825573 0.05933761 0.13769928
0.38885152 -0.021011379 0.03430787 -0.09749955 0.3029721 0.10838767 0.0687617 -0.02993915
-0.16360591 0.2799616 -0.30461743 0.028776115 -0.1532182 -0.24333218 0.26404274 -0.11090308
-0.45027754 -0.23161946 0.06731906 0.16559824 -0.023919832 -0.024885565 0.008944951 -0.09208794
-0.017935712 -0.19736998 0.18557219 -0.1996871 0.09907532 0.09436766 0.036341023 0.20345761
-0.26846614 -0.35318503 0.08787997 -0.43221197 0.0008713632 -0.029344222 -0.29963997 -0.04769043
-0.15596323 -0.026590593 0.020468695 0.16596736 -0.058177367 0.09288307 0.20694485 0.28053576
-0.08643181 0.09548317 0.32834 -0.08507185 -0.78507674 0.034894995 0.20675544 0.27352366
0.01795345 0.09781911 0.23217948 -0.25340378 -0.17241286 0.053198118 -0.02918677 0.08097383
0.03654609 -0.5326324 -0.07359349 -0.2000268 -0.1534645 0.012962033 0.037496578 0.11915881
0.23621497 -0.26185918 0.34807062 0.114543214 -0.48197967 -0.28481242 0.18424997 -0.116478615
0.055661283 -0.041274704 0.10798343 -0.13990907 -0.06435256 0.14575608 0.08150568 -0.25106084
0.11004454 0.8266434 -0.060545206 0.12096745 -0.14362241 -0.17107485 -0.09117424 0.22701503
0.8223481 0.44048667 0.24611603 0.2806735 -0.36335966 -0.020467207 0.051229864 0.18617298
0.07840264 -0.009286812 0.15865327 0.22850983 0.026112689 -0.29744014 0.023342937 0.23427227
0.28024173 -0.12435072 0.08571638 -0.08893159 -0.14687069 -0.13383423 0.577672 0.2212951
0.059837088 -0.21351835 -0.071452536 0.32085374 0.21267162 0.2644535 0.00025955177 0.010134084
-0.20561363 -0.033094622 0.013520533 0.043518998 -0.18522969 0.10323183 -0.09330818 -0.2794468
-0.13635124 -0.1283384 0.16360813 0.10032897 -0.06330572 -0.11430068 0.13932453 -0.15740874
0.24772006 -0.0073700654 -0.1882858 -0.57671016 -1.1816185 -0.015258682 0.046458595 -0.04577242
-0.043466903 -0.025593799 -0.07893834 0.12390872 -0.07104693 0.081096835 0.12260685 -0.010612498
0.020150153 -0.001504952 -0.04835375 0.037298206 0.14040487 0.0015154622 -0.003480149 0.034518957
0.007546352 0.105845906 -0.13791943 -0.00021335052 -0.03325647 0.006966616 0.020519942 -0.08369578
-0.0008934192 -0.11969565 0.021097116 -0.043566667 0.00993669 0.040177725 0.22706737 -0.006257622
-0.01423683 -0.05353767 -0.05265739 0.0054896604 0.0043826047 -0.01574596 -0.13794866 -0.042473022
-0.07080367 0.13608018 0.08402484 -0.051242314 -0.031181304 0.011705569 -0.11196126 0.07804926
0.5138262 0.31169584 0.05248353 0.23942854 0.024092216 0.17205612 0.08086165 -0.16293581
-0.10427134 -0.029338997 -0.14101978 0.02701803 0.060149055 -0.009655135 0.023388624 0.01909476
0.30358216 -0.0065069846 0.07719241 -0.06883625 0.35121694 -0.2074829 0.34687328 0.2428147
-0.2748317 -0.36618027 -0.060640316 0.35783908 -0.0037675265 0.2696428 0.044603907 0.12505265
-0.18747172 0.3675511 -0.15652011 -0.12715104 0.116985254 -0.046098117 0.09809094 -0.23287669
-0.13351673 0.24812816 -0.084191486 -0.23057486 -0.09202415 -0.010703075 -0.025636787 -0.14721853
00000000: 730b c93e b33f debd 73f6 7ebe b67d 9e3e
00000010: 7dff 763e 75f2 e3bc fe0b 733d 0a01 0d3e
00000020: 8c17 c73e 0e20 acbc 6986 0c3d d8ad c7bd
00000030: 291f 9b3e 5bfa dd3d efd2 8c3d f342 f5bc
00000040: 4f88 27be 2057 8f3e d1f6 9bbe e3bb eb3c
00000050: 3be5 1cbe 122c 79be 9c30 873e 2721 e3bd
00000060: c78a e6be a72d 6dbe 93de 893d 9692 293e
00000070: 86f3 c3bc d0dc cbbc d88d 123c 9a98 bcbd
00000080: eaed 92bc 5b1b 4abe a306 3e3e c67a 4cbe
00000090: 00e8 ca3d d543 c13d 53da 143d 3157 503e
000000a0: 6574 89be abd4 b4be 6afa b33d e34a ddbe
000000b0: 326c 643a 4b63 f0bc 696a 99be 0a57 43bd
000000c0: d3b4 1fbe 84d4 d9bc f7ad a73c 59f3 293e
000000d0: 644b 6ebd 7b39 be3d 5ae9 533e 62a2 8f3e
000000e0: 2903 b1bd ae8c c33d 2e1c a83e 263a aebd
000000f0: cafa 48bf 0eee 0e3d b3b7 533e 4b0b 8c3e
00000100: 1d13 933c 6355 c83d 75c0 6d3e 24be 81be
00000110: ff8c 30be 45e6 593d 1819 efbc 9bd5 a53d
00000120: 5ab1 153d 995a 08bf 2fb8 96bd d3d3 4cbe
00000130: cc25 1dbe b55e 543c 0396 193d 8909 f43d
00000140: 56e2 713e 6812 86be 5036 b23e a295 ea3d
00000150: 0ac6 f6be efd2 91be 06ac 3c3e 578c eebd
00000160: 16fd 633d aa0f 29bd 6b26 dd3d 5344 0fbe
00000170: 46cb 83bd 1541 153e 73ec a63d 0c8b 80be
00000180: 085f e13d e79e 533f 40fe 77bd c8bd f73d
00000190: c111 13be 3f2e 2fbe 8fb9 babd a176 683e
000001a0: 6885 523f 7887 e13e d705 7c3e 70b4 8f3e
000001b0: 470a babe d8aa a7bc 68d6 513d 21a4 3e3e
000001c0: 9091 a03d b627 18bc 0176 223e 7bfe 693e
000001d0: 47ea d53c 134a 98be b039 bf3c 12e5 6f3e
000001e0: d87b 8f3e 97ab febd 128c af3d c421 b6bd
000001f0: 4565 16be d70b 09be 50e2 133f 2f9b 623e
00000200: bc17 753d 8ea4 5abe b555 92bd f146 a43e
00000210: 97c6 593e 7366 873e 7314 8839 6e09 263c
00000220: 618c 52be 3a8e 07bd 3a85 5d3c fa40 323d
00000230: daac 3dbe 366b d33d 5c18 bfbd a713 8fbe
00000240: a99f 0bbe 246b 03be e488 273e 4679 cd3d
00000250: 6ea6 81bd 7a16 eabd 17ab 0e3e c22f 21be
00000260: 54aa 7d3e 9780 f1bb fecd 40be 47a3 13bf
00000270: 463f 97bf 8dff 79bc 5e4b 3e3d dc7b 3bbd
00000280: 5a0a 32bd 16aa d1bc 6daa a1bd dbc3 fd3d
00000290: 0e81 91bd 1916 a63d 4d19 fb3d 0be0 2dbc
000002a0: ef11 a53c cf41 c5ba 950e 46bd 01c6 183d
000002b0: 4bc6 0f3e 79a2 c63a 3613 64bb c063 0d3d
000002c0: 6447 f73b bdc5 d83d c03a 0dbe d8b6 5fb9
000002d0: f037 08bd 3648 e43b 7019 a83c b168 abbd
000002e0: 5934 6aba fe22 f5bd dcd3 ac3c f672 32bd
000002f0: 80cd 223c 6691 243d 5984 683e bd0c cdbb
00000300: 9841 69bc 514a 5bbd 46af 57bd 9ce2 b33b
00000310: f49b 8f3b acfd 80bc 6a42 0dbe 31f8 2dbd
00000320: 8401 91bd 9a58 0b3e 3715 ac3d 76e3 51bd
00000330: ef6f ffbc b7c8 3f3c f24b e5bd 4ad8 9f3d
00000340: 1d8a 033f 9996 9f3e f8f8 563d c12c 753e
00000350: 0a5d c53c 7b2f 303e cb9a a53d a5d8 26be
00000360: 368c d5bd 5658 f0bc 7d67 10be ea54 dd3c
00000370: db5e 763d 9230 1ebc 8099 bf3c 9d6c 9c3c
00000380: 1f6f 9b3e 8b38 d5bb 0e17 9e3d 05fa 8cbd
00000390: b5d2 b33e 6676 54be 6099 b13e 6ba4 783e
000003a0: beb6 8cbe fb7b bbbe fb61 78bd af36 b73e
000003b0: 9be8 76bb 9f0e 8a3e 96b2 363d cd0d 003e
000003c0: 96f8 3fbe a82f bc3e cf46 20be e233 02be
000003d0: f795 ef3d 61d1 3cbd e7e3 c83d 3a77 6ebe
000003e0: 9cb8 08be 4f15 7e3e 966c acbd d11b 6cbe
000003f0: 2877 bcbd f35b 2fbc 3d04 d2bc 74c0 16be

encoder.b1.c1.1.weight f4 [52]
0.6139937 1.3342644 1.0285684 0.62012446 0.7794335 0.19401817 0.28908208 0.5830317
0.60180557 1.1385802 0.8539011 0.3641872 1.1619773 0.40016606 1.3486053 0.49253142
1.0038215 1.233154 0.34014988 0.5204535 0.5931717 0.718573 0.79761904 0.36988
0.33368528 0.3736337 0.5028471 0.51724434 0.43594736 0.30903766 0.9130806 1.1322411
0.42596626 0.6192506 0.44008154 0.39980018 0.22980347 0.2063928 0.1953556 0.98373896
0.19970548 0.41389224 0.42343006 0.19480287 0.7213644 0.74804366 0.4491374 1.1100398
0.7645345 0.5300491 0.5255178 0.47052804
00000000: b12e 1d3f 2dc9 aa3f 21a8 833f 7ac0 1e3f
00000010: f488 473f b3ac 463e 9102 943e 9141 153f
00000020: ee0f 1a3f ffbc 913f 4399 5a3f bf76 ba3e
00000030: acbb 943f 91e2 cc3e 199f ac3f 142d fc3e
00000040: 397d 803f fed7 9d3f 2028 ae3e 713c 053f
00000050: 1ada 173f 66f4 373f c330 4c3f e960 bd3e
00000060: ccd8 aa3e eb4c bf3e 96ba 003f 206a 043f
00000070: 7e34 df3e 2f3a 9e3e a6bf 693f 47ed 903f
00000080: 4018 da3e 3587 1e3f 5e52 e13e 9cb2 cc3e
00000090: 9a51 6b3e a258 533e 4c0b 483e 51d6 7b3f
000000a0: 987f 4c3e afe9 d33e d3cb d83e 677a 473e
000000b0: 56ab 383f ca7f 3f3f 56f5 e53e c915 8e3f
000000c0: 88b8 433f 4cb1 073f 5688 063f 0de9 f03e

encoder.b1.c1.1.bias f4 [52]
-0.11054398 0.14758 0.13036688 0.023818396 -0.30975503 -0.114067346 0.11680837 0.08413669
0.056076422 -0.0072425837 -0.16216555 -0.010748472 -0.08964894 0.03543605 -0.55454516 -0.23775212
0.30235395 -0.13586862 0.110299625 0.20724127 0.07956134 0.3054906 -0.13656916 0.1551064
0.06517548 0.041485813 0.09281377 0.08807144 -0.14926279 -0.035088755 0.12102671 0.15326963
0.09750312 0.13572615 0.14976682 0.7067554 0.11481574 0.28369358 0.017504793 0.17205048
0.26017547 0.01436637 0.015847655 0.08043151 -0.14668015 -0.090377666 0.042139195 -0.08741731
0.55711305 0.3542984 -0.10397136 0.030416248
00000000: e264 e2bd 361f 173e e57e 053e cc1e c33c
00000010: 3698 9ebe 249c e9bd 3a39 ef3d db4f ac3d
00000020: 64b0 653d 3253 edbb ba0e 26be 5c1a 30bc
00000030: dd99 b7bd 6425 113d acf6 0dbf 4b75 73be
00000040: 23ce 9a3e 2521 0bbe c5e4 e13d 0e37 543e
00000050: 0ef1 a23d 4469 9c3e c9d8 0bbe 36d4 1e3e
00000060: b97a 853d 07ed 293d 2515 be3d cd5e b43d
00000070: 58d8 18be 3ab9 0fbd dadc f73d b7f2 1c3e
00000080: b7af c73d ccfb 0a3e 795c 193e eced 343f
00000090: 8424 eb3d 4940 913e 3666 8f3c 002e 303e
000000a0: b835 853e ec60 6b3c f1d2 813c 47b9 a43d
000000b0: 5233 16be ed17 b9bd 269a 2c3d d907 b3bd
000000c0: f69e 0e3f 9a66 b53e f0ee d4bd 7f2b f93c

encoder.b1.c1.1.running_mean f4 [52]
1.9866936 -0.16186848 2.409303 -1.1992078 0.0848711 -0.6795504 -0.36385277 -0.78795713
0.0984451 -0.1572366 -1.1396554 1.6328155 -1.7672099 0.5152157 0.16861601 0.5813341
0.21016416 1.3013184 0.4817409 0.0533103 1.735524 -1.6593747 -0.57757026 0.3645326
0.8408806 -0.51372033 -0.6484239 -0.9003789 1.8161285 3.5371015 -0.7382167 -0.7266187
-0.6535758 0.1647536 -0.37810534 -1.4016178 -1.1075096 -0.31793958 1.4419447 0.033446506
2.1780372 -0.37164748 0.095425285 -0.28069767 -1.6795408 1.0072796 -1.1064954 -0.0889118
0.5455664 1.1125003 2.4214656 0.02416255
00000000: fa4b fe3f dac0 25be 0532 1a40 a47f 99bf
00000010: e6d0 ad3d 04f7 2dbf e94a babe 8fb7 49bf
00000020: 969d c93d a202 21be 3ae0 91bf 1900 d13f
00000030: ef33 e2bf 2de5 033f ada9 2c3e 50d2 143f
00000040: 4635 573e 9a91 a63f bea6 f63e e75b 5a3d
00000050: a725 de3f 6466 d4bf a5db 13bf 04a4 ba3e
00000060: f343 573f 2d83 03bf 1cff 25bf 3b7f 66bf
00000070: e676 e83f df5f 6240 c5fb 3cbf af03 3abf
00000080: be50 27bf 2bb5 283e 0697 c1be 3668 b3bf
00000090: e0c2 8dbf fac8 a2be a591 b83f 34ff 083d
000000a0: f664 0b40 9448 bebe 556e c33d 9bb7 8fbe
000000b0: 31fb d6bf 8aee 803f a4a1 8dbf 6417 b6bd
000000c0: 3daa 0b3f 6966 8e3f 4bf9 1a40 8af0 c53c

encoder.b1.c1.1.running_var f4 [52]
0.07965603 0.23962481 0.22623856 0.45485747 0.09808036 0.037857495 0.016811045 0.05535811
0.0950413 0.30443272 0.17127408 0.09637776 0.37771216 0.08988128 0.039849266 0.03788463
0.14401893 0.15240964 0.11616315 0.036370087 0.15116891 0.16363971 0.22577897 0.031186696
0.060190186 0.12782791 0.08839051 0.25144124 0.10781303 0.08430035 0.27659076 0.09326534
0.053550813 0.07558029 0.081940815 0.050979126 0.02990607 0.07015816 0.039688703 0.0886479
0.059414703 0.15628771 0.16699187 0.038788795 0.20101182 0.17082815 0.03648989 0.59545994
0.051381517 0.093001895 0.0588491 0.09613484
00000000: b322 a33d 3560 753e 15ab 673e 14e3 e83e
00000010: 5bde c83d 7610 1b3d 51b7 893c 30bf 623d
00000020: 03a5 c23d 9bde 9b3e 7962 2f3e b461 c53d
00000030: 7d63 c13e ad13 b83d fc38 233d ea2c 1b3d
00000040: b379 133e 4611 1c3e f2e6 ed3d cdf8 143d
00000050: 06cc 1a3e 2b91 273e 9a32 673e 3e7b ff3c
00000060: fc89 763d 52e5 023e 1506 b53d e8bc 803e
00000070: 14cd dc3d a9a5 ac3d 4e9d 8d3e e601 bf3d
00000080: 1958 5b3d d7c9 9a3d 96d0 a73d 7dcf 503d
00000090: 93fd f43c 15af 8f3d 9f90 223d 088d b53d
000000a0: d55c 733d e309 203e ebff 2a3e 00e1 1e3d
000000b0: 0bd6 4d3e 93ed 2e3e 6c76 153d 1070 183f
000000c0: 6d75 523d c777 be3d c10b 713d 58e2 c43d

encoder.b1.c2.0.weight f4 [52, 156, 1, 1]
0.16652726 -0.2629773 0.21343252 0.073251456 -0.12825623 0.02231491 0.14601678 -0.16078973
-0.29152244 0.103513576 -0.0066100676 -0.0017941031 -0.02661132 -0.10716616 -0.018577922 -0.14213507
-0.047699697 -0.009534648 -0.079169974 0.02392014 0.047343235 -0.038931694 -0.006451242 0.08143473
0.0062233736 0.35413867 -0.05705756 -0.24678533 -0.20364664 -0.13713431 -0.15185677 -0.19774927
0.13434681 0.22677797 -0.27915657 -0.04190145 0.08690147 0.22182393 -0.006314923 0.06699816
0.16411203 -0.25059694 -0.13404799 0.051183563 0.08223894 -0.117325366 0.22790587 0.200376
-0.09490599 -0.28584683 -0.22685114 0.051029645 -0.0028875673 -0.42345732 -1.8463613 0.18198833
0.018259982 -0.009429951 0.52702934 -0.030097168 0.14857455 0.2969305 -0.23366037 0.4751791
-0.0717647 -0.12462758 0.111820385 0.24227971 -0.035019152 -0.010787046 0.31882203 0.88046753
-0.1565699 -0.14741959 0.018882185 -0.14777163 0.19482459 -0.028385002 0.07675807 0.06681786
0.06259606 0.03724303 0.6115483 -0.2445051 0.11559805 -0.033111554 0.15033644 -0.15460597
-0.046434 -0.13100071 -0.2903722 0.05468708 -0.031783536 0.24603228 -0.116596565 0.1496252
-0.07944072 -1.2472773 0.09598494 -0.25118327 0.26605627 0.11072053 -0.3044747 -0.27986038
0.07295261 0.030554181 0.019225247 0.18224901 0.019125842 0.0054603317 0.105357304 -0.28228438
0.0581041 0.14655155 0.14625216 -0.20297554 -0.027004858 0.29213893 0.3879633 -0.073035985
0.008980133 0.036115345 -0.19719395 0.015941415 0.03958855 -0.07170068 -0.016253447 -0.38035497
-0.06398795 -0.060235843 -0.08837154 -0.03280508 -0.1664537 0.10954287 -0.07094843 0.02364147
-0.5179341 -0.028280172 0.34592712 0.1488407 -0.1118498 -0.18097614 0.025889697 0.2434625
0.48631683 -0.033324867 0.13473874 0.10951779 -0.026418194 -0.19311441 0.13828586 0.12385814
-0.16390118 -0.042525694 -0.11150939 0.18958917 0.9130861 0.34385797 0.052713726 0.28754288
-0.21409349 0.12454796 0.029469954 0.15953833 0.14374292 0.027051227 0.14021023 0.16161878
0.07684033 -0.15667279 0.030400028 0.32681522 0.25829875 -0.10095688 0.09237187 -0.10729743
-0.024674186 -0.13510917 0.3972415 0.20584385 -0.14032221 0.06389827 -0.09121931 0.32966542
0.26358867 0.17540741 -0.031440556 -0.028067816 -0.16893604 -0.03854769 -0.32381177 -0.122399285
0.0085546095 0.28073782 -0.015362553 -0.25782046 -0.14108561 0.16815723 0.6103247 -0.15460883
0.02320587 -0.028672002 0.008308703 -0.11544465 0.27022496 -0.019577023 -0.29102248 -0.16242127
-0.96837324 0.28816536 0.15537007 0.26302165 -0.101308554 -0.3028558 1.1281362 0.19963723
-0.14079255 0.12500495 0.11296881 0.17455757 0.0059149917 -0.047534153 0.24902433 -0.060943846
-0.05051186 0.015701214 -0.17467967 -0.10792522 -0.007321538 0.18825786 -0.1327729 0.0442025
0.15501826 0.0046736645 0.0041773818 0.030623216 -0.017725721 -0.2117969 0.28029057 -0.072400525
0.07705553 0.09642908 -0.028693458 0.141364 0.09292212 0.1580666 0.011960078 -0.114229955
-0.075836636 0.040314883 -0.13827439 0.05446474 0.059538398 0.12618676 0.31475306 -0.06259143
00000000: 1f86 2a3e f6a4 86be 0e8e 5a3e dc04 963d
00000010: 9a55 03be c2cd b63c 6c85 153e 10a6 24be
00000020: 6e42 95be edfe d33d 4499 d8bb 1c28 ebba
00000030: fcff d9bc ef79 dbbd ba30 98bc db8b 11be
00000040: c260 43bd 3637 1cbc de23 a2bd 2bf4 c33c
00000050: fbea 413d d776 1fbd f164 d3bb 40c7 a63d
00000060: 71ed cb3b aa51 b53e 30b5 69bd 4bb5 7cbe
00000070: bf88 50be f06c 0cbe 5780 1bbe c97e 4abe
00000080: 3692 093e 7c38 683e 9ced 8ebe dba0 2bbd
00000090: 66f9 b13d d025 633e 6aed cebb 5536 893d
000000a0: fc0c 283e 3e4e 80be e043 09be dba5 513d
000000b0: e46c a83d 4848 f0bd 2860 693e 5e2f 4d3e
000000c0: 125e c2bd 845a 92be aa4b 68be 7604 513d
000000d0: 573d 3dbb 66cf d8be 9155 ecbf 265b 3a3e
000000e0: f595 953c 1580 1abc 65eb 063f 568e f6bc
000000f0: ed23 183e 4607 983e aa44 6fbe ad4a f33e
00000100: 5ff9 92bd bf3c ffbd 1602 e53d 2c18 783e
00000110: 3e70 0fbd 26bc 30bc a43c a33e 5266 613f
00000120: dc53 20be 29f5 16be d0ae 9a3c 7251 17be
00000130: 1980 473e aa87 e8bc 5633 9d3d cdd7 883d
00000140: 5d32 803d 268c 183d 6e8e 1c3f 8c5f 7abe
00000150: acbe ec3d fb9f 07bd ccf1 193e 0751 1ebe
00000160: 9431 3ebd 0d25 06be aaab 94be 8fff 5f3d
00000170: 742f 02bd e3ef 7b3e 2eca eebd 5937 193e
00000180: d1b1 a2bd c8a6 9fbf c193 c43d 189b 80be
00000190: 8738 883e 72c1 e23d 1ce4 9bbe dc49 8fbe
000001a0: 2e68 953d c34c fa3c 447e 9d3c 7c9f 3a3e
000001b0: ccad 9c3c 95ec b23b 92c5 d73d 9487 90be
000001c0: 91fe 6d3d 9c11 163e 20c3 153e d2d8 4fbe
000001d0: 4b39 ddbc 3c93 953e 20a3 c63e e493 95bd
000001e0: 6821 133c afed 133d 36ed 49be 9297 823c
000001f0: 9a27 223d ced7 92bd f325 85bc e3bd c2be
00000200: 1d0c 83bd dcb9 76bd 23fc b4bd 9f5e 06bd
00000210: d772 2abe 0358 e03d 694d 91bd c2ab c13c
00000220: 5497 04bf d2ab e7bc 5c1d b13e b269 183e
00000230: 8211 e5bd cf51 39be a116 d43c 3c4e 793e
00000240: 85fe f83e a87f 08bd f4f8 093e dd4a e03d
00000250: f86a d8bc c9bf 45be cf9a 0d3e 56a9 fd3d
00000260: b6d5 27be 6c2f 2ebd 095f e4bd aa23 423e
00000270: 03c0 693f 270e b03e 59ea 573d d238 933e
00000280: 533b 5bbe 0013 ff3d f96a f13c 045e 233e
00000290: 5831 133e 899a dd3c 4593 0f3e 657f 253e
000002a0: 775e 9d3d d56e 20be 7b09 f93c 5354 a73e
000002b0: bc3f 843e 7bc2 cebd 772d bd3d c1be dbbd
000002c0: 8521 cabc 0f5a 0abe 3d63 cb3e bbc8 523e
000002d0: a0b0 0fbe 19dd 823d 31d1 babd e8c9 a83e
000002e0: 18f5 863e 009e 333e d0c7 00bd 7aee e5bc
000002f0: 92fd 2cbe 2fe4 1dbd a8ca a5be 7aac fabd
00000300: a228 0c3c debc 8f3e 38b3 7bbc 0b01 84be
00000310: bf78 10be 6931 2c3e 3d3e 1c3f c751 1ebe
00000320: 3d1a be3c 8ce1 eabc 3a21 083c 3f6e ecbd
00000330: ed5a 8a3e fe5f a0bc e600 95be c351 26be
00000340: 4fe7 77bf 698a 933e 5519 1f3e c6aa 863e
00000350: dc7a cfbd ea0f 9bbe c466 903f b46d 4c3e
00000360: ec2b 10be 4c01 003e 315c e73d 38bf 323e
00000370: 8cd2 c13b 2cb3 42bd 3c00 7f3e 41a0 79bd
00000380: 86e5 4ebd d59f 803c 3adf 32be e607 ddbd
00000390: 83e9 efbb abc6 403e 9ef5 07be ae0d 353d
000003a0: 1bbd 1e3e 8a25 993b 6be2 883b 8add fa3c
000003b0: 8835 91bc 49e1 58be 3f82 8f3e ba46 94bd
000003c0: 4acf 9d3d 9c7c c53d 8b0e ebbc b9c1 103e
000003d0: f44d be3d 36dc 213e 34f4 433c 65f1 e9bd
000003e0: 3d50 9bbd 3821 253d cd97 0dbe 6b16 5f3d
000003f0: 89de 733d 1a37 013e 5027 a13e f02f 80bd

encoder.b1.c2.1.weight f4 [52]
0.6287162 1.0748298 0.29535702 0.9383525 0.55780417 0.8109848 0.7853888 0.37990326
0.858683 0.36182645 0.47375587 0.3463656 0.50975907 0.5734758 0.7833058 0.61743885
0.41405806 0.4501168 0.3349712 0.435061 0.9433892 1.6246405 0.8117327 0.683049
0.77130085 0.5755703 1.058038 0.8660387 0.65526295 0.72034353 0.64744896 1.5939709
0.9023776 0.6361461 0.8265182 0.636494 0.40633926 0.5777986 1.4403814 0.21359001
0.57899445 0.45967257 0.5505182 1.5859017 0.39656687 0.72374934 0.71025866 0.33342865
1.1374856 0.699078 0.59642816 0.6595979
00000000: 8bf3 203f 0694 893f 0939 973e df37 703f
00000010: 41cc 0e3f b39c 4f3f 3e0f 493f ae82 c23e
00000020: a6d2 5b3f 5141 b93e 2190 f23e d556 b13e
00000030: 927f 023f 4fcf 123f bb86 483f 7910 1e3f
00000040: 6bff d33e b675 e63e 5881 ab3e 51c0 de3e
00000050: f481 713f 38f4 cf3f b7cd 4f3f 4ddc 2e3f
00000060: f973 453f 9358 133f ca6d 873f b6b4 5d3f
00000070: 50bf 273f 6f68 383f 37bf 253f 3d07 cc3f
00000080: 3802 673f 79da 223f b296 533f 45f1 223f
00000090: b30b d03e 9cea 133f 6b5e b83f 57b7 5a3e
000000a0: fb38 143f 345a eb3e c3ee 0c3f d4fe ca3f
000000b0: d00a cb3e a347 393f 83d3 353f 29b7 aa3e
000000c0: 2199 913f c7f6 323f 84af 183f 68db 283f

encoder.b1.c2.1.bias f4 [52]
0.3586037 -0.33700708 -0.047964342 0.57852405 -0.21136142 -0.27609283 0.11693529 -0.37798318
-0.1878361 -0.14620648 0.005036036 0.21070829 -0.27180907 0.16424692 0.00982246 -0.114440896
-0.0041942494 0.27060977 -0.0075520775 -0.14500968 0.10748406 -0.18748069 -0.2464259 -0.012422786
0.055136893 0.048900463 -0.119161494 0.06602913 0.13664487 0.58443075 -0.023519766 -0.58206224
0.09664729 -0.7079359 -0.51246285 0.019719338 0.10061604 0.05359465 0.40187806 -0.14797448
0.10359702 0.2468202 -0.17284364 -0.2438214 -0.2082371 0.16387692 0.014021177 0.1658607
-0.18331234 -0.07291024 0.17111452 -0.19090892
00000000: e79a b73e 318c acbe 4276 44bd 271a 143f
00000010: 216f 58be 0a5c 8dbe c57b ef3d 0387 c1be
00000020: 1b58 40be 27b7 15be 5505 a53b eac3 573e
00000030: 8f2a 8bbe 5830 283e 62ee 203c fd5f eabd
00000040: ea6f 89bb 5d8d 8a3e 6b77 f7bb 6b7d 14be
00000050: 9a20 dc3d f0fa 3fbe 1257 7cbe f188 4bbc
00000060: 39d7 613d da4b 483d f10a f4bd 483a 873d
00000070: a2ec 0b3e 419d 153f 86ac c0bc 0802 15bf
00000080: 04ef c53d 4a3b 35bf c430 03bf 738a a13c
00000090: c80f ce3d 1086 5b3d f6c2 cd3e 9f86 17be
000000a0: ad2a d43d 6fbe 7c3e ecfd 30be 51ac 79be
000000b0: 1b3c 55be 5acf 273e 14b9 653c 63d7 293e
000000c0: 3bb6 3bbe f751 95bd a538 2f3e a17d 43be
