save/fsrcnn-x4/iter_800000.pth (torch, 317565 bytes, 48 tensors)

head_conv.0.weight f4 [56, 3, 5, 5]
00000000: 5732 3f3d 37db b3bc 3b35 edbc a1e2 493c
00000010: 7bf0 983d 5b76 943c ca2b 05be 53ee fd3e
00000020: a908 4ebe a57c d6bb 51d5 dc3c b73f 8f3e
00000030: 2d26 0cbf a36f b63e b9c0 d03c ed90 093d
00000040: 3609 aabe 551a 983e 2ee6 d8be ec64 683b
00000050: f0f6 b63d 75bb f13b d338 c33d 6719 f43c
00000060: 3f95 3e3d d03c 8d3c 15c3 993d 0c60 35be
00000070: c6c6 f53d 7555 c73b d4b1 af3d 6cf5 86be
00000080: 7ffa 573e 8280 77be aae3 d03c 6cb4 4bbe
00000090: 7f54 3b3e da70 b6be ffb0 123f dbb8 35be
000000a0: 94e0 bb3d 254e 5ebe 4a98 b13e 2d6a a7be
000000b0: 70c0 ad3d 8148 53bd 25a3 af3d aa56 f1bd
000000c0: 0a70 d33d 23e6 09bd 0d4e 8dbd aeb9 713d
000000d0: 6fec 58bf fbf0 ee3b 8f96 3bbc 1475 d83d
000000e0: a76d 503e 3463 9e3f 7c23 493e b696 87bd
000000f0: a540 42bf f03e 873f a1a9 dcc0 7294 f73f
00000100: b972 54bf 678b e53d d85e ad3e 61fb ba3f
00000110: 70b9 183c 433c 103d f7bc b0bd 3c79 bbbd
00000120: 43b5 13bf 3eb7 40b8 6e7f 80bc 7078 bd3e
00000130: f4f4 00bf 3b93 093f 34f0 483d 5f2c a73e
00000140: 337e a73e 5f77 1b3c 4745 fe3d 64a5 05bf
00000150: 192c 2ebf 97c5 4fbf 3ec1 0cbe 9242 1bbf
00000160: 80f9 403e e9e1 1c3f 5ce3 da3e bd98 063f
00000170: 2971 4d3e 2cc2 923e ec40 7cbe ba99 253d
00000180: 3a9d 45bd 8712 36bf d848 ac3e c5d5 0e3d
00000190: a682 c4bb c1c0 2ebf e2f5 f43e 3409 8abe
000001a0: 0d0a 05bb 8b90 a33e 743a 943d 6d67 f23e
000001b0: c262 c2be 92f2 acbd d8ec a6be bd6a 653e
000001c0: d913 1e3d c1ab 26bc e817 423f ea09 f63d
000001d0: 312e 2a3e beff 4ebe bdb1 91bd 1299 48bf
000001e0: 3fe2 9abe 3761 483e 7697 9ebe c671 d83e
000001f0: 1f98 7dbd 8952 903e 7e0f 2cbf 02a0 b63e
00000200: 5143 43bc 538e 643e aa95 8d3e c4b7 32bc
00000210: 5fdd b83e 8861 33be a6e1 cabe 30e6 09bf
00000220: 0890 54bb 2040 c5be d410 3fbe 9edc 003f
00000230: 2008 883e 878c db3d dcf4 fcbb 37db 8d3e
00000240: a31e eabe aaea edbc 94d4 0d3e 8e58 e7be
00000250: 7ccf d03e 8d0e 923d 4de4 74bd 40aa d3bc
00000260: 8ff5 023c 4331 f2bd 54af 6c3c 0e89 86bd
00000270: 6b71 8b3d e7e0 94be 1ad2 803d ec52 083d
00000280: b7c3 813c 3cbf a1bc d8a8 213f 33bc d93e
00000290: db9d 51bd 7f4c 1dbe 0ffd 7c3d 950f 6c3e
000002a0: 4276 13bf d16d a9bd 87ef a53c 2436 833d
000002b0: f8ba fbbd 4773 c5bd a1f5 df3d 0758 03bc
000002c0: 5ad5 97bd c12b f23d d4df 633b fca6 063c
000002d0: b86c b5bc 7da5 a9bc 0bd9 36be 5919 ee3c
000002e0: 2e64 c9bd fcb8 ea3d 2b40 47be fca9 283f
000002f0: f3a2 f03e 3ef3 07be c886 b13d 838a 553d
00000300: 2494 9c3e af8b 6cbf cf12 40bd 0942 d3bb
00000310: 1a66 d5bd 09f9 07be 0c75 21be ed3a 3e3e
00000320: 7428 07be 5078 3f3d ecfc 6e3d 23bf 593e
00000330: 076b 6ebd 4eff 923d 5af9 9f3e 419c bebe
00000340: afeb 073d 76f5 a83d 2344 333d 4f2a a0be
00000350: ca7d 8d3e 2540 6e3e 8148 58be ae35 153e
00000360: dff9 c0bc fe53 33bd f1d4 78bf 63b9 f63d
00000370: e72d bbbd a31f 663d 51ba 12be a71d 4a3e
00000380: c3fb 533e b44f 253d a503 e23d bdc9 cf3d
00000390: 3189 063e 5a53 eb3c 69c6 073e 165a 533e
000003a0: ce7a af3e ec74 663e 4b3f d53d 8a3a 113e
000003b0: e14e 993e d407 2c3f d2a7 953e ba1a 1c3e
000003c0: 0f21 fd3d a551 053e 48f6 6b3e 2d2e 3a3e
000003d0: 2fed a83d 14e9 1d3d 00b7 d43d aaea f73d
000003e0: 81f4 dc3d e68e 183d 2ec4 38bd 4d57 66be
000003f0: e080 9bbe 4d48 35be 567d b2bd d6c0 86be
0.046678867 -0.021955116 -0.028956046 0.012322099 0.07467743 0.018122843 -0.13004985 0.4959589
-0.20120491 -0.0065456205 0.026957186 0.27978298 -0.5474575 0.35632047 0.025482522 0.033585478
-0.33210152 0.2970759 -0.42363113 0.0035460545 0.08933818 0.007377083 0.09532323 0.029797269
0.04652905 0.017240912 0.07507912 -0.1771242 0.12000804 0.0060831853 0.0857884 -0.26359117
0.2109165 -0.24170116 0.025499184 -0.19893044 0.18293951 -0.35632974 0.57301325 -0.17746298
0.09173694 -0.21709497 0.346865 -0.32698193 0.0848397 -0.051582817 0.08576039 -0.11784108
0.10324104 -0.03366674 -0.06899653 0.05901497 -0.8473577 0.0072919107 -0.01144947 0.10569206
0.20354329 1.2374024 0.19642442 -0.06620543 -0.7587989 1.0566082 -6.8957067 1.9342177
-0.8298755 0.112082295 0.33861423 1.4607965 0.0093215555 0.03521372 -0.08629792 -0.09153983
-0.5769846 -4.5947025e-05 -0.015685763 0.3700595 -0.5037377 0.5374028 0.0490572 0.3265104
0.3271347 0.0094889095 0.12415557 -0.5220549 -0.6803604 -0.81160873 -0.13745591 -0.60648453
0.18845177 0.6128221 0.42751586 0.5257681 0.20062698 0.28663766 -0.2463414 0.04042981
-0.048245646 -0.7112202 0.33649325 0.034871835 -0.00599702 -0.6826287 0.47843844 -0.26960146
-0.002030018 0.31946215 0.072377115 0.47344533 -0.3796597 -0.08444704 -0.32602572 0.22403999
0.038593147 -0.010172785 0.7581773 0.1201361 0.16619183 -0.20214745 -0.07113979 -0.78358567
-0.30250737 0.19568335 -0.3097493 0.42274302 -0.061912652 0.2818797 -0.6721114 0.3566895
-0.011917905 0.22319917 0.27653247 -0.010908071 0.36106393 -0.17517674 -0.3962528 -0.53866863
-0.0032434482 -0.38525486 -0.18658763 0.50336635 0.265687 0.10720163 -0.007719619 0.2770631
-0.457265 -0.02904256 0.13850623 -0.4518475 0.40783298 0.071316816 -0.059788037 -0.025838017
0.007993116 -0.11825802 0.014446098 -0.0656911 0.06808742 -0.29077837 0.06290074 0.033282205
0.015840394 -0.019744508 0.6314826 0.42526397 -0.051175933 -0.15361212 0.061764773 0.23052819
-0.5760232 -0.08272899 0.020255817 0.06406811 -0.12291521 -0.09641128 0.10935522 -0.008016593
-0.074137405 0.11824752 0.0034770863 0.008218523 -0.022146568 -0.020708794 -0.17856233 0.029064821
-0.09833561 0.11461064 -0.19458072 0.65884376 0.4699932 -0.13276383 0.086682856 0.05213405
0.30581772 -0.9240064 -0.046892937 -0.006447081 -0.10419865 -0.13278593 -0.15767306 0.18577166
-0.13199025 0.0467456 0.058346674 0.21264319 -0.058207538 0.07177602 0.31244928 -0.37228587
0.03318375 0.08249943 0.043766152 -0.3128228 0.27635032 0.23266657 -0.21121408 0.14571258
-0.023556648 -0.043781273 -0.9719992 0.120470785 -0.091396146 0.056182515 -0.14328887 0.19737874
0.20701508 0.040359214 0.110358514 0.101459004 0.13138272 0.028726269 0.13259281 0.20639834
0.3427338 0.2250554 0.10412463 0.14182487 0.29942992 0.67199445 0.292296 0.1524457
0.12359821 0.13019426 0.23043168 0.18181677 0.08248364 0.03855236 0.10386467 0.121053055
0.10788823 0.037245654 -0.045108967 -0.2249424 -0.3037176 -0.17703362 -0.08715312 -0.26318997

head_conv.0.bias f4 [56]
00000000: 1e29 8b3d 4e6e 25bd afc2 6dbe d516 9bbe
00000010: 7310 50bd b36a 8d3c b724 1dbe 0422 3e3f
00000020: 04f6 d03e 03b4 b83b 6d2b 523e fc8c 87be
00000030: bbd4 933b c067 05be 37dd bcbf 17c7 97be
00000040: e2e4 d0be 6a24 b83e cae5 953e d45e 36bf
00000050: b132 58be fe72 293d 9998 9bbc ec63 e03d
00000060: 240e 463d 0d27 c83d 0228 0f3d 72ad eabd
00000070: 48b5 a5bd ce5c e3bd cbd0 923b 3cea 34be
00000080: da8e bd3a 2bb2 ec3b ba22 073d 5716 80bf
00000090: af39 3f3e 283e 2c3e f5de 4cbe e41b 223b
000000a0: de6e 20be ecd1 6abc 4458 c83c 95c6 9abe
000000b0: bf5f dfbb d525 02bc 5c0e fbbd 3fc3 67bd
000000c0: 79ce 1ebd f23d c2bd 0135 733c 31cf 823e
000000d0: 3bcf f33d 9f5a f6bd 7a33 d53c 5750 893c
0.06794952 -0.040388398 -0.23218797 -0.30290857 -0.050796937 0.017262792 -0.15346037 0.74270654
0.40812695 0.0056366934 0.20524378 -0.2647475 0.0045114434 -0.13027859 -1.475501 -0.2964408
-0.40799624 0.35965282 0.29276878 -0.71238446 -0.21113087 0.04136943 -0.018993663 0.109565586
0.04835333 0.09773073 0.034950264 -0.11458863 -0.08091217 -0.111016855 0.0044804565 -0.17667478
0.0014462129 0.0072233877 0.032992102 -1.0006818 0.18674348 0.16820586 -0.20006926 0.0024735862
-0.15667292 -0.014332276 0.02445615 -0.3022963 -0.0068168337 -0.00794359 -0.12258598 -0.056582686
-0.038771126 -0.094844714 0.01484418 0.255487 0.119047605 -0.12029003 0.026025523 0.016761942

body_conv.0.0.weight f4 [12, 56, 1, 1]
00000000: 5ca2 8d3c 7164 65bb 4883 ee3b c2c0 ab3e
00000010: 79b2 b03c c64c ed3b cb45 953c 5abb df3b
00000020: b9d9 4e3b b9bc 313c b306 c83b 4d60 bdbb
00000030: 5f7c 0c3b 6423 e63b 057a d8bb f7dc f2bc
00000040: c16a 6bbc bef4 8db9 1f9c b7be 48cc c8bb
00000050: d2c1 283c 1101 28bc aeb6 0f3a 4464 073d
00000060: a8b8 98bb 99a3 fa3c 29da 1a3c df73 7dbc
00000070: ee24 e53c d9d3 b33c 04f9 38bc def8 9cbc
00000080: 2d0c 3ebc 61f4 1f3b 2fce 6d3b c810 db3b
00000090: 586a e3bb aa53 babc 5744 c2b9 e81d 423c
000000a0: 02f3 d3be 2844 61bc a30f a6bb 2a94 eabb
000000b0: c0eb 6fbc f6e7 8539 afdf d63b 4dbf 0abc
000000c0: aee8 ad3c 45bb 8abc 5946 833c 5eb9 913b
000000d0: 4fdd c23a 404d a7bc 173d 96bc d23e adbc
000000e0: 83ec 01bd d949 b33b ddea 83bc 56b8 7c3a
000000f0: ab3a ddbc 7993 a2bc d94f 98bc 75d5 fe3b
00000100: e127 50bd 8e79 b33b 0ea3 45bc e9dc 563c
00000110: 1b38 7fbc e3e7 1dbc dc47 e93b e65a 103d
00000120: 1be2 703c 5acb 7fbb a683 3c3c 2452 9ebb
00000130: 9fdd 7abc 1ec5 ab3c 64cf 4cbb e442 90ba
00000140: 7ac5 efba a7f2 143f 5ef0 5bbc 0461 a53c
00000150: a489 2abd 97ec cbbc 410f a03c 986b 23b9
00000160: 752f d33c 3502 983b 7505 cebb fc7a 2abc
00000170: f71f e43b 763d 013d b515 fdbb ae56 20bc
00000180: 9f19 96bc 2402 113c a9d2 553c 6ee0 333d
00000190: 7701 be3d b0be 06b9 0ed7 d4bb c753 8d3c
000001a0: dda9 ebbc 6e2a 633c a4e4 afbc df39 26bd
000001b0: 4e93 2a3b 6328 7bbf 9f4c f23c 52d8 a93c
000001c0: 8724 583d 0148 b83c 0090 b7bd d6c8 6cbd
000001d0: 6397 59bd 176b b53c 5f5c 433d db60 5dbd
000001e0: f017 8dbd 06ea 963e ddba 1c3e 6d65 14be
000001f0: 49b0 963e 91ba b8bd cca0 253e 05c9 913d
00000200: 3e4b 96bd 126f 1e3e e4c9 053d 2be7 5a3c
00000210: 4228 d03c 53da 1bbe b4db 8e3c c450 b6bc
00000220: f10c 653d 5058 4fbe 3a08 9f3d 0720 ac3d
00000230: 84c8 09be a57f 32bd 3359 153d 88d5 0b3d
00000240: 8190 25be 26a7 9c3b 28d9 4ebd 0fd7 e2bd
00000250: 7c23 3cbe 81fb 223e 5b79 55bc cd13 6ebd
00000260: ce7f 30bd 9c04 4a3d 4596 24be a481 88be
00000270: 6d42 fabd 4f4f 23be 65e8 41bd 0b04 62bd
00000280: 729a bcbd 5769 aabd 500e c93d 3e5b 943e
00000290: 2a30 a93e 04dc ef3d f36d 993d a070 ffbc
000002a0: 5d28 9dbc cf76 8fb9 fdc1 70ba c536 0dbb
000002b0: 58b1 e03b 2170 ccba 55a0 763c 2e3c 0d3c
000002c0: 4d1b 3abe 2a9f 8fbb 0e09 67bb f318 b63c
000002d0: 7217 2c3c 9399 04bc 447d 413a 3d5d 26bb
000002e0: a5bd ceba 68a5 f2bb add3 e8ba 1897 cfbb
000002f0: 6a32 1939 5b73 f13b 2c49 cfba a151 da3a
00000300: 628f 7abc bf98 4abc a937 25bb e6ca 36bc
00000310: ef0d 99bb 62e8 723b eeb3 6e3b 1517 e63a
00000320: e216 e8ba c52c e43b 0621 01bb 7b38 303b
00000330: d3a6 a9ba 85e6 7dba 4601 f9bb db7f 0f3c
00000340: 88ea 033b bafc f3bc 29e0 e93b ed99 58bf
00000350: 752a 563e 79a9 d23a 311f 163a 2062 163b
00000360: 16f6 e43a b4bc 2cbc f9da 33bb 2653 f33e
00000370: 87ed 78bc 9cb8 253c cecf d1b7 f8be c4bc
00000380: 6ee3 45bc 8648 dfba 0110 ad3b bb82 713c
00000390: 3d65 4f3b a1c3 2eb7 65df 833c 6f22 f2bd
000003a0: 3801 40be ce9d f8ba 3b14 c3b9 562e 8c3c
000003b0: 74ff 99ba b25b 97bc 7186 81bb 7843 1b3b
000003c0: e8f6 343b 6e09 dbbb 18da 77bc 315b db3d
000003d0: 3de0 7c3b c4b5 ec3b b4da 303a 2063 b3be
000003e0: 86b9 5abc 5cee ebb9 22bd ceba 9eb6 c7bb
000003f0: 5141 1abc c0fc 8b39 0ed7 b439 a475 333e
0.017289333 -0.0035002495 0.0072788335 0.335455 0.021569477 0.007241818 0.018221756 0.006827754
0.0031562878 0.010848218 0.0061043142 -0.005779302 0.0021436436 0.007023262 -0.0066063427 -0.02964638
-0.014368714 -0.00027075963 -0.35861298 -0.006127868 0.010300117 -0.0102541605 0.00054822385 0.033054605
-0.0046606846 0.030595588 0.0094514275 -0.01546952 0.027971711 0.021951603 -0.011289839 -0.019161638
-0.011599583 0.0024407136 0.0036286225 0.00668535 -0.0069401674 -0.022744972 -0.0003705348 0.0118479505
-0.41396338 -0.01374916 -0.005067782 -0.007158776 -0.0146436095 0.0002554056 0.006557427 -0.008468461
0.021229114 -0.016935 0.016024755 0.0044471463 0.001486698 -0.020422578 -0.018339677 -0.02114812
-0.031719696 0.00547145 -0.016103202 0.00096405053 -0.027005514 -0.019845711 -0.018592762 0.007776911
-0.05081928 0.005477137 -0.012062801 0.0131141925 -0.015577341 -0.009637806 0.007119162 0.035242938
0.014702345 -0.003903112 0.011505997 -0.0048315693 -0.015311628 0.020968016 -0.0031251544 -0.0011006263
-0.0018293106 0.5818276 -0.013424007 0.020187862 -0.04163517 -0.024893088 0.019538524 -0.00015584973
0.025779465 0.004638935 -0.0062872716 -0.010405298 0.0069618183 0.031552754 -0.007723535 -0.009786291
-0.018322764 0.008850608 0.013050714 0.043915205 0.09277623 -0.00012850272 -0.006495363 0.017251862
-0.02876752 0.0138650965 -0.021471329 -0.040582534 0.0026027742 -0.981085 0.029577551 0.020733032
0.05276921 0.022495272 -0.08963013 -0.05780872 -0.05312289 0.022145791 0.047695514 -0.054047447
-0.06889331 0.2947542 0.15305658 -0.14491816 0.2943137 -0.0901996 0.1617462 0.071184196
-0.0733857 0.15472057 0.03266324 0.013360779 0.025409821 -0.15220003 0.017438747 -0.022255309
0.055920545 -0.20248532 0.07765241 0.08404546 -0.13455397 -0.043578763 0.03646202 0.034139186
-0.16168405 0.004780668 -0.050500065 -0.110761754 -0.18372911 0.15916254 -0.013029422 -0.058124352
-0.043090634 0.049320802 -0.16072948 -0.26661408 -0.12219701 -0.15948223 -0.04734077 -0.055179637
-0.092091456 -0.08320873 0.09817183 0.28975862 0.3304456 0.117118865 0.07491674 -0.031181633
-0.019184286 -0.00027363605 -0.000918418 -0.0021547538 0.0068570785 -0.0015597382 0.015052875 0.008620305
-0.18174477 -0.0043829875 -0.00352532 0.022228694 0.010503637 -0.008093256 0.0007381032 -0.0025385164
-0.0015773071 -0.007404972 -0.001776328 -0.0063351505 0.00014609998 0.007368488 -0.0015814654 0.0016656407
-0.015292974 -0.012365519 -0.0025210178 -0.011156773 -0.0046708505 0.003706478 0.0036423164 0.0017554486
-0.0017707015 0.0069633448 -0.0019703521 0.0026889134 -0.0012943394 -0.0009685534 -0.0075990288 0.00875851
0.0020128805 -0.029783595 0.0071373177 -0.8460987 0.20914634 0.0016072235 0.0005726694 0.002294667
0.0017468359 -0.010543037 -0.002744375 0.47524375 -0.01519335 0.010114815 -2.5011508e-05 -0.024016842
-0.012078149 -0.0017035163 0.005281449 0.014740641 0.0031646036 -1.0416757e-05 0.016097734 -0.11822974
-0.18750465 -0.0018967928 -0.0003720837 0.017111938 -0.0011749105 -0.01847634 -0.0039527942 0.0023691338
0.0027612988 -0.0066844737 -0.015127681 0.10710753 0.0038585805 0.0072238166 0.00067464565 -0.35036564
-0.013349896 -0.00045000284 -0.0015772919 -0.0060947677 -0.009414987 0.0002670046 0.00034492504 0.17525345

body_conv.0.0.bias f4 [12]
00000000: cce2 253e 6e27 1fbb 8111 84bd 9c12 013c
00000010: 70bb 853e 86d2 253f 6e23 6a3d 9425 95bb
00000020: 59f9 083e 731a 86be 1c1b 24bf 7d24 84bc
0.16199797 -0.0024284977 -0.06448651 0.007877972 0.26119566 0.6477436 0.057162695 -0.004551599
0.13376369 -0.26192054 -0.64103866 -0.01613068

body_conv.1.weight f4 [12, 12, 3, 3]
00000000: f19d 4bba e84f 883d 930b babd 97fa 213e
00000010: 4fed db3d 909a 02bf b78c a13d 21f2 9b3e
00000020: 1952 cdbd 189a 8fbd 2a4a 1cbc 47a8 a5bd
00000030: 6e13 01be 84c9 fb3e a286 8dbe 012b 18bd
00000040: f8f1 d33d 87f5 4839 962d 0cbd 63e9 e3be
00000050: 7fbf 823d faf6 8bbd 7897 fe3e 78f7 5dbe
00000060: 6040 9e3d 33d5 9a3c 2ab0 2bbc cd0e 123d
00000070: 23d5 72be 3967 573c c5f1 edbd 19c2 863f
00000080: 34f6 363d b2fd 87bc e82a 98be 9fda 643c
00000090: df15 983d 4966 a03e 2b48 513e d8f1 98bc
000000a0: da57 0bbf 5ba6 f6bc 86c0 7d3d 33e9 00bd
000000b0: 6fd7 c83c 85b8 7b3d 64fd ccbc 14e0 49bd
000000c0: 0af7 93be 9567 a43e fc8a c7bd a70e d63d
000000d0: 37ab 7cbd 9f11 403d c0c4 b53b ed93 103e
000000e0: db4a cd3c 4d7e b6bd e534 c9bc da46 f23b
000000f0: a25c d6bc 1720 82bd af37 b03c cf1e 043e
00000100: c2d5 9f3d b857 10be 4da2 abbd d770 88bd
00000110: ac63 de3c becd 6f3d 7a93 a03d d197 063d
00000120: e735 74bd aa58 29be e9c5 5f3d 979d 853d
00000130: 97bf 993e 26ec be3b bdb5 04bd b329 cdbd
00000140: 1992 4dbd d6ec a7bd 682d 7dbe d285 39be
00000150: 34f2 893b 2fbb 153f d2cc e3bc 2a85 62bd
00000160: 360e e43a 09f0 15bc 8e79 85bd 5f84 983c
00000170: 101c 4c3d 325c 9f3e fafc 41be 329a a73d
00000180: ac67 c5bd 80f1 413c a390 b1bd 2170 803d
00000190: 11c2 823e ebe8 463d e95f 22be dbdd 02be
000001a0: a315 963d 8b89 dcbd d8db 83bd 150d b03c
000001b0: 107b 05be f23b 083e 8455 3dbe c747 63bb
000001c0: 4bcb 39be 8266 173f c71e 42be ef8a 393f
000001d0: 0aac 52bf e171 ed3d d50c 1d3d 7638 cfbb
000001e0: a09a 3fbe 9fc2 5b3f 85ec 52be 5784 aabd
000001f0: 6b77 06bf acaf 093e 077e a9bd cc58 763e
00000200: 7088 39bd 0c3e 77be e8bf bc3e 1284 e1be
00000210: 2d7e 813e bd0e 4a3e 4b03 ec3c e33a 87bd
00000220: 3839 e33d 0330 d83c 199e 373e 25d8 e5be
00000230: c9ab 37bd 01d3 5bbe 6b25 65be b230 f4bd
00000240: 3d25 5ebc a5a0 833c fd6f 263d 846d bf3d
00000250: 885f 4ebe d51f c9bb 6f51 933c b4d4 45be
00000260: a15e 383e e64b 3b3d e422 12be 5b1c 223d
00000270: fa12 abbd 83d0 a23e f1c2 48be 7f90 563d
00000280: b8d2 0dbe 7eba e43c 6b30 33bd de44 24be
00000290: c3da 2bbd 5762 213e 75d9 b5be 940a 94bc
000002a0: 8c8b 11bd 6081 603e e5d9 10bd 59f5 4dbd
000002b0: 9d47 7dbd 1ae9 0e3e 1775 883e 921d f33e
000002c0: 8413 ab3c d799 96be cc9e 53bf 2078 953e
000002d0: 41ef d5bd 421d 833d 55c9 683d 83ad a73d
000002e0: 8453 26be fbf6 063e 1c74 d2bd bed7 2d3e
000002f0: ce63 2cbe 8cc4 36bc f4b9 2e3e 4473 47bd
00000300: a3d5 3dbe d1e3 103d 0a37 48be 5858 aa3b
00000310: e10a 9a3e 6c05 cabd a29f 11bd b88a 953e
00000320: f6e0 2bbd 4cb8 01bd 26ba 48be 76aa bbbd
00000330: fb0c c1bd 7769 033e 3dff 4cbc 1cad b03d
00000340: a86c 1a3d e7c2 fc3c 9b5a 85be 5a3c f3bd
00000350: 0526 8cbd b061 1fbd 0af5 733e 68a3 b6bd
00000360: 8190 b0bd 6a85 733e 10d4 233d 4ec7 2a3e
00000370: 0b06 2c3f edbc d33e a1bc 09be 6326 983e
00000380: c316 66bd dbb7 0abe bb64 63be 5395 2fbd
00000390: 2761 48be 9fdb 233f b5db 193e 24a5 9fbd
000003a0: ba69 41be 49a2 8a3c daf1 58bd c7dd c9bd
000003b0: 75d7 76bd 5b36 6b3e b8ec fd3c d441 db3c
000003c0: d132 003e 0163 efbd b543 a2bd ab53 d13d
000003d0: 3b07 b53d 2518 e53b 9585 b0bd 7310 04bf
000003e0: c8e3 75bb 7f6e 2bbd 133c bc3e 1071 9d3d
000003f0: 520a 4a3d 7a97 4fbd 0282 6fbd 168d 633d
-0.00077673706 0.06655866 -0.09084239 0.15818249 0.107386224 -0.51017094 0.07888167 0.30458167
-0.100254245 -0.07011813 -0.009539166 -0.08088737 -0.12605068 0.49177182 -0.2764178 -0.037150387
0.10348886 0.00019164952 -0.03422316 -0.44513997 0.06384181 -0.068342164 0.49724936 -0.21676433
0.07727122 0.01890049 -0.0104790125 0.035658646 -0.23714118 0.013147169 -0.116183795 1.0527984
0.04466839 -0.016600464 -0.29720235 0.013968139 0.074260466 0.31328037 0.20437686 -0.018670008
-0.54430926 -0.030108621 0.061951183 -0.031472396 0.02451679 0.06145527 -0.02502317 -0.049285963
-0.28899413 0.32110277 -0.09743306 0.104520135 -0.06168672 0.046891805 0.005547136 0.14118929
0.025060108 -0.08910809 -0.024561355 0.0073937 -0.026167218 -0.06353777 0.021510927 0.12902378
0.07804443 -0.14095962 -0.08380566 -0.066621475 0.027147137 0.05854582 0.07840629 0.032859627
-0.059621718 -0.16537729 0.0546321 0.065241985 0.30028984 0.005826491 -0.03239988 -0.10017719
-0.050188158 -0.0819947 -0.24724352 -0.18117455 0.004209781 0.58488744 -0.027807627 -0.055302776
0.0017399255 -0.009151467 -0.06517325 0.018617807 0.04983145 0.31125027 -0.18944159 0.08183707
-0.096389145 0.011837363 -0.086701654 0.06271387 0.25538686 0.04856197 -0.158569 -0.12779944
0.073283456 -0.10768422 -0.06438416 0.021490613 -0.13035226 0.13304117 -0.18489653 -0.0034680234
-0.18143956 0.5914079 -0.18957053 0.7247762 -0.8229376 0.11593986 0.038342316 -0.0063238693
-0.18711329 0.85843843 -0.20598038 -0.08326023 -0.5252597 0.1344592 -0.08275991 0.24057311
-0.045296133 -0.24144763 0.36865163 -0.44046074 0.25291577 0.19732185 0.028810164 -0.066030286
0.11094898 0.026390081 0.17931403 -0.44891468 -0.04484156 -0.2146721 -0.22377555 -0.119233504
-0.013558683 0.016067812 0.040634144 0.0934706 -0.2015363 -0.006137828 0.017983167 -0.19319421
0.18004848 0.04572668 -0.14271122 0.039577823 -0.08353229 0.31799707 -0.19605614 0.052383896
-0.13849914 0.027920958 -0.043747347 -0.16041896 -0.041956674 0.1576017 -0.3551747 -0.01807145
-0.035533473 0.21924353 -0.03536405 -0.05028281 -0.061835874 0.13956109 0.26651832 0.47483498
0.02088333 -0.29414245 -0.8266418 0.2919321 -0.10446025 0.06402065 0.05683263 0.081873916
-0.16242796 0.13180153 -0.10276052 0.1697683 -0.16834947 -0.011155259 0.17063123 -0.04869391
-0.18538527 0.035373513 -0.19552246 0.0051985197 0.30086425 -0.098643154 -0.03555263 0.29207397
-0.041962586 -0.0316699 -0.1960226 -0.09163372 -0.09426304 0.128332 -0.012512025 0.08626768
0.03770128 0.030854655 -0.2604569 -0.118767455 -0.06843189 -0.03891152 0.23823944 -0.08917886
-0.08621312 0.23781362 0.03999716 0.16677591 0.6719672 0.41355076 -0.13450862 0.29716787
-0.05617405 -0.13546698 -0.22206394 -0.042867016 -0.1956831 0.6400699 0.15025218 -0.0779517
-0.18887988 0.016923087 -0.052965023 -0.09856754 -0.06026407 0.22969954 0.030996665 0.026764788
0.12519385 -0.11688805 -0.0792307 0.102210365 0.0883927 0.0069914036 -0.08619229 -0.515876
-0.0037519801 -0.041853424 0.36764583 0.076875806 0.04932625 -0.05068157 -0.058473594 0.055554472

body_conv.1.bias f4 [12]
00000000: c1fc 68bd 3f5e c13d afc3 5ebd c48f fb3d
00000010: 8aa3 073d 19e4 81bd 4fe9 0bbe 5615 1dbe
00000020: 9c3d efbe c7e4 58bc 01b0 2e3d 1a4c 6f3e
-0.05688167 0.09441804 -0.054385837 0.122832805 0.033114947 -0.06342334 -0.13663219 -0.1534017
-0.46726692 -0.0132381385 0.04264832 0.23368874

body_conv.2.weight f4 [12, 12, 3, 3]
00000000: e0dc c83d 04a5 a33d 87e7 5d3d 2077 47be
00000010: 0cb9 98be e3d1 be3b 243a 68be 998c 713e
00000020: 3e15 0b3a 4d28 7c3c 8891 b03d bf3b 113d
00000030: ce8a 8abe 2c27 c2be e96d 903d e3b3 a53d
00000040: 55c3 4e3d 7b1f 0abe 38d3 f83e 15ba 2c3d
00000050: 00f1 c53d 4524 c6bd b319 7abf 61ac aa3e
00000060: dc27 f83c 544e 1d3d d3ec 8e3d a99c 43be
00000070: 686c 0abe a9bf 04be b136 00be 8f04 283f
00000080: b2d2 35bd 00a5 223d 804c 7a3e f7aa 6a3d
00000090: 6af1 5fbd 80be 8abd b9e8 0d3d 55a5 d53d
000000a0: 1500 fc3d 39aa 8c3d 3a4a 003c 12ca 3c3d
000000b0: 5b06 f3bc ffc6 44bd da01 97bc 39fe cd3d
000000c0: 4e80 9fbe 3aab 103f 3ff8 abbd a27d a4bc
000000d0: 6057 a6bd 9d42 adbd 90e7 413e 510c 74be
000000e0: 4b08 b7bc 8f62 45bd cf88 493f 2861 9abe
000000f0: 3a86 0dbe f3d7 3cbe 75be 16bd 0d39 86bd
00000100: a8b4 95be 0f70 f53d 52bf cfbd b64a d23e
00000110: b018 dcbd 1dd7 503e 7b1b c9be 3dd9 8d3d
00000120: df1d 81bc bdc1 7f3d 7878 62bd 5bbf 82bd
00000130: 7e15 93bc 698e 7fbd 17fb 603e a68d 90bd
00000140: 391b a0bb 009c 9f3e 5590 e9bd eb63 8d3d
00000150: 4d77 14bd 2e4d 213f c1cb a5bd db2f 533c
00000160: 8c83 6e3c 81ab 43bd a893 92bc 6998 a2bd
00000170: e8cb a23d 76ed cb3c f312 963d f628 57be
00000180: 6b3d bdbd bb8e fbbd 8299 1bba 5a72 1fbe
00000190: 8bc1 ba3d 9f47 2cbe 5d3c 3b3d f834 33be
000001a0: 4e29 6f3e 0f0e 19bc ee10 263e e813 85bc
000001b0: 6a72 88bd d21f 99bd 50e8 623b 3e36 f53d
000001c0: 4e85 32bf f182 9c3e 0ddc be3e 8783 06bd
000001d0: 4601 b43d 075a c0bc 6727 48bd e059 aabd
000001e0: 94d6 803e f72e 453e fcc0 efbd fc25 dabd
000001f0: 5160 2d3c 839d cebd 75d2 f7bd e50c 9e3b
00000200: 180b 89bd 25bb 223c 382e 31be 4029 f13d
00000210: 7e35 133c 7d2b 3b3e e094 263d 4fe8 7abd
00000220: 5142 08be 5ae0 143b ea1b 453d b19b 9d3e
00000230: b494 b23d 8c20 b3bd 11da c3bd 85a2 a1bd
00000240: 2d49 053c 47b6 adbc 4a40 133e 66a0 8d3e
00000250: ad7f 3cbf b91e 02be de81 183e 4d3d 6d3e
00000260: e7e9 913d 0bd2 8b3d 4412 683c 8c4f 2abd
00000270: 55ab ae3e f37b 0d3d c3d0 59bd b519 14be
00000280: c585 1dbe d157 59bd b3d3 863d 84db 1f3c
00000290: f002 0dbc cc0a c73d 5462 d4bd acb2 973d
000002a0: 1a6c 75bd 57d9 d5bd b2cf bc3c 27e6 9f3d
000002b0: 4863 e73c dd96 013e 2e4d 923e cca9 f5be
000002c0: f229 153e e633 febd 0125 efbc 4c26 91bb
000002d0: 3be2 18bd ac1e 313d ded9 7dbd 8b7b 963c
000002e0: 73cb 1c3e baf2 05bc 65cf 45bd 9c05 373d
000002f0: b4b6 a63c caa8 6bbd 5077 74be f331 4f3d
00000300: 3565 82be a151 c93e 0e39 0c3e 0197 fc3b
00000310: 046e 903d c66f f2bd 9ef6 cabc d709 64be
00000320: e786 7d3e 6abb 6bbe 4e04 d43e 3d6a 053e
00000330: 853a 0abe ef40 3bbd 25e1 f7bd e80a c6bd
00000340: 4107 be3e 3773 5ebe 7126 f13e eb67 92bb
00000350: 9803 943e 3b17 b13d 44a2 d23e 917a 0bbe
00000360: 755f 30bd c265 f9bc 21e2 483d c3a0 c83e
00000370: 548a c4be e7ae 893e cec4 863d 59b3 9cbe
00000380: c6a8 9639 c5b0 123e 2c01 2e3e d6c6 923d
00000390: 1b03 ccbe 956e a3be 9b66 38be 1602 263e
000003a0: faf9 833e 183d b33d d7a6 423b 0053 12ba
000003b0: 0c63 223d 1007 73bd a1fd 03be 2582 753d
000003c0: 079d 283c 472d 21bb 97a1 b83d d267 053d
000003d0: f570 6ebd 6e1d 113d deba 4c3d dd7d 603e
000003e0: 2a6f 42bd 76a3 953c 3a49 f6bd 5391 06be
000003f0: 046d 8a3d a388 a8bd 1303 dfbd ead0 d33d
0.098077536 0.079904586 0.05417588 -0.19479036 -0.2982868 0.0058233603 -0.22678429 0.2358879
0.00053055945 0.015390468 0.08621508 0.03545737 -0.27059025 -0.3792051 0.07052214 0.08090951
0.050479252 -0.13488571 0.48598647 0.04216965 0.09665108 -0.096748866 -0.97695464 0.3333464
0.030292444 0.038404778 0.069787644 -0.1910273 -0.13517916 -0.12963738 -0.12520863 0.65631956
-0.044390388 0.039708138 0.24443245 0.05729195 -0.05467359 -0.06774616 0.03464577 0.10431925
0.12304703 0.06868405 0.007830197 0.046091147 -0.029666116 -0.04804134 -0.0184335 0.10058255
-0.31152576 0.5651127 -0.083969586 -0.020079438 -0.08122134 -0.08459971 0.1893599 -0.23832823
-0.022342822 -0.048189696 0.7872438 -0.3015225 -0.13820735 -0.18441753 -0.036802728 -0.0655385
-0.29239392 0.11984264 -0.10143913 0.41072625 -0.10746896 0.20394559 -0.39278778 0.069262005
-0.015761314 0.062440623 -0.05529067 -0.063841544 -0.017954584 -0.062391672 0.21970783 -0.07058267
-0.0048860577 0.31173706 -0.11404482 0.069038235 -0.036246587 0.6300839 -0.080955036 0.012889828
0.01455773 -0.04777098 -0.017892674 -0.07939226 0.07949048 0.024893504 0.07327833 -0.21011719
-0.0924023 -0.12283083 -0.0005935655 -0.15570965 0.09118947 -0.16824196 0.045711864 -0.17500675
0.233556 -0.009341731 0.16217396 -0.016244844 -0.06662448 -0.07476772 0.0034623332 0.119732365
-0.69734657 0.3056865 0.3727726 -0.032840278 0.087893054 -0.023480428 -0.048865702 -0.083179235
0.2516371 0.19256197 -0.11706731 -0.10651776 0.010582046 -0.10088637 -0.12100688 0.0048233145
-0.06691569 0.009932314 -0.17302787 0.11775446 0.0089849215 0.18278308 0.040669322 -0.061256703
-0.13306548 0.0022716732 0.048122324 0.30782846 0.08719769 -0.08746442 -0.09563077 -0.07892326
0.008135122 -0.02120508 0.14379993 0.27661437 -0.7363232 -0.12707032 0.1489329 0.23167916
0.071246915 0.06827172 0.014164511 -0.041579768 0.3411509 0.034542035 -0.053177606 -0.14462931
-0.1538306 -0.053062264 0.06583347 0.009756926 -0.008606657 0.09718856 -0.10370317 0.07407126
-0.059917547 -0.10441845 0.023048256 0.0780757 0.028245583 0.12655206 0.28574508 -0.47981107
0.14566782 -0.124122426 -0.02919245 -0.004429614 -0.037325125 0.04324214 -0.061975352 0.018369457
0.15311985 -0.008175546 -0.04829349 0.044683084 0.020350792 -0.057534017 -0.23873639 0.050584745
-0.2546784 0.3932009 0.1369364 0.0077084308 0.07052234 -0.11837725 -0.0247758 -0.22269379
0.24758492 -0.23020712 0.41409534 0.13028808 -0.13498886 -0.045716222 -0.1210349 -0.09670049
0.3711491 -0.21723638 0.4709964 -0.0044679544 0.28908992 0.08647009 0.41139424 -0.13620974
-0.043059785 -0.03044403 0.04904378 0.3918515 -0.38386786 0.26891252 0.06580506 -0.3060558
0.00028735976 0.14325245 0.16992635 0.07166831 -0.3984612 -0.31920305 -0.18007891 0.16211733
0.25776654 0.08751887 0.0029701495 -0.0005581826 0.03964524 -0.059332907 -0.1288972 0.05993857
0.0102913445 -0.0024593638 0.09015196 0.032569714 -0.058213193 0.035428457 0.049982898 0.21923013
-0.047469296 0.01826642 -0.120256856 -0.13141374 0.06759074 -0.082291864 -0.10889258 0.103425816

body_conv.2.bias f4 [12]
00000000: 2091 34bc 6b97 1dbe e347 71be 605a b1ba
00000010: 07b2 39bb 6e8c 4cb9 d19b 23bd e4c1 073c
00000020: f739 373c 08b5 a7bb 18f8 d4ba 6f23 d5b9
-0.011020929 -0.15389793 -0.23562579 -0.0013530962 -0.0028334872 -0.0001950727 -0.03994352 0.008285973
0.0111832535 -0.005118016 -0.0016248254 -0.00040652926

body_conv.3.weight f4 [12, 12, 3, 3]
00000000: 5df1 66bd 70a0 86be 0d12 f73c 61dc c23c
00000010: 3059 2fbd 5273 943d 3780 183e b37a f13d
00000020: 7d1e 16be 523c d3bd 3559 623e 9cab a1bc
00000030: b6ae c4bd 9ae1 f43d e3ca 04bf f066 c93d
00000040: 936a 0d3d 46d1 853e 9890 0fbe 4e64 593d
00000050: 68aa 403d 0c0b 0d3d 55be babe aa7f a53d
00000060: 249b 4f3d a93e 6d3e fa54 b33c 448e 68bd
00000070: e2e6 f6bd 8552 9bbd bb67 00bd cb59 543e
00000080: b5ca 7d3d abc9 9f3d c1ab 233e 9029 fb3d
00000090: 549d d3bc ef54 e83d 936f 053d d473 a5bd
000000a0: ae78 b7be 455a bb3c adf2 33be 5d6d 50bd
000000b0: ffab 193e 70f6 213c f3d5 0ebe aa37 03be
000000c0: 6864 363d 0284 893d a711 cbbd cf71 8e3d
000000d0: 02c8 2f3d 4bf3 95bc e103 3d3b c9ae 6fbe
000000e0: 28e9 c13c c00e 98be 776f 113f 4306 c4bd
000000f0: 464f e0bd d6dd ac3e acf3 54be cf01 1e3d
00000100: b162 34bd bc7f 283d db08 6abe 921c 84be
00000110: e142 0e3e 1a95 053d 1e3b cb3d 67e3 b3bd
00000120: 9211 d13b 06c6 e6bd a984 a3bb 6165 903d
00000130: 0c79 7d3e b12f 72be e022 303d f0c4 e9bd
00000140: 3ebd 06bd 1e93 0fbe a909 94be 4098 c53a
00000150: cecb 99be a62a 293f cf17 a3be 2813 e8bb
00000160: a73e eebc 55ff 0c3d 8650 d33d 83a2 b0bc
00000170: da79 57bd b8c3 c93c ee7d 5cbe 70c9 d63d
00000180: 3446 fc3c cce6 80bd 13a7 53be 2a25 62bc
00000190: 8ed1 8ebd 6ced 00bd dfb3 cdbe 350c 033f
000001a0: e51d 323d 6c7a 27be fec5 21be 5f31 a63e
000001b0: fe7c b23d 1f21 7b3d f331 303e 9f1b 4abc
000001c0: f21d 51bf 27f6 1f3e a043 663e 67db 443d
000001d0: 7fb8 ad3d cb46 c93b 8646 a1bc 7365 bcbb
000001e0: b63a c2bc 2e2c fc3d 5017 953c d5cd 56bd
000001f0: 44be 5c3d f55f 113b ee9b bf3d 058b 263e
00000200: bee7 a93c 15e5 1c3e 226f b63e 1c99 433e
00000210: 0a1c 0d3c 5a90 1d3e 854a 113d e606 c93d
00000220: b011 b8bb b5a9 8f3d 984b 183e 689c 75bf
00000230: c260 dbbd 44fb 373e 7395 ea3e c190 063e
00000240: bbab 053e aa2d e43d e11a 41bd dd09 b9bd
00000250: 05aa 61be e07c eebc b5e2 ccbd b89f bd3c
00000260: 0ad7 6c3e 4d31 07bc 95c0 a7bc ba5f 6f3e
00000270: 21a6 583c 0d6e 04bf e44f 823e abeb 713d
00000280: a6ad f73d 35f9 01be a835 a03d f690 26bd
00000290: 4350 483c 1910 d7bd 5b18 72be ca60 ca3d
000002a0: f6f7 093c 2036 003d f0f6 183e 9edf b7bb
000002b0: c836 33be d75e 87be 8c58 23bb 4656 7c3f
000002c0: e76d b5be 35a0 a3bd 9a58 28ba 1800 dbbd
000002d0: 4b30 15bb e3de b23c 7ca0 e33c 4890 1bbe
000002e0: 4bee 0e3e a2de 75be 3a75 d83d 2afb 1f3d
000002f0: a0bf 2c3d b078 6b3e 0192 433e ef71 0a3e
00000300: 6b13 123f f27c 66bf 62aa 98bd aacf 4f3d
00000310: b79e 0cbe 14eb 47bd f3ce cb3c daf4 79be
00000320: b1f7 6e3d 9695 cf3c 05ea 6b3e ddf4 803d
00000330: de21 bc3d ec68 58be e1d2 62bd d1aa fabc
00000340: ccd3 7c3d 3170 3a3d 4fb2 0d3e a882 1cbe
00000350: 21fc 093b 8ddf 46bd e3b7 f7bd aebc e03d
00000360: 8f6d 05bd 150c faba 7a98 3b3e 46c1 f4bd
00000370: 1983 3a3e 2c68 843e bedc afb9 9e95 6bbe
00000380: 509c 77bd 4b70 16bb 8c49 053f e032 70be
00000390: 8be5 0bbe 1246 34be 9cc7 c13c 4b88 2cbe
000003a0: 0077 fb3d ee2f 043d 3397 ab3c 4cb2 3a3e
000003b0: 4134 b1bc b98f 14be b281 81bd 903a fc3c
000003c0: 9c7f 30bc 1bd9 adbd 2dd8 683d 56c7 2ebe
000003d0: 9bd1 07be 2aa5 1bbe 417f 87be 1dff 0dbf
000003e0: a4ad 8c3e d824 b83d f0b0 d83c 5828 cdbd
000003f0: a01b ba3d 0ee6 463e ed1d 32bd 21bf 3bbe
-0.056382526 -0.2629428 0.030159974 0.023786725 -0.042809665 0.07248558 0.1489266 0.11790981
-0.14660068 -0.103142396 0.22104342 -0.01973515 -0.09603636 0.119570926 -0.5187208 0.09834087
0.034525465 0.26136225 -0.14020002 0.053074174 0.047037512 0.034434363 -0.36473337 0.080809906
0.050685063 0.23168434 0.021891106 -0.0567763 -0.12055756 -0.07584099 -0.031348925 0.20737378
0.061960895 0.07802137 0.15983488 0.12263787 -0.025831856 0.11344325 0.03257711 -0.08078733
-0.3583426 0.022870192 -0.17573042 -0.050885547 0.15007018 0.009885415 -0.13948803 -0.12814203
0.04452935 0.067146316 -0.09915476 0.06955301 0.04291535 -0.018304488 0.0028841423 -0.23406519
0.023670748 -0.29698753 0.56810707 -0.09571507 -0.1095262 0.33762997 -0.20796078 0.038575944
-0.044039432 0.041137442 -0.2285494 -0.25803047 0.138927 0.032612897 0.09923385 -0.08783608
0.0063802684 -0.11268239 -0.0049901796 0.070505865 0.24753207 -0.23651005 0.04300201 -0.11414516
-0.03289532 -0.14020965 -0.2891362 0.0015075281 -0.30038303 0.660807 -0.31854102 -0.0070823617
-0.02908261 0.03442319 0.10318093 -0.021561867 -0.05260644 0.024629459 -0.21532413 0.1048764
0.030795194 -0.06294021 -0.20669203 -0.013802806 -0.06973563 -0.031476423 -0.40176293 0.511905
0.04348554 -0.16355294 -0.15798184 0.32459542 0.087152466 0.061310884 0.17206554 -0.012335687
-0.8168632 0.15621243 0.22486734 0.0480608 0.084824555 0.0061424724 -0.019686949 -0.0057493984
-0.023709636 0.12313114 0.018199593 -0.05244239 0.05389239 0.002218244 0.09355913 0.16263969
0.020740386 0.15321763 0.35631663 0.19101375 0.008612642 0.15387097 0.035471458 0.09815769
-0.005617343 0.07014791 0.14872587 -0.9594178 -0.107118145 0.17966944 0.45817146 0.13141157
0.13053791 0.11141522 -0.047144774 -0.090350844 -0.22037514 -0.02911228 -0.100041784 0.023147449
0.23128906 -0.0082515 -0.020477572 0.2337636 0.013223202 -0.51730424 0.25451577 0.05906264
0.12093668 -0.12692721 0.07822734 -0.04066559 0.012226167 -0.10501117 -0.23642103 0.09881742
0.008420935 0.031301618 0.14937949 -0.005611374 -0.17501366 -0.26439545 -0.0024924604 0.9856914
-0.3543541 -0.079895414 -0.0006421894 -0.10693377 -0.002276438 0.021834796 0.027786486 -0.15191758
0.13958089 -0.24010709 0.10569234 0.039057888 0.042174935 0.22995257 0.19098665 0.13520025
0.5706088 -0.900344 -0.07454373 0.050735153 -0.1373242 -0.048808172 0.024878955 -0.2440981
0.058341686 0.025339883 0.2303849 0.06296704 0.09186147 -0.21133775 -0.05537689 -0.03059903
0.061725423 0.04551715 0.1383755 -0.15284216 0.0021054822 -0.04855304 -0.120956205 0.10973488
-0.032575186 -0.0019077087 0.18319884 -0.119509265 0.18214072 0.25860727 -0.00033543067 -0.23006293
-0.060451806 -0.0022955115 0.5206535 -0.23456907 -0.13661782 -0.17604855 0.023654751 -0.16848867
0.12278557 0.03227227 0.02094612 0.18232077 -0.021631362 -0.14507951 -0.063235655 0.030789644
-0.010772612 -0.08488675 0.056846786 -0.17068228 -0.13263552 -0.15199724 -0.26464275 -0.55467397
0.27476227 0.089914024 0.026451558 -0.100174606 0.090873 0.19423696 -0.04348557 -0.18334629

body_conv.3.bias f4 [12]
00000000: 8921 adbc 376e 56bd dddf 15bc 85af 9d3b
00000010: 0c13 ab3a 2417 623e 6f17 7fbc 4d84 0f3c
00000020: 6a98 8e3c bf5f 86bc 7980 37bc bff2 48bc
-0.021134155 -0.052351203 -0.009147611 0.0048121833 0.0013051941 0.2207914 -0.015569552 0.00875957
0.017406661 -0.016403077 -0.011200064 -0.012264906

body_conv.4.weight f4 [12, 12, 3, 3]
00000000: 07ba 2fbe 762f 51be 9136 be3d 87c4 6dbe
00000010: 6a99 c23e 5b6f 863c b778 9b3c 6ce0 413e
00000020: a2b3 7c3d cb66 a53d c363 293e d910 c93b
00000030: 6f04 2e3e ac97 fa3d cbf6 63be ec6e 13bd
00000040: aa58 29be 2042 01be 818a f63c 236c ba3d
00000050: caaa edbc f5b9 363e a3cd 9bbe ea82 063c
00000060: b183 c9bb b6a9 67bd b2ca 6c3d 7dde e7bd
00000070: 6477 18bd 8eb1 783c 9015 0ebe cc65 1b3d
00000080: e0eb a03d 1bc0 2c3d 9426 013e 0231 7a3d
00000090: 73b3 28bc 5594 f13d 8bb4 b23c 559e 81bd
000000a0: 7c32 db3d 3811 b8be c491 4a3c c903 023c
000000b0: c929 233e 94d8 bc39 297f d03d c83a 18bc
000000c0: 5a49 1e3d 2dbb 22be 0920 40bd 4094 563d
000000d0: a231 14bd 3da9 583d e9c4 0cbc b56c 8dbd
000000e0: 0d88 223d cb07 3f3e 6a06 043e 52c2 97bd
000000f0: 2ec9 0fbc 3315 80be 209e 8b3d 814b 603d
00000100: 4198 84bc 4cb4 de3d bcf5 143e cde3 73bd
00000110: e027 26be 8cd0 973c 16e8 ecbd 4dc5 163d
00000120: c632 593d d34b 5d3d 38f9 2fbc c427 ffbd
00000130: 960a e5bc 0146 1abd 6114 b5bc 6a1c 3f3e
00000140: 595e d3bd 15dc 5c3c 4325 993c 0d80 03bd
00000150: 4cab 0abc 2f6c eebd 6e4f fd3d 0add f73c
00000160: 7f25 3fbb 576b abbc 1632 d43d 8bda 52bd
00000170: 4eb5 8b3d eb5e 50bd b8e7 1fbf 09fb 083e
00000180: a421 26bd 4109 5e3e eb4a 183e ee41 473d
00000190: fdae a8bd 8098 413d c89b 0f3c 9c17 be3d
000001a0: 4c5d 1bbd b972 97bd 59da 4fbc 0bfa 8d3d
000001b0: 1632 1b3e 4a0f 043e 3661 553d 774f 733e
000001c0: 94f5 f23d 970e 423e 0aa9 aa3d 94f1 e43c
000001d0: 5ed6 2a3d 804a 383d 7073 68bc 56dd 6bbb
000001e0: f3a5 1bbe 8402 243e c668 89ba 819d 94bc
000001f0: 5d2c 803c 2b62 50bd b083 7e3d 9995 7abd
00000200: ef80 1bbd 2b96 903e 68e9 0b3d 03e3 cbbd
00000210: d601 e9bd dee4 08bb b8ba 283c 629d 86bd
00000220: 8e48 513a d5ea 70bd 8c46 783a eb50 94be
00000230: c352 303e dec2 bf3d 59be dd3c 6e3b a9bd
00000240: e539 adbc cf4f 783d 5289 1f3e 5568 453e
00000250: f744 ce3c f787 71bd 8787 b83d dcb6 12bc
00000260: c605 d73d 1f82 af3c 8a91 853c 3d2f 4bbd
00000270: 7f7e 663e d33d 59be 067f 8dbc 11ba c03d
00000280: 2f13 e2bd afe3 613c 2a8b f8bc c409 c83d
00000290: 92a3 a03c e016 4a3d a603 35be 4f71 a8bd
000002a0: eacf 9c3d 3258 373d c57d c4bd 6ad5 edbc
000002b0: ad0f 893c 6b06 2a3e daad 61bd 7712 953e
000002c0: 60d6 c63c be11 2cbc 38b8 0c3e 3898 cb3d
000002d0: 7a32 b53d b7ba a53d 4aa4 4fbd 82bc cabd
000002e0: 18be d83e 3682 46be 707f a3bc 175a 023e
000002f0: 6a1c cabd 5c55 14b9 b282 00bd 470a 76bd
00000300: 4553 503c ee71 47bb f347 913d 8669 ac3c
00000310: c1a0 233c dc2b 1fbc 91ae debc 3d36 9ebd
00000320: d770 413d 284b 8bbe 2007 3abd ea4a 193e
00000330: e105 93bd b8ac 283e edb2 8c3d 9c00 4cbd
00000340: 0d2b 7b3d 4c3f 0e3d 3b15 bebd 8c07 c9be
00000350: 49d3 0c3e 6303 0d3d 8cc0 69be ae80 0d3d
00000360: bacc 133c e9fd 853d 9b5a 66bc 1b49 ea3e
00000370: bcf0 cbbe b890 0b3c d5f1 973a 622e 96bc
00000380: 9916 943c 3835 34bd c71e 8b3d 2f99 81bd
00000390: 5bf2 993d 090b 2cbd 82d7 1a3c 9d2e 99bd
000003a0: 9359 9a39 ecf5 db3c ee8f 9cbd 9dc9 db3d
000003b0: 307a 353c 0d95 4abe 7f4e 363e ad7b b5bc
000003c0: d7e6 e6bc 7acf 4f3c d6a0 d8bd d85c 6f3d
000003d0: 3384 573c b1d0 a03d 25ef 233e 37b9 51bd
000003e0: 5d5d 6a3c 402e 953d 734d 27bd 154d f2b9
000003f0: 9677 fc3b 0f7e 963d c17e 18bd 5cb3 5bbe
-0.17160808 -0.20428261 0.092877515 -0.232195 0.3800767 0.01641052 0.01897846 0.18933266
0.06169475 0.08076247 0.16541962 0.0061360416 0.16993879 0.1223596 -0.22262113 -0.035994455
-0.16537729 -0.12622881 0.03009534 0.09102657 -0.029012103 0.17844374 -0.30430326 0.008209923
-0.006149732 -0.056558333 0.057810493 -0.11321733 -0.037223235 0.015179051 -0.13875413 0.037938878
0.078574896 0.042175394 0.12612373 0.061081894 -0.01029669 0.1179587 0.021814605 -0.063290276
0.107029885 -0.35950637 0.012363855 0.007935473 0.15933909 0.00036019518 0.10180504 -0.009291358
0.038644172 -0.15891714 -0.04690555 0.052387476 -0.036180146 0.052895773 -0.008591869 -0.069055
0.03968053 0.18655317 0.12893072 -0.074101105 -0.008775992 -0.25016174 0.06817269 0.054759506
-0.016185882 0.10874233 0.14546865 -0.05954342 -0.16226149 0.01853206 -0.115677044 0.036809254
0.053026937 0.05402739 -0.010740571 -0.124587566 -0.02795915 -0.037664417 -0.022104444 0.18663183
-0.1032073 0.013480206 0.018694526 -0.03210454 -0.008463692 -0.11641728 0.12368666 0.030256767
-0.0029166637 -0.020925207 0.10361116 -0.05147795 0.068216905 -0.05087177 -0.6246295 0.13377012
-0.040559426 0.21683218 0.14872329 0.04864686 -0.08236501 0.047264576 0.0087651685 0.09281847
-0.03793077 -0.073949285 -0.0126863355 0.069324575 0.15155825 0.12896457 0.05209466 0.23760782
0.118632466 0.18950878 0.08333023 0.027947225 0.041708343 0.044992924 -0.014187679 -0.003599008
-0.15200023 0.16016585 -0.0010483495 -0.01814151 0.015646154 -0.05087487 0.062137306 -0.061177824
-0.037964758 0.2823957 0.03415814 -0.099554084 -0.11377303 -0.0020888369 0.0102984235 -0.06572987
0.0007983529 -0.058817703 0.00094709615 -0.28967986 0.17219071 0.0936334 0.027068304 -0.082632884
-0.02114577 0.060622986 0.15579727 0.19278081 0.02517937 -0.058967557 0.09010225 -0.00895473
0.10499148 0.021424351 0.01630475 -0.049605597 0.22509192 -0.2121499 -0.017272484 0.09410489
-0.11038815 0.013787194 -0.030339796 0.09767488 0.019609246 0.04933822 -0.17677173 -0.08224737
0.07656844 0.044761844 -0.09594301 -0.029032428 0.016731108 0.16604011 -0.05509744 0.2911565
0.024272144 -0.010502277 0.13742149 0.09941143 0.08847518 0.08092254 -0.050693788 -0.09899236
0.4233253 -0.19385609 -0.019958228 0.12729679 -0.09868701 -0.00014146179 -0.03137464 -0.060068395
0.0127151655 -0.0030432898 0.07093801 0.021046411 0.009987057 -0.009715047 -0.02718285 -0.07725189
0.047226753 -0.27205777 -0.04541695 0.14969984 -0.07178856 0.16472137 0.06870065 -0.04980527
0.061320353 0.034728333 -0.09281393 -0.3926357 0.13752474 0.034427058 -0.22827357 0.034546547
0.009020979 0.0654257 -0.014059688 0.457589 -0.39832103 0.00851839 0.0011592457 -0.018332664
0.018077182 -0.043996066 0.0679298 -0.063280456 0.07516929 -0.04200271 0.009450795 -0.07479594
0.00029439907 0.026850663 -0.0764464 0.10731814 0.011076495 -0.19783421 0.17803381 -0.0221537
-0.028186245 0.012683744 -0.10577552 0.058438152 0.013154077 0.07852305 0.16009195 -0.051202025
0.014304486 0.07284212 -0.040845346 -0.00046215268 0.0077046854 0.073482625 -0.037230257 -0.21455139

body_conv.4.bias f4 [12]
00000000: 01cc 9cbd d211 90bd 2052 e9bd 72ed 77be
00000010: d462 3fbe 8190 90bd d95a 5dbe 4d2f c9bd
00000020: bad2 ddbc 7c77 99bd 2c29 13bc 8647 3b3d
-0.07656098 -0.07034649 -0.11392617 -0.24211672 -0.18690044 -0.07058812 -0.21616687 -0.09823475
-0.027078021 -0.07493493 -0.008981984 0.045722507

body_conv.6.0.weight f4 [56, 12, 1, 1]
00000000: 3532 51bc 850e a2ba 4d4a ecbc d504 5c3b
00000010: 145e 0ebc a411 853c 331b 1a3c 9f9d 1cbc
00000020: eb37 e23d ae32 0abf 60ab babc efad 0d3b
00000030: 71f3 2f3d 0c7c bbbe 9f39 9e3d 1ef8 273c
00000040: 89aa 77be 9def 73be 86bd 293c e83a 083e
00000050: dfc1 8ebc 47c1 0ebd 8030 3dbd 58d3 31bc
00000060: fd92 e53b 245b 91bc 398e 9ebe 5b96 9fb9
00000070: 52ef 4f3c 9eb8 89bc d1da 9a3a e3ee 3dbc
00000080: 9130 203c 00e3 fc3a d15f 6cba 0ac0 c339
00000090: ed79 8c3c 7e7e a1bc 533d ba3c 1299 d9ba
000000a0: 3227 b63b 029b 09bc a7ee 503b 360f 0c3d
000000b0: c5b9 f23c 4f47 9ebc 2021 e5bb b442 823a
000000c0: 5ac8 d3bb 668d a9bb 1ec7 cb3d 161c c03b
000000d0: 1736 2bbe 18e5 3fbd c24c 86bc 6279 793c
000000e0: 9e6c 1abf f536 1e3c 3a76 5dbe 5230 0abc
000000f0: 9d20 cb3c f88b cfbc 1984 eeba cf28 78b9
00000100: 1ce6 7cbd 26ca 343d 0af8 fc39 4012 6e3b
00000110: f489 de3d ad44 25be 52ae 0fbc dad6 fcba
00000120: c354 06be 24ad 943d ad39 433d 9931 523b
00000130: db3a 84be 2396 a9bc 79b6 3ebb e6e0 d5be
00000140: 6b4c de3c 2ea4 bdbd 233b a33d 8584 40bc
00000150: 84e3 953c cc85 dcba 9c96 4a3d 69cd 19bc
00000160: 32a1 b6bb 89be bcbd 71f0 a5ba a465 c9be
00000170: cffb cb3c 10a5 debc c8a3 6d3d 431b 7fbb
00000180: 43e9 babe 0938 8a3c c921 61bc fd15 f9ba
00000190: bd57 3bbe 7875 213a 9246 3fbb 45a5 62bd
000001a0: 0632 17bd cf7a 42bc 3e5e 30bc 1300 cdb9
000001b0: ea85 91ba 8af7 e1ba 4251 feba 4c9c 12bb
000001c0: 7b47 bbbb 9811 25bb 25bb 0d3a e0d6 f0ba
000001d0: 3ca2 3bbb 0ace 77ba 3203 4fbb be45 573e
000001e0: 56f4 82be 5cc9 ce3d 278c 51bd 3249 963a
000001f0: f800 d1be 0e6f ea3c f2a9 a7bb ad62 46be
00000200: 9b96 05bc e8ed a3bd 7d80 07bc 9c5a 64bc
00000210: abaf b0bd 26be cc3d 74e6 d7bd f9d3 f93b
00000220: 4e4f c9be b585 d43d 092e 5abc b241 61be
00000230: ba15 283d d79f 17be 0f96 aabd 4411 77bc
00000240: 5168 853b 659d 953b 9f0f 98ba 02c5 3abe
00000250: 24d0 bcbb c239 b4bb 98e6 b3bd 66cb 87bb
00000260: 2eef 32bc f577 bb3b 0d48 94bb bb13 c2bb
00000270: dea7 ce3d de3b 783c 8849 a93d 5215 57bb
00000280: 3a0b 9ebe bed4 94bd 1a1b a03b 6950 8739
00000290: 86e6 0b3b b9a9 d7bc 029a 913d bb5e 8cbc
000002a0: f046 f7bb 0eb6 47be 92ed 0fbf 3354 8b3a
000002b0: 283b 24bd 6032 2ebc 9f74 613b ae63 afbd
000002c0: 0862 8a3c 0df3 dabc 07a6 90bc b5d8 41ba
000002d0: f814 a0bd 5117 c6bd c576 4dbc b44b 9d3b
000002e0: c49e 7cbe ffdd 79bd 6517 7a3b af2b 9ebd
000002f0: 061e fcbe b936 073d 1969 c73c d24d 46bc
00000300: 16c7 75bc 8e95 dcba c3e9 343c c6cf 76ba
00000310: cd9e 803c ea83 d8bc 797c 44ba c174 81b9
00000320: 9763 b9be d9be 0c3d 5dba 623b cc50 aaba
00000330: c5e8 85bd 612d 743e 509c 8cbd 5de2 9a38
00000340: 3757 51bd 9b84 823d 3524 133b 957b 77bd
00000350: 03e9 9d3c 14f5 4cbc ea23 4dbc f22d eebb
00000360: ae86 34be 6542 d4bd c3e1 1abd ea16 0ebb
00000370: 6641 d5be 00e5 a2bd 7d09 dabb ac52 efbd
00000380: 392f 80be 7383 7b3d da0f a1bd fcc0 2fbc
00000390: ca0b cd3c 8a00 a0bb c06d 813c 4860 c43a
000003a0: 4258 36bb a70d 1abd ba06 893b eaf1 b0bb
000003b0: ea8d 323d eb79 9fbe e6bc 823d cd93 66bd
000003c0: a217 f8bc 4373 d4bd 0f8c ad3d 451c 7f3b
000003d0: 32c7 9ebe f2db 28be d875 3dbc 7615 1e3d
000003e0: ae51 53be 2ada e33c c757 4dbe 78bb d8bb
000003f0: 0657 88bd f759 84bc a666 c3be 0af0 493c
-0.012768318 -0.0012363946 -0.028844023 0.0033572216 -0.008689422 0.016243763 0.009405899 -0.009559064
0.11045822 -0.5398358 -0.022786796 0.0021618565 0.042956773 -0.36618078 0.07725834 0.010252027
-0.24186148 -0.23821874 0.010360127 0.13303721 -0.01742643 -0.034852292 -0.04618883 -0.010853611
0.0070060478 -0.017743655 -0.30967882 -0.00030438867 0.012691336 -0.016811665 0.001181448 -0.0115926
0.009777204 0.0019293725 -0.00090169633 0.0003733638 0.017147982 -0.019713636 0.02273432 -0.0016601405
0.0055588717 -0.008398773 0.003188053 0.034194194 0.029629597 -0.019321112 -0.006992474 0.0009938092
-0.0064630928 -0.0051743267 0.09950088 0.005862723 -0.16719852 -0.04684934 -0.016394023 0.015226694
-0.60321987 0.009656657 -0.21627131 -0.008434372 0.024795825 -0.025335297 -0.0018197327 -0.00023666325
-0.061742887 0.044138096 0.0004824999 0.0036326796 0.10866156 -0.16139479 -0.008769589 -0.0019290105
-0.13118272 0.072595865 0.047662426 0.003207302 -0.25826153 -0.020701474 -0.0029100461 -0.41773146
0.027136048 -0.092598304 0.07970264 -0.011750345 0.018296964 -0.0016824543 0.04946004 -0.0093873525
-0.005573415 -0.09216029 -0.0012660158 -0.39335358 0.024900345 -0.027178317 0.058017522 -0.0038926161
-0.3650609 0.016872423 -0.013740965 -0.0019003745 -0.18295188 0.0006159167 -0.002918635 -0.055333395
-0.03691294 -0.0118701 -0.010764657 -0.00039100702 -0.0011102532 -0.001723991 -0.0019402879 -0.0022370992
-0.0057153082 -0.0025187489 0.000540661 -0.0018374585 -0.0028630635 -0.00094530045 -0.0031587598 0.21022698
-0.2557704 0.10097 -0.05115905 0.0011465906 -0.40821052 0.028617408 -0.0051166946 -0.1937358
-0.008153583 -0.080043614 -0.00827038 -0.013937619 -0.08627256 0.099972054 -0.10542002 0.007624146
-0.39318317 0.10377065 -0.01331664 -0.21997717 0.041036345 -0.14807068 -0.08329403 -0.0150798
0.0040712734 0.004565882 -0.0011601335 -0.18239215 -0.005762117 -0.0055000493 -0.08784217 -0.00414412
-0.010921283 0.005721087 -0.0045251907 -0.005922762 0.10090612 0.015150992 0.08265978 -0.0032819104
-0.3086794 -0.0726714 0.0048860433 0.00025809117 0.002134712 -0.026326047 0.07109453 -0.017135015
-0.007546298 -0.19503042 -0.5622188 0.0010629952 -0.04009548 -0.0106321275 0.0034401787 -0.08563934
0.016892448 -0.026727224 -0.017657293 -0.00073946576 -0.078164995 -0.09672416 -0.012540524 0.0048002843
-0.2466994 -0.061002728 0.0038160917 -0.07723176 -0.49241656 0.033011172 0.024342107 -0.012103515
-0.015001079 -0.0016829239 0.011042061 -0.0009415116 0.015700722 -0.026430089 -0.00074953545 -0.00024691786
-0.36208794 0.034361694 0.0034595944 -0.001299405 -0.06538538 0.23845436 -0.06865752 7.385456e-05
-0.051108565 0.06372949 0.0022452 -0.06042059 0.019276148 -0.012509603 -0.01252077 -0.0072686607
-0.17629501 -0.10364226 -0.03781296 -0.0021681138 -0.41651458 -0.079538345 -0.006653963 -0.1168569
-0.25036028 0.061404657 -0.078643516 -0.010727163 0.025030036 -0.0048828768 0.015799403 0.0014982307
-0.0027823602 -0.037610676 0.00418171 -0.005399932 0.04359237 -0.31147704 0.06383686 -0.056293298
-0.030284707 -0.10373547 0.0847398 0.0038926762 -0.3101135 -0.16490152 -0.011563741 0.038594685
-0.20636627 0.02781399 -0.20053016 -0.006614145 -0.066572234 -0.01615618 -0.38164252 0.012325296

body_conv.6.0.bias f4 [56]
00000000: 1129 9cbd 109e f7bd 5988 00ba d88d 353c
00000010: 5ae5 bfbd d139 8ebc b59a 04be b6ac 69bd
00000020: f0cb 07bd 3f4c 06bb d5f1 1ebe 5c0b 35be
00000030: 38ee 273e 113e b3bd 8aac a3bd 209b fbbd
00000040: a8e2 e3bb ee88 66bd 3fcf 21be b410 74bd
00000050: 41d2 f8bd f599 11be a4d8 f3bd a228 0fbd
00000060: 494f b8bc 0da9 86bd 5a6b 8abd e6e0 b9bd
00000070: 3a43 6fbc f254 03be 9a51 e7ba cc4b 9cbc
00000080: c732 52bd 079e 26be 088b 96bd f834 e2bb
00000090: 6f04 25bd 601a f3bd f182 9fba db53 5939
000000a0: 4da8 eabd c8a3 733e e907 08be 818b 94bc
000000b0: 7fd4 e5bd a3b8 32be 9b65 a53a cd82 a0bd
000000c0: 4226 3b3c f89a 71bd 3bdf 37be c60c 73bd
000000d0: 7c89 01be ed6d 5138 1a48 303b 5075 b0bd
-0.0762502 -0.12090695 -0.000490313 0.0110811815 -0.09369917 -0.017361553 -0.12949641 -0.057049476
-0.033153474 -0.0020492224 -0.15521939 -0.17680115 0.16399467 -0.087520726 -0.079918936 -0.12285447
-0.0069545098 -0.05628293 -0.15801714 -0.05958624 -0.12149478 -0.14218886 -0.11906555 -0.03495086
-0.022498744 -0.06575213 -0.06758757 -0.09076099 -0.01460343 -0.12825373 -0.001764822 -0.019079112
-0.051317956 -0.1627122 -0.07350737 -0.006903287 -0.04028743 -0.11870265 -0.0012169761 0.00020725971
-0.11457882 0.23792946 -0.13284267 -0.018132927 -0.11222171 -0.17453246 0.0012618782 -0.07837448
0.011422696 -0.05898568 -0.1795625 -0.059338354 -0.12650102 4.993186e-05 0.0026898445 -0.086161256
