save/fsrcnn-x4/iter_2000000.pth (torch, 317647 bytes, 48 tensors)

head_conv.0.weight f4 [56, 3, 5, 5]
00000000: f905 d13d ffe8 073d b69b f5bd d83b 193b
00000010: f95b 283e 2375 0e3d eb08 58be 26d2 f33e
00000020: 71bb 70be 3d43 85bd b6f1 933c 6b30 153e
00000030: b6c1 08bf ea89 cc3e 012c bd3d d42c ea3d
00000040: 8dfe a8be 262b a93e f457 0bbf 8ce9 023d
00000050: cf74 a13d d6b7 df3a e05f 713d 7b0f d03d
00000060: 16b2 743b cd32 c4bd e3f7 aa3d 1481 66be
00000070: 240b 0b3e 1869 4ebc 0f15 173e e334 4abe
00000080: 5d6a 513e c3e4 58be 6cdf a0bb 9f19 52be
00000090: 3802 d13d 46ca dabe 25b3 0f3f a396 1cbe
000000a0: ef84 cf3d 060d c2bd 2b1f f13e 98bb cebe
000000b0: 23cd d23d bd71 b5bd 13e3 2e3d 6add 0abe
000000c0: 78ee 2d3e c981 cbbd dc77 eabd 7439 8a3c
000000d0: 7545 40bf c414 613d a563 443d 806e fd3d
000000e0: 8bcc 463e d4ad 983f 2e6b 5c3e bb79 c8bd
000000f0: d663 3abf 7a10 933f 52ac f3c0 f910 0840
00000100: ca91 42bf 9751 8f3d e4d0 d73e e79a eb3f
00000110: 2387 34be 5c7c 96bd cea8 37bd 795b 2fbe
00000120: 56d4 33bf 4044 9c3d 094d 963b b82a 883b
00000130: 2e0d 4fbe 60f2 a73e 37e1 c0bd fbea 883d
00000140: 3efc a93e 9a01 3fbe 28db 343f 439b 19bf
00000150: 9749 73be b895 f8be 8c9b 62bd c183 32bf
00000160: f67d 5a3e 2935 203f 12c9 413e 2a7b c53e
00000170: 9eeb f63d 03af 053e 9c57 f9be 861c fcbb
00000180: 9c30 823d 749f 0cbf b5d9 c43e dd0c 953d
00000190: 6c6a bfbd b878 31be 50c6 d83e fc80 19be
000001a0: 8eb9 cdbd e31d 973e 9cdd d6be a860 533f
000001b0: 6ba0 3fbf c749 4a3d aa0a 5bbd e2d4 ac3d
000001c0: 794b a6be db82 0dbc 1b39 773f ca33 323d
000001d0: 6a17 6b3e 2a9a 3fbe 16d5 8f3d 7797 50bf
000001e0: 8ddf 71be e656 653e 3db9 d9be 9133 0f3f
000001f0: 4747 a0bd effb c83c f8a9 14be ba78 7c3e
00000200: e19a e3bd ffb5 433d 4336 013e 1b7d 7cbe
00000210: 7e28 373f d153 fdbe 9639 15be 7d8b a9be
00000220: dba8 7b3d a694 f3be 888c 4fbe 920d 4f3f
00000230: 8a15 783e 49d8 8b3e 20c8 493c c48d b83e
00000240: 44c7 3bbf 521b fabc 8a86 733d ec5b 1cbf
00000250: 3632 183f 8f23 00bd e0ae cd3c 9118 ba3d
00000260: 8daf d43d f295 71bd 2ca5 263d c63b 3cbd
00000270: 7ca7 593c 3e0b 0ebf c0a7 993d cc4c 3b3c
00000280: 3ec7 813d fc5e 2d3c 6ba3 5b3f 8068 433e
00000290: d427 7d3c 79ca 23bd 33e9 a83c 3764 09bf
000002a0: d13f acbe 2e11 acbc 4e30 b0bc 89a2 473c
000002b0: 01bd 8abc 94ef 4b3d 4459 273d 8b29 d0ba
000002c0: 395f dbbd e5e6 b63d 2903 c53b 1e1e 033d
000002d0: b773 37bd 5145 ecbd 455d a7be 8c93 453e
000002e0: 3e6c 01be 8db2 e33d 7459 49bd c504 753f
000002f0: c25b d43e ae60 5dbd 82fa 493d a66e 1d3d
00000300: 6ace bebe 7262 11bf 5a1c a3bd d59a e6bc
00000310: c2b4 43be 5b88 c5bd 1952 6bbd 2017 d33c
00000320: 955e d9bd b586 4f3d f582 933d 1cdf b7bc
00000330: c896 8f3d f647 fabb ca8a c43e 6989 acbe
00000340: 6c84 cb3a a293 893d 7ca3 c1bb 6cd3 94bd
00000350: 14d3 ca3e e95a 0b3e d705 3bbe 6ba7 5f3d
00000360: 1814 f03c 21d0 bebe c10e 8bbe ad8a 913d
00000370: 0c88 3cbe 731d cc3d 3bf8 4a3c 8b73 503e
00000380: d85a 21bd ad13 2c3d 6c0f 073e a494 053e
00000390: 2bd2 043e 363e b9bb a039 053e c19f 143e
000003a0: 7cc3 b73e 2e04 333e 416a 943d cf80 cd3d
000003b0: 1fb2 9f3e bdeb 3a3f 83e2 ab3e a005 0e3e
000003c0: cd08 e23d 7789 e13d 9e9c 523e 7d6e 5e3e
000003d0: ecf9 aa3d e4ad d63c fa84 8f3d d0fb 033e
000003e0: 75e0 c43d 26cd 503c 7385 053c f6e1 1cbe
000003f0: 2a4b 72be bffb 00be a678 3fbd 7a6e 32be
0.10206217 0.033181187 -0.1199259 0.0023381617 0.16441335 0.03477968 -0.21097152 0.47621268
-0.23509003 -0.06506965 0.018059593 0.14569251 -0.5342058 0.3994897 0.09236909 0.114343315
-0.33006707 0.33040732 -0.5443108 0.03196101 0.078836076 0.0017068337 0.058929324 0.10159203
0.0037337593 -0.09580002 0.08348062 -0.22510177 0.13578469 -0.0125982985 0.14754127 -0.19746737
0.2045073 -0.21181016 -0.0049094465 -0.20517586 0.10205501 -0.42732447 0.5613273 -0.15291838
0.10132777 -0.0947514 0.47094092 -0.40377498 0.10293033 -0.088595845 0.042697024 -0.13561025
0.169855 -0.09936864 -0.114486426 0.016873099 -0.75105983 0.054951444 0.04794659 0.12374592
0.19413964 1.1928048 0.21525261 -0.09788843 -0.7280859 1.1489403 -7.614785 2.126036
-0.76003706 0.06997984 0.42151558 1.8406647 -0.17629676 -0.073479384 -0.04483872 -0.17124738
-0.70245874 0.07630205 0.00458682 0.004155483 -0.20219871 0.32802105 -0.09417956 0.06685444
0.33200258 -0.18652955 0.70646906 -0.60002536 -0.23758541 -0.48551726 -0.055324122 -0.6973229
0.21337113 0.62581116 0.18924358 0.3857053 0.12056659 0.13055043 -0.48699653 -0.00769383
0.06356928 -0.54930806 0.38447347 0.07277844 -0.0934647 -0.17331207 0.423388 -0.1499061
-0.100451574 0.2951499 -0.4196595 0.8256936 -0.74854153 0.049386766 -0.053476967 0.08439042
-0.32479456 -0.008637155 0.9657151 0.04350642 0.2295815 -0.18711153 0.07023065 -0.81481117
-0.23620434 0.2239643 -0.42524138 0.5593806 -0.07826095 0.024534194 -0.14517963 0.24655429
-0.11113525 0.047780987 0.12618355 -0.24657099 0.7154616 -0.4947801 -0.14572749 -0.33114234
0.06144033 -0.47574347 -0.20268452 0.8088008 0.24226967 0.2731345 0.01231578 0.3604566
-0.7335093 -0.030530605 0.05945448 -0.6107776 0.59451616 -0.03128391 0.025107801 0.09086717
0.10385046 -0.05898089 0.040684864 -0.045955442 0.01328456 -0.55485904 0.07502699 0.011431884
0.063368306 0.010581728 0.8579623 0.19082832 0.01545139 -0.039988015 0.02061901 -0.5366854
-0.33642438 -0.021004286 -0.021507408 0.0121847475 -0.016935827 0.049789026 0.040856615 -0.0015881521
-0.10711522 0.089307584 0.0060123396 0.032011144 -0.04478809 -0.115366586 -0.32688347 0.19294566
-0.12638947 0.1111804 -0.049157575 0.957104 0.41476256 -0.05404728 0.04931117 0.0384356
-0.37266856 -0.5679084 -0.07964392 -0.028150002 -0.19111922 -0.09645148 -0.05745134 0.025767863
-0.10613743 0.050665576 0.072027124 -0.022445254 0.07011181 -0.007637973 0.38387138 -0.33698586
0.0015527136 0.06717612 -0.0059093814 -0.07266888 0.39614165 0.13608898 -0.18263946 0.05460302
0.029306456 -0.37268165 -0.27159694 0.071065284 -0.18411273 0.099665545 0.012388284 0.20356576
-0.039393276 0.04201095 0.13189477 0.13044983 0.12970798 -0.005653168 0.13010263 0.14514066
0.3589133 0.17482063 0.07246829 0.10034334 0.31190583 0.7301596 0.33571252 0.13869333
0.11036835 0.110125475 0.20567557 0.21721835 0.0834845 0.026205964 0.07007785 0.12889028
0.09613124 0.012744224 0.008149493 -0.15320572 -0.23661485 -0.12596034 -0.04674592 -0.17424956

head_conv.0.bias f4 [56]
00000000: aa7b f03d 3bd1 1e3b ddb5 dcbd 6174 bdbe
00000010: 6150 97bd e052 4b3c 44ec 57be 4602 4c3f
00000020: 0ff4 12b9 63fc 2739 18f2 663e daa0 17be
00000030: 2c34 bb3b c663 14be f325 f4bf 2080 62be
00000040: 06e6 24be c7e2 e53e eb09 c23e cbc0 3cbf
00000050: 0ae2 12bd b166 d43c 7b2d 93bc ee33 063e
00000060: ae0c 8d3c 7b73 fe3d f96d 2b3e 7ce2 c2bc
00000070: 95ad d0bd 5a2d dfbd dc6e 95ba d9c6 4dbe
00000080: 6a3e 0cbc 1e70 bf3b d304 083d 498a 83bf
00000090: d189 933e 5f36 0e3e feef fbbd 718a 7fbc
000000a0: 11d2 77be 9886 ed3a 62e4 023d 346d 7abe
000000b0: ed6b 85b9 e44d 10bd 7a66 8abd af8d 7fbd
000000c0: db50 59bd a9a1 abbd 94d2 0bbc 1cf5 673e
000000d0: 2c83 183e 424c 01be ef99 543d 05d7 cd3c
0.11742337 0.0024233598 -0.10776875 -0.37002853 -0.07388378 0.012409896 -0.21086222 0.7969097
-0.00014014564 0.00016020382 0.22553289 -0.14807454 0.0057130065 -0.14491186 -1.9074081 -0.22119188
-0.16103372 0.4489958 0.37898192 -0.7373168 -0.0358601 0.025927873 -0.017966023 0.13105747
0.01721796 0.1242437 0.1674117 -0.023789637 -0.10189358 -0.10897322 -0.0011400837 -0.20095386
-0.008559803 0.005842223 0.033207726 -1.0276576 0.28816083 0.13887928 -0.12301634 -0.015596972
-0.24201228 0.0018121777 0.031956084 -0.2445572 -0.00025448148 -0.035230532 -0.06757827 -0.06239098
-0.053055625 -0.083804436 -0.008534092 0.22652096 0.14893788 -0.12626746 0.051904615 0.025126943

body_conv.0.0.weight f4 [12, 56, 1, 1]
00000000: 66f7 ff3a 7dc6 b1b9 4c6e 3f3c 01cf c03e
00000010: 8d80 393c 5855 da3a c74e 9d3a 675e 0d3c
00000020: d793 2d3b c1d9 c63b ce7b b33a a105 8a3b
00000030: 9df1 20bb 8a51 9c3c 5906 68ba 385d b9bc
00000040: b010 a6bb 1794 1dbb fd6e bcbe 3c2c 27bc
00000050: 1975 98ba feec c43a 913e 46ba 515b 503d
00000060: e999 30bc 7e8b 113e 37ef 8db9 23eb a2bc
00000070: e7ef b93c 18d7 b13c 1d67 cbba 0e92 08bd
00000080: bbc0 daba b90f 643b 636e d0ba ec12 743b
00000090: 7609 62bb 3d23 a7bc 9449 ad3a 8a72 843b
000000a0: 00f2 30bf e883 4dbb 2a3c b0bb b628 d3bc
000000b0: 6e81 093c c72b 7939 9232 b63b a6c5 0dbb
000000c0: 40b6 cd3c e6bc 513c 62b5 a9bc 36a3 f23c
000000d0: b393 2838 8eea f3bd d1a3 aabb 2e5e 79bb
000000e0: 6bbc 6bbc 2252 7f3a 5ff3 55bd 8913 6a3b
000000f0: 8655 44bd 4102 d1bc 72c7 2f3c f0f6 12bc
00000100: 01c4 e4bc e607 8cb9 2423 9fbc 57c6 aa3c
00000110: 37a7 cdbc d78a a1bd 06f4 4dbb 740a b43d
00000120: d87e 863b 0a8c 74bb 58c3 083a 76ff fb3b
00000130: 7048 313b 4491 b43b b2e0 243c 3932 313c
00000140: 623f aa3c 25b0 023f c497 ed3a c664 9c3d
00000150: 1d1d bfbd 8f20 aabd 9ea6 a8ba 4f89 e9bb
00000160: 5608 473d 3d65 f4bb 14b5 ab3b 0119 e1bc
00000170: 6962 9e3a b896 aa3d 3c86 86bc bd0c c3bc
00000180: b29c e7bb 47ed 323c 47e6 df3c 4a4a 913c
00000190: 656b 1b3e fd0b 0f3d 9ca6 61bc 96c2 3a3c
000001a0: abc7 cebd 4f4c 9bbd d544 9f3d 0476 9abc
000001b0: 5425 dcba 9a22 6bbf f1e3 af3c 8c9f efba
000001c0: 9ab8 8e3d 9c88 313c 62c1 1f3d 5716 92bd
000001d0: f1d7 b8bc 9ff9 533d b3b9 7f3d 5e73 62bd
000001e0: 938a 9d3d 7e31 aa3e 973a 3e3e 69d6 03be
000001f0: e315 be3e dcd9 893c 5b68 3d3e 4b91 65bc
00000200: 6bfe 2dbd 1149 6c3e 2e32 0f3d b7db f43c
00000210: 1a29 fa3d 769d 4abe 82e4 423d f857 a0bc
00000220: 1cab 423c 62b9 63be e0b4 933e e1fb 083d
00000230: 3aae 07bd edc8 a5b9 68b0 0ebd 673e 493c
00000240: ce66 4bbe 949a 81bd 985d 36bc 8daa 723d
00000250: 0ee9 b9bd 6178 5a3d e5c3 003d 5410 b5bd
00000260: 65f5 7dbd cb63 313d e1f7 86be 481c 83be
00000270: 0e25 28bf 5065 6abe 454c a2bc a080 c9bd
00000280: fe6a 5dbc 6e99 e2bc 7073 813c d1db 9c3e
00000290: 0ae0 943e 8cd7 ec3d cf14 e93c 199c bc3b
000002a0: 670d cabb 10a3 a0bb d115 bcbb 6eef b439
000002b0: 6bea babb 4f24 cebb da67 0d3d b6d5 ecba
000002c0: 31d5 c1bd d3e0 a3bb a30d c6bb 8ff2 733d
000002d0: 6120 ca3c 17a4 92bc 2070 e3ba 9857 0b3c
000002e0: 1a4c d5bb e616 07bc a355 90b9 343c 41bb
000002f0: a6bc 20bb 04b9 eb3b ab90 2e3c 130c f03b
00000300: 2c02 4cbc f2b8 febc 53b3 a43b da0c 1bbc
00000310: ac27 73bc 78ba 86bc 4ccf 25bc 309c a2bb
00000320: 5122 133d 9ef7 a13a 56c5 f43b 2087 223b
00000330: a174 18b8 2001 5dba e848 e4bb ce4f 19bc
00000340: 3d17 efba 50af 34bb 2ffa 343b 3f5a 65bf
00000350: eec4 653e b701 0e3d 5ff9 003c f77a beba
00000360: d0c1 41bc f4b5 60bd aea4 a13b b265 ea3e
00000370: 86f5 afbc 8523 c93c d3b5 73bc b77d e4bc
00000380: 4212 9c3b 8151 77bb 5bac e0bb 59f0 f83c
00000390: dc32 23bc dbcd c63b 8245 eb3c 5571 05be
000003a0: 0c74 9cbc a14d 103c cd11 193b 16fe 223d
000003b0: 2a7c f439 e61f a2bc d67a c13a 2b83 213c
000003c0: d9da 38bb a2fc b2bb 7bb4 f9bc 3715 113e
000003d0: 3783 cf3b ce8b 0d3c 9650 f83b 3fe9 adbe
000003e0: 99ae 13bc 6b97 0cbd 790e f0bb 734e 433b
000003f0: 2350 99bc 8ebc 96bc a337 30bb edc4 4a3e
0.0019528687 -0.00033907956 0.011684012 0.3765793 0.011322153 0.0016657514 0.0012001627 0.008628464
0.0026485824 0.0060684388 0.0013693513 0.004212097 -0.0024558075 0.01908185 -0.00088510435 -0.022627458
-0.0050679073 -0.0024044567 -0.36803427 -0.010203417 -0.0011631578 0.0015024242 -0.00075624237 0.050868336
-0.010778883 0.14213368 -0.00027071845 -0.019887513 0.022697402 0.02170901 -0.0015518401 -0.033342414
-0.0016689518 0.003479941 -0.0015902038 0.0037242724 -0.0034490502 -0.020402545 0.001322078 0.0040419744
-0.6911926 -0.003135914 -0.005378266 -0.025776248 0.008392675 0.00023762799 0.0055602277 -0.00216327
0.025111318 0.012801385 -0.020716373 0.02961884 4.0191877e-05 -0.11909972 -0.0052075167 -0.003805052
-0.014388184 0.0009739717 -0.05223405 0.003571721 -0.047933124 -0.02551377 0.010728704 -0.008970007
-0.027925493 -0.00026708766 -0.019425936 0.020846529 -0.025104148 -0.0788781 -0.0031425967 0.08791056
0.0041044764 -0.0037314915 0.0005217097 0.0076903654 0.0027051233 0.005510481 0.010063337 0.010815197
0.020782176 0.51050025 0.0018126895 0.076364085 -0.09331725 -0.08306991 -0.0012867039 -0.007126964
0.048591934 -0.0074583576 0.005240092 -0.027477743 0.0012083772 0.083295286 -0.01642143 -0.023809785
-0.00706824 0.010920829 0.027331484 0.01773562 0.15177687 0.034923542 -0.013772633 0.011398932
-0.100966774 -0.07582914 0.077768005 -0.018855102 -0.0016795793 -0.9184967 0.021470996 -0.0018281802
0.06968804 0.010835793 0.039002784 -0.07133167 -0.022563906 0.05175173 0.062432956 -0.055285804
0.076924466 0.33240885 0.18577038 -0.1287476 0.37126073 0.016827516 0.1849684 -0.014011691
-0.04247896 0.23074748 0.034959964 0.029889924 0.12214871 -0.19786629 0.047581203 -0.019573197
0.011881616 -0.22238687 0.28848934 0.033443335 -0.03312514 -0.00031620954 -0.034836203 0.012282944
-0.19863436 -0.063283116 -0.011130713 0.05924468 -0.09077655 0.05333746 0.03143682 -0.08841005
-0.062001605 0.04330806 -0.26360992 -0.25607514 -0.6568154 -0.2289021 -0.019811759 -0.098389864
-0.013514278 -0.027661052 0.015802115 0.30636457 0.29077178 0.1156455 0.028452305 0.005755913
-0.0061661485 -0.004902251 -0.0057399054 0.00034510664 -0.0057042143 -0.0062909494 0.03452287 -0.0018069062
-0.09464491 -0.0050011664 -0.006044106 0.059557494 0.024673643 -0.01790051 -0.0017352141 0.008504771
-0.006509316 -0.0082452055 -0.00027529625 -0.0029485347 -0.0024526506 0.0071936864 0.010654609 0.007325658
-0.01245169 -0.031094048 0.00502626 -0.009463513 -0.0148410015 -0.016446337 -0.010120224 -0.0049624667
0.0359214 0.0012357121 0.0074698133 0.002479978 -3.6348243e-05 -0.00084306486 -0.006966699 -0.009357406
-0.0018241178 -0.0027570315 0.0027614941 -0.8959083 0.22438404 0.034669604 0.007871955 -0.0014532496
-0.011825994 -0.054861024 0.0049329614 0.45780712 -0.02147938 0.02455307 -0.014874893 -0.027891977
0.0047629187 -0.003773779 -0.006856484 0.030388044 -0.009960856 0.0060670204 0.028719667 -0.13031514
-0.019098304 0.008807571 0.0023356557 0.039793096 0.00046631816 -0.019790601 0.0014761339 0.009857933
-0.0028206615 -0.005462245 -0.030481568 0.14168249 0.0063327807 0.008639289 0.007577966 -0.33967015
-0.009013795 -0.03432409 -0.007325944 0.0029801398 -0.01871497 -0.018400457 -0.002688863 0.19801684

body_conv.0.0.bias f4 [12]
00000000: 601a 753e 9cf9 e4bc a14c aabd 7485 84bb
00000010: 216f 593e b2f4 313f d580 b43d 9fbe acbd
00000020: 8005 2e3e dc03 58be b2cb 2fbf fb4c 83ba
0.23935843 -0.027951054 -0.08315397 -0.004044229 0.21233799 0.69514 0.08813635 -0.084347956
0.16994286 -0.21095222 -0.6867019 -0.0010017449

body_conv.1.weight f4 [12, 12, 3, 3]
00000000: 6fdd 7ebd 0857 a53e 5b9f 10be df60 663e
00000010: 6bec 16be c143 c6be 7680 c13b dfdd 553e
00000020: e985 69bd 1ef7 a33b 51d7 0e3c a478 a63c
00000030: c4d5 15be 867e b73e 7a29 5ebe 7c57 a93c
00000040: b32c b53c dd72 f63c 0695 6bbc f79d c0be
00000050: 685d f23a 3b08 c03c 7a59 cd3e 675e 8bbe
00000060: 9bdd 893d 2faf 803d af2f 86bd 6291 7fbd
00000070: cd36 a2be ba24 b4bc 61b3 65be 1cad 7b3f
00000080: 778c 22bc 54d6 c13c 5a6c bebe 244a 0cbd
00000090: 734f dd3d 97f0 823e fbea 773e 165c 47bb
000000a0: 463f 17bf 6d53 c6bd d062 9fbc 566c 1d3e
000000b0: 2068 b53c bb08 b63d 8231 3bbd 8cec 33bc
000000c0: 8542 a1be 20f5 a43e 9049 ecbd 3001 0c3e
000000d0: 7072 22bd a215 a7b9 b4c3 cbbb e235 0a3e
000000e0: 7648 033d 165e b2bd 1a00 87bd 4f32 f43d
000000f0: 0456 223d 7a0f 61bd 5342 a23d 21f8 ad3d
00000100: 1d04 1c3e 869b babd aa24 c9bd bde2 883d
00000110: a2b2 debd 3f64 e43c fca8 343e d693 ceba
00000120: 1333 653c 9dcd 3dbe 2787 3bbd 942f ab3d
00000130: b3c1 f73d 0659 89bd e822 9bba 1881 eebc
00000140: 77e5 66bd 183c 52bd 02a8 debd 6e0f 62be
00000150: 1860 35bd fdb8 093f ed1c 283d fc20 5d3c
00000160: dcaf 07be a43a c93b 4ee2 91bd 63a6 c83c
00000170: cc48 e63c 4828 a23e 7d1d 54be b0ad a83c
00000180: f6d1 04be c2a1 593d 63d6 6abb d447 a53d
00000190: a494 9b3e 3fef 723d 1d3c 56be 4ba6 1dbe
000001a0: c8df 58bb e61a 60bd 1f92 12be 0f29 223d
000001b0: a827 14be d346 843e f933 a1be 0f01 923e
000001c0: 122a a2be e342 0b3f 26d7 c9be 2c49 783f
000001d0: 53f0 4ebf 01f1 3fbc 9536 8cbe db0f aa3d
000001e0: 1700 0abe 5566 143f 3782 ccbe c147 013d
000001f0: 6077 74bf 9fe2 863e d098 e2b9 2e7a 373e
00000200: 24b3 8fbd afa0 96be 92b4 c33e 1cc0 96be
00000210: 5b7b c23e 77e2 bc3e c591 7fbd de3b eebd
00000220: 9dcd a33d 770a c4bc f4c3 793e 72f0 20bf
00000230: fcfa 8bbe 0b81 dabe 43ef 01bf 656c b7bd
00000240: 660c ff3b 96e7 aebd 8e2a 963d 3890 a53d
00000250: fe3f afbe 5d31 cf3d e5fe 083e 1db3 42be
00000260: a873 ce3d e422 8b3d 9d6f 34be fca7 a33d
00000270: 3330 2fbe 95e4 ae3e 571d 69be 004b c03d
00000280: 1591 19be 442a 023e 2799 59be 3f4e 74be
00000290: a2eb d9bd d627 89bd 2c2a 20be 7229 fabd
000002a0: 2c2c 3b3d 71bc a03e b8eb 55bd 3d01 19be
000002b0: 8846 243b 375f 253d 014f ac3e 7930 3a3e
000002c0: aebd 20bd 3882 c0bd 874e 01bf 9b69 8d3e
000002d0: f0bc 2a3e 926d 873e 74cc f43d af64 2f3e
000002e0: bcf4 08be 7eda 823e 9047 5ebe 953e 4cbe
000002f0: 52eb e8bc 7bed 24bd 62ff 163e e12b bebd
00000300: 8dda 0ebe d917 013e d14f 00be fb54 c33b
00000310: 9f38 ba3e 7c5c 94bd f9fb d4bc 7762 953e
00000320: ca8d 8bbc ab1b adbc a5d7 a2be 6e47 2f3d
00000330: ae4a f5bc 2e40 fd3d 214a 15bd ba1b 12bd
00000340: 8652 61bd ce90 9bbc 236f b8be 38dd e3bd
00000350: 5923 77be a205 88bd e444 773d e551 0d3d
00000360: 145a 3abd f06e 263e 9429 57bc f229 033e
00000370: 83bf 593f dd34 ba3e 0703 63be 07c7 ab3e
00000380: 2d3f 27be 01e3 38bd cec2 15be baf7 5bbd
00000390: 8495 41bd 6d56 f63e 25ba 2e3e 351d c23c
000003a0: 2d04 a1be 9807 f63b d048 cbbd e010 81bd
000003b0: 0c42 8ebd deb8 903e f330 abbc 6e79 e63d
000003c0: 3bcb d53d f514 f7bd 0ec7 10bd 8bd3 833d
000003d0: ae48 833d 56d9 843c c32d 473a 381a 1ebf
000003e0: df1c 753d 9b0e 2f3c a5e3 743e 26b4 9abc
000003f0: 9432 363d aaf7 3bbc c79b 0abd 2fbf cb3d
-0.062222894 0.32292962 -0.1412329 0.22497891 -0.14738624 -0.38723567 0.0059052063 0.20885418
-0.057012472 0.005003824 0.008718328 0.020321198 -0.14632326 0.35838717 -0.2169551 0.020671599
0.02211604 0.030084068 -0.014378792 -0.37620518 0.0018490972 0.023441425 0.40107328 -0.2722046
0.06731721 0.062834136 -0.06552064 -0.062394507 -0.31682435 -0.021990169 -0.22431709 0.9831102
-0.009921185 0.02366177 -0.3719204 -0.034250394 0.10806169 0.2557418 0.24210732 -0.0030419878
-0.5908092 -0.09683881 -0.019456297 0.15373358 0.022144377 0.08888384 -0.04570151 -0.01098169
-0.31496063 0.32218266 -0.115374684 0.13672328 -0.039659917 -0.0003186884 -0.006218398 0.13497117
0.032051526 -0.08709352 -0.06591816 0.11923658 0.039632812 -0.0549464 0.079228066 0.084945925
0.15235944 -0.09111695 -0.09821446 0.06683872 -0.10873915 0.027879832 0.17642587 -0.0015760611
0.013989228 -0.18535466 -0.04578319 0.08358684 0.12097492 -0.06706433 -0.0011835964 -0.029114291
-0.05637118 -0.05132684 -0.10871889 -0.22076198 -0.044281095 0.53797895 0.04104321 0.013496634
-0.13250679 0.0061410237 -0.07123242 0.024493402 0.028110884 0.31671357 -0.20714374 0.020590633
-0.12970719 0.05313278 -0.003583335 0.08070341 0.3038684 0.059310194 -0.20921369 -0.15395467
-0.0033092368 -0.054713152 -0.14313553 0.039589938 -0.14468253 0.25835285 -0.31484964 0.28516433
-0.31672722 0.54398936 -0.39421958 0.9698665 -0.80835456 -0.011715175 -0.27385393 0.083038054
-0.13476597 0.57968646 -0.39943096 0.03156257 -0.9549465 0.26344773 -0.00043219933 0.17917702
-0.0701659 -0.29419467 0.38223702 -0.29443443 0.37984738 0.3689153 -0.062394876 -0.116325125
0.07998202 -0.023930771 0.24391156 -0.6286689 -0.27339923 -0.42676577 -0.5075571 -0.089562215
0.0077834604 -0.08540265 0.073323354 0.08084148 -0.3422851 0.10116837 0.13378485 -0.19013639
0.100806534 0.06793764 -0.17620702 0.07991025 -0.1710823 0.3415877 -0.22765099 0.09389305
-0.1499675 0.12711436 -0.21249829 -0.23857974 -0.106406465 -0.06697051 -0.15641087 -0.12214936
0.045696422 0.3139377 -0.052226752 -0.14941879 0.0025066454 0.040374007 0.33654025 0.18182553
-0.039243393 -0.09399837 -0.5051045 0.27619633 0.16673636 0.26450783 0.11953059 0.17128251
-0.13374609 0.2555732 -0.21706986 -0.19945748 -0.028432522 -0.04026554 0.14745858 -0.09285713
-0.13950558 0.12606753 -0.12530448 0.005961058 0.36371323 -0.072442025 -0.025999056 0.29176685
-0.017035384 -0.021131357 -0.3180515 0.04279273 -0.029942837 0.12365757 -0.036447648 -0.035670973
-0.05501034 -0.018989947 -0.3602229 -0.111261785 -0.24134578 -0.066416994 0.060368434 0.03450193
-0.04549606 0.16253257 -0.013132472 0.1280897 0.8505785 0.36368456 -0.22169124 0.33550283
-0.16332693 -0.045138363 -0.14625093 -0.053703047 -0.04726173 0.48112813 0.17063196 0.023695568
-0.31448498 0.0075082295 -0.09925997 -0.06302047 -0.06946191 0.28266042 -0.020897364 0.112536296
0.10439154 -0.12064544 -0.035346083 0.06436833 0.06410347 0.016216915 0.00075980666 -0.61758757
0.059841987 0.010684635 0.23914964 -0.01888473 0.04448183 -0.011472622 -0.033839967 0.09948575

body_conv.1.bias f4 [12]
00000000: ff57 603d 0a0d 303e f516 1bbe fcf9 c63d
00000010: cfa2 ed3d feb7 a63d e932 98be 740c 72be
00000020: b6ce 03bf 29c8 71bc 42c7 0a3e 262d 6f3e
0.05477142 0.17192474 -0.15145476 0.097156495 0.11603319 0.081405625 -0.2972634 -0.23637563
-0.5148729 -0.014757195 0.13552573 0.23357067

body_conv.2.weight f4 [12, 12, 3, 3]
00000000: 429b 393d ee3c 72bd b885 973a b775 473d
00000010: 0936 94be 7679 93bd bc80 7fbe dc75 f33d
00000020: a13d 803d bd73 6d3d 3441 2b3d 9b50 163c
00000030: c2ca 3abe c901 d3be 78c4 853a 6618 993c
00000040: 40b3 ca3d aa5d 95bd 3ab4 e83e 96c1 553e
00000050: eb85 2c3e 54e3 22bd 78f1 8dbf 761a 9e3e
00000060: a834 a53d 0f9c 26be 5d99 0f3c adbb 33be
00000070: 19b2 6ebe 1835 17be 707c f6bd a24f 2d3f
00000080: b81c c6bd f22c 7c3c e761 203e 6019 803d
00000090: 80de 71bd b4d5 02be 9c7e a73d 6d22 ce3d
000000a0: 13af 353e f5c0 98bd ee5a e4bd 3cdb 06bd
000000b0: 4508 f23c 09c0 a43d 07f0 ea3a c805 0e3e
000000c0: 5d8f 81be 0edc d73e d5c7 44be 33f3 37bd
000000d0: c158 f2bd fdfa b5bd bf06 793e f884 08be
000000e0: d10f 323d c262 25be 661f 113f 2a28 a8be
000000f0: 6b7e 49bd 792c 4abd d374 afbd 75c6 d6bd
00000100: 1bf9 41be cc28 38bc 9168 86be 62b7 943e
00000110: 70f7 43bd 52e3 8f3d 719f 98be fce6 233d
00000120: 1a7b cb3c e764 c53d f90f 483d f9ce 60bd
00000130: 62d2 f9bd cd41 2cbe 98ca f73d 3a8c 913d
00000140: 2d80 a9bc 29a0 753e 87bb d3bd f308 9e3c
00000150: 40f8 f43c 8f2e e93e 74cf 813d 9d28 cc3c
00000160: b1fa a13c d2e7 863b de87 39bb 1e6a a3bd
00000170: 123e 1dbd f7a4 2ebd 93e9 8e3e ee9d 22be
00000180: 214b dbbd 198a adbd 2bc9 90bc 387b d2bd
00000190: 095b 17be 8039 04bd 6dec 1cbd fca7 f0ba
000001a0: 192f d13d df0b 0e3e a00f a2bc be58 073e
000001b0: 5326 e4bd d58a 1a3d 8520 adbc f742 d33d
000001c0: 5519 2dbf 8de1 793e fc8c 823e f305 363e
000001d0: a637 923d 570f e7bc db33 443d 7472 90bd
000001e0: b079 2f3e 3905 0a3e a61c 86bd 7ec0 b3bd
000001f0: 1975 893d 63a7 9bbd 99f7 44bd c98b 823c
00000200: 091f 35bd 9eea e13c 9818 20be 1f23 283d
00000210: 589d 783c 8fc5 593e 4163 fc3c 8c7a 7dbc
00000220: c558 cbbd 99c4 08bd 59dd 1a3b a4d8 883e
00000230: 125e e13d 68f4 263a 38f0 45be 4f87 613c
00000240: 3889 a3bc 1c51 d63c 749f 293d 503a d73e
00000250: bfcb 4abf d090 223d 8ab5 493e 7630 473e
00000260: c55e e5bc b5de a33c 77d0 c03c 7813 853c
00000270: 4ee4 9e3e 1f8c 5d3d 51ab f0bd 5fdf 3cbe
00000280: 4f2f 89bd 2994 1dbd 1d24 a33d 00d5 393d
00000290: 7e93 0cbc aad2 563d 6086 e8bd a681 583d
000002a0: ae5e dfbd 53c0 22bd bfcf 7a3d 2cc5 133d
000002b0: 2bae 6abd 0977 a73d 033f 8a3e d856 d5be
000002c0: 004f 093e 44fa 8fbd 8030 69bc c44a 113c
000002d0: 85a4 02bd 21af 663d 8800 48bd 9dbd 283c
000002e0: 0f08 1b3e 00d7 8dbc 74d3 89bd eef0 053d
000002f0: 0860 cebb 4c2c 2bbb 8cf1 3ebe 26f4 313d
00000300: 5435 b0be 1b0b ab3e 69c2 8b3d e255 613d
00000310: c1d5 323d be3c 37bd b8b0 713c 630b 49be
00000320: 61f1 243e a488 30be ee77 c33e e05e 073e
00000330: 372e 00be ec9e 1fbe 93be ccbb 3f82 a5bd
00000340: 6ea3 ba3e e586 45be 5b63 ee3e da5f 8d3c
00000350: c9d8 903e 0aa3 6f3d 22c8 ca3e a9f3 15be
00000360: 51d2 97bd 321d 003e 75f6 763d ea92 dd3e
00000370: 532e f1be 5b3e 573e a84a caba 9a86 a0be
00000380: c9ec 8d3c d63f 1b3e 897d 133e 7727 e13d
00000390: 696c 84be b32c 8ebe bf66 6bbe addb af3d
000003a0: d352 6f3e 1ff1 983c b9f4 d9bc d9bf 3cbc
000003b0: a51e 9f3c cc16 a4bd 82c9 1cbe 99e6 9b3d
000003c0: 9207 6e3d d108 243c b5af f83d f304 0c3e
000003d0: 6216 08be 72eb be3d 66e1 8fbd 56e2 0c3e
000003e0: fdbb c1bc b542 0e3d 89c8 b9bd 87ae bdbd
000003f0: 09c8 243d 5829 a2bd 3c0f 873d 7e19 6e3e
0.04531408 -0.05914014 0.0011560237 0.048696246 -0.28947476 -0.07200901 -0.24951452 0.11887714
0.06261755 0.057971705 0.04181023 0.009174491 -0.18241408 -0.412123 0.0010205647 0.018688392
0.098974705 -0.072932556 0.45450002 0.20874628 0.1684796 -0.03976758 -1.1089315 0.30879563
0.08066684 -0.16270469 0.008764592 -0.17552061 -0.23310126 -0.14766347 -0.12035453 0.67699635
-0.096734464 0.015391575 0.15662347 0.0625484 -0.059050083 -0.12776834 0.08178446 0.1006516
0.17742567 -0.07458679 -0.11150156 -0.032923922 0.029544959 0.0804444 0.0017924317 0.13869393
-0.2530469 0.42160076 -0.19216855 -0.044909667 -0.11833335 -0.08885763 0.2431898 -0.13331974
0.043472115 -0.16150954 0.56688535 -0.32843143 -0.049192827 -0.04935882 -0.08567204 -0.104870714
-0.18942682 -0.0112401955 -0.26251653 0.2904616 -0.047843397 0.0702578 -0.29809144 0.040015206
0.024838973 0.09638386 0.048843358 -0.054884885 -0.121983305 -0.16821976 0.120991886 0.07106824
-0.020691002 0.23986878 -0.103385024 0.019291377 0.029903531 0.45543334 0.06338397 0.02492171
0.01977286 0.0041169906 -0.0028309743 -0.079792246 -0.038389273 -0.04263779 0.27912578 -0.15880558
-0.10707689 -0.08473606 -0.01767405 -0.10277408 -0.14780821 -0.0322814 -0.03831141 -0.001836061
0.10214061 0.13871716 -0.019782841 0.13217446 -0.11140122 0.037730057 -0.02113367 0.10315507
-0.6761678 0.24402447 0.25498188 0.17775707 0.0713952 -0.028205557 0.047901016 -0.0705308
0.17136264 0.13478555 -0.06548433 -0.08776949 0.06711788 -0.07600286 -0.04808769 0.015935795
-0.04421905 0.027577695 -0.15634382 0.04104912 0.015174232 0.21266769 0.030809047 -0.015471112
-0.09929041 -0.033390615 0.0023630469 0.26727784 0.110042706 0.0006368817 -0.19329917 0.01376517
-0.019962892 0.026161723 0.041411832 0.42036676 -0.7921714 0.039688885 0.19698158 0.1945208
-0.027999291 0.020003656 0.023536904 0.016244635 0.31033558 0.054088708 -0.11751426 -0.18444584
-0.066984765 -0.038471375 0.079658724 0.04536915 -0.008580087 0.052447 -0.11353755 0.052858017
-0.109067306 -0.039734196 0.06123328 0.03607671 -0.057295006 0.08177001 0.270012 -0.4166782
0.13409042 -0.07030156 -0.014232755 0.008867923 -0.03189518 0.05631936 -0.04882863 0.010299114
0.15139793 -0.017314434 -0.067297846 0.03270047 -0.006298069 -0.0026118932 -0.1864683 0.04344573
-0.34415686 0.3340691 0.0682419 0.055013545 0.043660883 -0.044735663 0.014751606 -0.1963325
0.16107704 -0.17239624 0.38177437 0.13219786 -0.1251763 -0.15587968 -0.006248304 -0.08081483
0.36452812 -0.1928974 0.46560177 0.01725762 0.28290394 0.058505096 0.39605814 -0.1464373
-0.074131615 0.12511137 0.060293633 0.4327615 -0.47105655 0.2101988 -0.0015433626 -0.31352693
0.017324822 0.1516107 0.14403357 0.109938554 -0.2586396 -0.27768478 -0.22988413 0.08586822
0.23371439 0.018669663 -0.02660595 -0.011520349 0.019423792 -0.08012161 -0.15311244 0.076123424
0.05811269 0.010011868 0.121428885 0.13673763 -0.13289788 0.093222514 -0.07025413 0.13758215
-0.02364921 0.034731586 -0.09071452 -0.09261804 0.04022983 -0.07918042 0.065947026 0.23251912

body_conv.2.bias f4 [12]
00000000: af33 b13c 33db 29be 0dc1 7bbe 2340 a33c
00000010: af13 c43c 0232 bd3c fadc b4bc 3bf8 bf3c
00000020: 3be4 373d 01f9 7ebb 438d aebc 3241 15bc
0.02163109 -0.16587524 -0.24585362 0.019928044 0.023935167 0.023095135 -0.022078026 0.023433795
0.044895392 -0.0038905742 -0.021307593 -0.009109782

body_conv.3.weight f4 [12, 12, 3, 3]
00000000: e668 dabd e8b8 42be a8dd 82bd 2769 fd3c
00000010: a053 6bbd ba7a 2a3e 2d7b d33d 5094 163d
00000020: 6164 fcbd 0b7b a2bd 56a6 6c3e 4348 a9bd
00000030: 5d47 29bc 87fa 6e3e 6075 29bf cf08 0d3e
00000040: 5eed cdbd c2ce a63e 221c cdbd dde5 cf3d
00000050: 2b61 623d 09bd 9c3c 01a0 a9be b8b6 473d
00000060: 163e 60bb ba39 843e e1c5 1dbc 63c3 82bd
00000070: 8172 9dbd bb32 78bd fdf9 e3bb c6ad 7b3e
00000080: 949d b13d 25a7 203a 9aa4 dc3d d00e 163e
00000090: ddda 443c 20d1 ee3d a5a9 ca3c 6f9a f1bd
000000a0: 330b d7be 944f e6bb bc33 b5bd d35c 64bd
000000b0: 6cde 883e db51 44bd 5a8c bcbd d8f3 32be
000000c0: b30f 5a3d 6027 7f3d d750 e9bd a5a6 783c
000000d0: 9551 2f3d 3c16 c0bd 071a ccbc b4cb 80be
000000e0: a8e5 913d 091b 83be fd14 063f aaf9 57be
000000f0: 507e 6ebd 20bb e83e 0420 51be a43a 5b3c
00000100: 7af8 a0bd 11de d33d ce5a 3dbe 475f 99be
00000110: 4c2e 223e cc31 e2bc 2b08 9e3d c781 8dbd
00000120: 015d 59bc 2608 0dbe 1c09 b7bd 4aaa 963d
00000130: a190 f93d c0d8 23be cf6d 68bc c17f ae3d
00000140: 0d5a 75bd 0843 28be 547f 49be d712 413d
00000150: 0520 86be e35f 3c3f d6a5 8bbe 4f8e 923c
00000160: e44d 02be 483b 153d 5df8 b23d e413 0abe
00000170: f00b 123d 18a1 ef3c ff60 47be 7c45 c33e
00000180: 3eee d4bd b193 cb3d 4c29 a4be 0ecf bb3c
00000190: 7548 0ebe 9e18 bebd a718 97be db5c 2e3f
000001a0: 2d30 b2bd ee8c eabd 6a37 63be 42a1 8d3e
000001b0: 752e 303b f5cb 143e 889a c93d 5888 373d
000001c0: 8017 30bf 4859 253e 6d6c 133e 1aa7 523d
000001d0: 5271 e73c 9594 4ebb 2368 1fbd c5d8 5cbc
000001e0: 8dd3 97bc 220e eb3d a1b6 8e3b d4ec 6abd
000001f0: 1112 883d c9c9 e53c fb7f a13d 7b9e 283e
00000200: 9cfa 0f3c 4182 183e fb4a c53e ac69 4c3e
00000210: 691e 89bc 3002 133e ed4a 593b db71 de3d
00000220: da0c 40bd ced3 413d b9c2 3d3e 2551 6ebf
00000230: 363a 03bc 0b25 913d dca5 d83e b152 d23d
00000240: 40ec b13d 5f8a 4a3d 8dd6 22bd c5f8 b4bd
00000250: 000e 30be 3cfe f6bc 9d2d cd3b 5e05 0a3b
00000260: bc5b 423e 0e4d bdbc e93a 6d3b 9e64 6f3e
00000270: 0e1e bf3b 40b9 03bf 2f36 823e 50d4 fabb
00000280: 0a04 453e 3359 1cbe 9f7d a23d 8b99 eabc
00000290: dd1a ab3b 86be f5bd 6ed7 72be 2d74 f03d
000002a0: 50d3 ecbc 46b4 1a3d adb0 0a3e b5ea d3bc
000002b0: 17d8 24be 89de 8dbe 65b2 ed3a 94e9 873f
000002c0: 0861 bdbe 6bcc 97bd e738 d6bd f1e3 d1bc
000002d0: 0576 58bd aeee b23d 5b30 5abd d7e3 5ebd
000002e0: c63c 1d3d 8a7a 1ebe 9394 823d da32 8e3d
000002f0: 5a01 8a3d 2597 3c3e 3680 1d3e d5fb cb3d
00000300: fabd 0e3f 8b7d 66bf b60f 40bd 1380 c13c
00000310: c71c d2bc 4f05 48bd 84d2 b93c a5df 45be
00000320: 0a17 953d 6380 443d af86 3e3e c8b1 ffbc
00000330: d512 c13c 5620 04be 6e88 ebbb a94f dcbd
00000340: 24b8 1d3b 554f aa3d 4821 223e 0b7d 27bd
00000350: 9c30 92bc cef2 49bd 417c 1bbe 7521 f63d
00000360: f213 08be 6c32 8a3d 2096 a1bc 1cd3 c0bd
00000370: 5b5e 743e 329a 793e b144 e33b 9291 35be
00000380: 02f8 11be ed14 523c bf30 143f 53ee bebe
00000390: e9ff 1abe 97d7 13be 76fb bdbd c6d4 c2bc
000003a0: 94b3 6e3d 6bd6 183e 6e61 da3d 269d 183e
000003b0: 2133 f5bc 59ca 46be b25d 2dbd a9a7 963d
000003c0: fe48 37bd fd9d f4bd 2cee 8c3d 1320 4fbe
000003d0: d083 63bd acac dcbd 31a4 45be 77d4 2abf
000003e0: 3666 793e ed35 8b3d c514 e5bd 55b3 81bc
000003f0: 86ea 813d 9332 ad3e 8d8f 10bd 8c6d 71be
-0.10664539 -0.19015849 -0.06389934 0.03093393 -0.057452798 0.16648379 0.10326228 0.036762536
-0.12323833 -0.07933625 0.23110327 -0.08265736 -0.010331956 0.23337756 -0.66194725 0.13772891
-0.1005504 0.3257962 -0.100151315 0.10151265 0.055268448 0.019133108 -0.33129886 0.04875824
-0.0034216694 0.25825292 -0.009629698 -0.06384923 -0.076878555 -0.060595255 -0.006957291 0.24578008
0.08672634 0.0006128422 0.10773583 0.14654088 0.012015072 0.11660981 0.024739096 -0.11797034
-0.42000732 -0.0070285294 -0.08847758 -0.055752587 0.26732194 -0.047929626 -0.092064574 -0.17475832
0.05323763 0.06229341 -0.11392372 0.01517645 0.042802412 -0.09379241 -0.024914755 -0.25155413
0.071238816 -0.25606564 0.52375776 -0.21091333 -0.05822593 0.45455265 -0.20422369 0.01338068
-0.07859893 0.1034509 -0.1849167 -0.29955503 0.15837973 -0.027611636 0.07716402 -0.06909519
-0.013266803 -0.1377264 -0.08937284 0.07356699 0.12185789 -0.16000652 -0.014186337 0.08520461
-0.059900332 -0.1643182 -0.19677478 0.047137108 -0.26196304 0.7358381 -0.2727496 0.017890124
-0.12725025 0.036433488 0.08738778 -0.1348415 0.035655916 0.02925162 -0.19470595 0.3813895
-0.103970036 0.09940279 -0.32062757 0.02292588 -0.13894828 -0.09282039 -0.29510996 0.68110436
-0.08700595 -0.114526615 -0.22189108 0.27662092 0.002688316 0.14530928 0.098439276 0.044807762
-0.6878586 0.1614734 0.1439683 0.05142889 0.028252278 -0.0031521667 -0.038917672 -0.013479416
-0.018533492 0.11477305 0.004355267 -0.057354763 0.06644071 0.02805032 0.078857385 0.16466706
0.008787777 0.14893438 0.38533768 0.19962186 -0.016738134 0.14356303 0.0033156232 0.1086156
-0.046887256 0.047321133 0.18531312 -0.93092567 -0.008009484 0.070871435 0.4231404 0.102696784
0.08687639 0.049448367 -0.039755393 -0.088365115 -0.1719284 -0.030150525 0.006261541 0.0021060328
0.18980306 -0.023108032 0.0036198443 0.23378226 0.00583244 -0.51454544 0.25431964 -0.007654704
0.19239822 -0.15268402 0.079341166 -0.028637668 0.005221708 -0.1199923 -0.23714992 0.11740909
-0.028909355 0.03776958 0.13543959 -0.025868753 -0.16098057 -0.27708843 0.0018134831 1.0618157
-0.3698809 -0.074120365 -0.10460072 -0.025621386 -0.052846927 0.08736931 -0.05326877 -0.054416504
0.038388036 -0.15476432 0.063759945 0.06943293 0.06738539 0.18417032 0.1538094 0.099601425
0.5575863 -0.90035313 -0.046889983 0.02362064 -0.025648488 -0.048833188 0.02268339 -0.19323595
0.07279785 0.047974 0.18606065 -0.031212702 0.02356855 -0.1290296 -0.0071878945 -0.107573815
0.0024066055 0.08315913 0.15833008 -0.040890735 -0.017845444 -0.049303822 -0.15184118 0.120181
-0.13288859 0.067478985 -0.019724905 -0.09415266 0.23864119 0.24375227 0.006935679 -0.17731312
-0.14254764 0.012822372 0.5788688 -0.37291202 -0.15136684 -0.1443771 -0.09276478 -0.023783099
0.058276728 0.14925544 0.106631145 0.14903697 -0.029931607 -0.19413127 -0.042325683 0.073561974
-0.044747345 -0.119441964 0.06881365 -0.20227079 -0.055545628 -0.10775122 -0.19300915 -0.66730446
0.24355397 0.06797395 -0.11185602 -0.015832582 0.0634356 0.33827648 -0.03529315 -0.23576945

body_conv.3.bias f4 [12]
00000000: acd7 97bd d42b 1cbd 3f26 f33c e44d 37bc
00000010: 47f9 653d ba20 8c3e 2a90 4ebd 7a22 b33b
00000020: f9ca b23d 054a febc a40a a1bd b142 24bd
-0.07414183 -0.038127735 0.029681323 -0.011188004 0.056145933 0.27368718 -0.050430454 0.0054667564
0.0873012 -0.031041155 -0.07863358 -0.040102664

body_conv.4.weight f4 [12, 12, 3, 3]
00000000: 3e45 0fbe 6902 e1bd 651d cd3d fb58 4ebe
00000010: 33a5 b93e 560c b0bd 2afd a43d 25a6 2b3e
00000020: e653 c33d f8f1 e53d b5b3 0c3e ba08 c13a
00000030: e2d3 163e 39f4 363e 3324 95be 2290 1ebc
00000040: 3dc9 25be 8fcd fcbd e649 413c 8860 dbba
00000050: b539 65bc f9fe 1e3e 1fc0 c9be 42e9 773d
00000060: b292 7e3c d8ba c6bd adb4 003d 802b a2bd
00000070: fead d23c e178 debb 54e0 babd bd2e a73d
00000080: feac 393d e56a 253d 620b e83d 273c 473c
00000090: 7452 03bd fe56 653e 3754 5cbc c221 05be
000000a0: 0700 163e 3d47 cebe cb29 de3c 2385 5d3d
000000b0: 3aef 313e 7f3f a0bc 5562 293e d052 cdbc
000000c0: db66 6a3d 18b6 2abe f7fe a8bc 755a ee3c
000000d0: b777 6dbd 0334 4e3d 8d8f 9b3c 2c5f 91bd
000000e0: b904 1cbc dd67 8b3d 0095 cb3d b7f9 a93d
000000f0: 0f5f f03b a291 51be 910f 253d 7138 aa3d
00000100: 13c6 303d cdd9 fb3d 3853 043e 7118 97bd
00000110: b4a0 80be c124 a13c 7ec7 8bbe 0168 123e
00000120: f7e3 fb3d 24fa a4bd f2fa 163d 418e fcbd
00000130: 73f9 70be 9f5f 8e3d 6525 f23b 039f a43e
00000140: 2372 0dbe eb6c dcbc a866 fa3c 5ecc 8d3b
00000150: c557 303d b081 e0bd d7d6 103d 9ddf 8b3c
00000160: 6cc5 01bd 7575 583d 4296 1b3e f751 b0bd
00000170: 71a9 8b3d 7185 43bd 9781 3abf 308a 833e
00000180: ffad 28bd f0db 973e 72f6 d33d adc6 0c3d
00000190: d559 35bd febb 1f3c 1873 82bd 6ecc 173e
000001a0: 71ec 4abc bcfe 5fbd 4ea8 863b 75af b83c
000001b0: e368 4f3e 6beb 993d 15cd d23c 4fe5 ce3e
000001c0: e074 723e 6e98 113e 0b81 ba3d ce9f 003c
000001d0: b335 413d 2a75 513d 761a e7bc d823 16bd
000001e0: 5ed4 8abd fcda 573e c8cd 8abd 0864 afbd
000001f0: 5b95 033d b0cc 6bbd 5e22 3d3c 5ab3 03bc
00000200: 5b2c 47bd 0fec b93e ed27 b23c d4ca 11be
00000210: c7bd d6bd 7069 2bbd 1530 ddbb ac09 f13c
00000220: b3c5 f4bd b327 4cbd 97d0 793d 6069 98be
00000230: fa51 0f3e 245d 133e 0cc6 01bc 36ca 1bbe
00000240: 0898 92bd 9940 173e 2910 f43d 11a5 8c3d
00000250: 2546 8bbd 80d0 3abc 1560 303e e865 143d
00000260: d214 fa3d b037 9c3d 400b 323c da7d a1bd
00000270: a807 6b3e 2a82 85be 1675 81bc 6b35 153e
00000280: b9b3 febd 1450 30bc 8a71 b9bd cb0c 773e
00000290: 8eea cf3c b4fd 21be 1667 0bbb b67a febd
000002a0: 53f7 103d a70d 143e ee52 80bd bc68 c53d
000002b0: fae3 253e 12c3 0e3e 44f3 57bc 0b70 423e
000002c0: a847 643d 7eea 8ebd 1235 15bd 6692 103e
000002d0: 8aab af3d 634f c93d 4196 d9ba eea2 42bd
000002e0: 40fe ef3e 5f03 60be 445c cd3c 91be b43d
000002f0: 730b c5bd 7c06 843d 3aa4 dbbd 537e febc
00000300: e35e 193d e79d 9e3c a8eb 2c3c 2594 1e3c
00000310: f426 5dbc 7a5f ccbc 9fa8 203d 1da7 cfbc
00000320: e063 f7bc bd60 78be fc3a f8bd fe2b cd3d
00000330: e805 afbd 5d30 343e 54ec 553d d07e 04be
00000340: 1e85 5f3d 9791 9c3d 5e29 00bd 0cce 07bf
00000350: a417 bc3d 7916 a03c 6ea9 4abe 1f36 cabc
00000360: bb80 043d 2981 093d ec4f 55bc 751a 153f
00000370: 667b babe 26d0 023e 1a9f 11bd d227 7fbc
00000380: a683 093d 2f4d 5dbd cfd6 653d c822 2cbd
00000390: ab6a be3d ebe8 473c 629f 85ba 9b6b e1bd
000003a0: 5a97 1e3c efcb 52bc ba40 46bd cc64 873d
000003b0: c2db 4b3c 4943 51be b15a b83d d98f d93c
000003c0: e005 fbbc 3493 273c db5b 3dbd 61f6 babb
000003d0: d502 4a3d 3393 063d 534a 473e 4783 21bd
000003e0: c09c 993d d64c eebb 1413 b1bd 8c76 493d
000003f0: 286b a23c 62e3 dc3b 36df 57bd f919 65be
-0.13991258 -0.10986788 0.10015372 -0.20151131 0.3625885 -0.08596103 0.080561 0.16762598
0.09537487 0.112277925 0.13740428 0.0014727332 0.14729264 0.17866601 -0.2912918 -0.009677919
-0.16190048 -0.12343895 0.011797404 -0.0016737143 -0.013990809 0.15526952 -0.3940439 0.060525186
0.015537905 -0.09703606 0.031422306 -0.07918453 0.025717732 -0.006789312 -0.091248184 0.081632115
0.045330994 0.040385146 0.11330296 0.0121603375 -0.032061055 0.22396466 -0.013447813 -0.13001159
0.14648448 -0.40288725 0.027119538 0.054082047 0.17376414 -0.019561527 0.16541417 -0.025063902
0.057226997 -0.16671026 -0.02062939 0.029095868 -0.057975497 0.05034257 0.018989349 -0.07098231
-0.00952261 0.0680692 0.09940529 0.082995825 0.0073355506 -0.20465711 0.04029805 0.083115466
0.04315765 0.122974016 0.1292237 -0.07377709 -0.25122607 0.019670846 -0.27300638 0.14297487
0.1229934 -0.08055523 0.036860414 -0.1233182 -0.23532657 0.06951832 0.0073897117 0.32152566
-0.13813071 -0.026907405 0.030566528 0.004327341 0.043052454 -0.10962236 0.035361137 0.0170744
-0.031682417 0.05284639 0.15194038 -0.086093836 0.06819428 -0.04773468 -0.7285399 0.25691366
-0.04118156 0.29659986 0.1034974 0.03436916 -0.044275124 0.009749411 -0.06369609 0.14824077
-0.012385474 -0.054686293 0.004109419 0.022544602 0.20254855 0.075156055 0.025732556 0.40409324
0.23677397 0.14218304 0.09106644 0.0078506 0.047170352 0.051137127 -0.02821086 -0.036655277
-0.06778787 0.2107963 -0.06777531 -0.08564001 0.03212486 -0.057568252 0.011543838 -0.008038366
-0.048626285 0.3631291 0.021747554 -0.14237529 -0.10485416 -0.0418486 -0.0067501166 0.029423557
-0.11951771 -0.049842548 0.060989942 -0.29767895 0.13996115 0.14390999 -0.007920753 -0.15213856
-0.07157904 0.14770736 0.11917145 0.068674214 -0.068004884 -0.011402249 0.17224152 0.036229998
0.122110024 0.07627809 0.01086694 -0.078853324 0.2295214 -0.2607587 -0.015802901 0.14571159
-0.12436623 -0.01076128 -0.09054859 0.24125974 0.0253804 -0.15819436 -0.002127116 -0.12425749
0.035392117 0.14458333 -0.062658176 0.09639117 0.16200247 0.13941601 -0.013180558 0.18988054
0.0557324 -0.069783196 -0.036427565 0.14118347 0.0857764 0.09829595 -0.0016600565 -0.047518663
0.46873665 -0.21876286 0.02506841 0.0882541 -0.096213244 0.06446549 -0.10724683 -0.031066095
0.037444007 0.019362403 0.010554232 0.009678875 -0.013498057 -0.02494787 0.03922331 -0.02534824
-0.030198991 -0.24255653 -0.121206254 0.100181565 -0.085460484 0.17596574 0.052227333 -0.12939
0.05457031 0.076449566 -0.03128945 -0.5304878 0.091841966 0.019541966 -0.19791195 -0.02468401
0.03234933 0.033570442 -0.013019543 0.58243495 -0.3642227 0.12774715 -0.03555212 -0.015573459
0.033572815 -0.054028686 0.05611306 -0.042025357 0.09297689 0.012201528 -0.0010194595 -0.11006852
0.00967964 -0.012866004 -0.04840157 0.06611022 0.012442531 -0.20435824 0.09001673 0.02655785
-0.03064245 0.010227967 -0.04623018 -0.00570564 0.049319107 0.032855224 0.19461946 -0.039431836
0.07500601 -0.007272343 -0.08646217 0.04918532 0.019826487 0.0067409733 -0.052703105 -0.22373189

body_conv.4.bias f4 [12]
00000000: 622f 50be de75 313e d21b ddbd 248c 8cbe
00000010: aeea 29be eb14 64be cd15 a1be ab66 fc3c
00000020: 0a1f 13bd 9c73 9b3d 14ba 0f3e 6f71 883d
-0.20330575 0.17330119 -0.10796322 -0.2745067 -0.1659343 -0.22273605 -0.31461945 0.030810675
-0.035918273 0.0759041 0.14035827 0.06662261

body_conv.6.0.weight f4 [56, 12, 1, 1]
00000000: dddb dd3b 1416 813b ae5f 063c 0d2b 7a3a
00000010: 7326 b8bc 48b0 c33a 7721 af3a 8321 3dbb
00000020: c936 9d3d 4027 debe 96ab ba3b 81fb 16ba
00000030: 3bd8 803c 6300 8dbe 65e8 b33d 9052 353c
00000040: dfd1 a9be 14a3 76be 3337 0f3c 174e e43d
00000050: f7a8 41bc df5a 93bc 6f50 44bd fe3c 57bc
00000060: 6414 063c b5df 19bd 26e0 86be 1ae8 17bb
00000070: b4d4 bc3b e760 41bc 6690 923a 7d11 613c
00000080: 32b1 e83c cf59 9ebc 4688 a6ba 20f4 40b9
00000090: b64e 323e bb4e 0ebd 13af f33a feeb 823b
000000a0: bc9d 793d 6e48 e83b 4542 173b 460e 753d
000000b0: e1ad 9c3d a264 13bd bf6f 86b9 0d42 443b
000000c0: 9cff a23b 9916 223c a6d2 f13d a525 0a3c
000000d0: ba93 19be b9b8 a9bd d555 b4bc f530 c83c
000000e0: b98d 0bbf b9cb 083d 4036 70be add5 2fbc
000000f0: 46a7 b7bc f8f9 fe3c c8e6 2ebd fe49 8c3a
00000100: d96d 3abe 54ea 953d 597c bcba 7aec 1ebd
00000110: 5b41 ee3d e0dd 24be 86e4 0b3d 21ec 8bbb
00000120: 5027 b9bd e8dd ad3d ab40 863d f84b 053c
00000130: 7c93 82be 0c64 2bbd 007a 063c 0d26 b1be
00000140: 43c6 a23b 2d06 71bd 4988 b43d 5566 90bc
00000150: 2906 b83c 6ff6 d7bc 2632 443d 7665 34bb
00000160: f697 283c 9100 c0bd 705c b83b 313a c1be
00000170: 6825 973c 7289 acbb f415 893d e06b 41bc
00000180: edea b5be cdcf fc3c 1106 06bd 7adb 6c3a
00000190: 789c 4ebe 0723 11bc e35c b8ba 4244 51bd
000001a0: f156 3cbd 8d8a 3b3b 50f0 01bd 39d1 a3bb
000001b0: 0804 1a3a 2f0b 863a 3570 12b9 f040 3439
000001c0: 1778 f7ba 94ce 283b aedd 653a 6953 d4b8
000001d0: 1ca4 d3bb c598 5a3b 6106 b3bb 2088 583e
000001e0: 1462 74be d78c 143e 0206 00bd 2325 1c3c
000001f0: 7bd1 e3be 044e d9bb fcec b0bb 67a3 63be
00000200: 7e3b 55bd 07fd 6cbd 58a6 1c3c d9e4 91bc
00000210: 4517 b8bd dc2a 153e 510c dabd 235e 4c3c
00000220: 50ad bbbe d99e 9a3d 6966 7dbc 037a 4dbe
00000230: 38d8 1c3d 5058 05be 7f61 89bd d797 90bc
00000240: 22b8 58bb a44f c33b fb6d 173c beba 54be
00000250: 4785 36bc d8c1 fa3b 3714 98bd 8139 4cbc
00000260: 0e74 07bd 85cc cb3c 935e 8cbc b35a 02bb
00000270: 61e1 cb3d 280d d3bc 0d9a df3d 74df 113b
00000280: c83d abbe 3c95 bfbd cc41 7b3c f4bd 223d
00000290: 1179 c9bc c818 34bb 1f1e 9b3d bf10 93bc
000002a0: ccf5 10bd d227 dfbd 1464 07bf 4026 983b
000002b0: 71db 01bd ffc2 f83b 23e9 c8ba 4856 13be
000002c0: 43e0 d13c 1170 adbc 7a5c 0fbd b95b 28bb
000002d0: 07f3 92bd 9fa9 8abd 81bb 85bc c80b ad3b
000002e0: a9fc 6dbe 3062 9cbd a4c1 4e3b e25c 14bd
000002f0: 3c78 f9be 44ae 9f3d 0675 793c 1b71 3fbc
00000300: 70b2 c8ba 1f00 e3ba a08e e13b 2416 263a
00000310: 66bd 843b d8b4 3fbc 5a01 82b9 2c12 ef3a
00000320: c43c d2be 4564 be3c c7eb 373b f96a a738
00000330: 84d8 4dbd d7d8 8e3e 74d1 1abd 40e5 c73a
00000340: 035b 85bd 6047 e13c 8800 f6bb 9aaf d3bc
00000350: a143 d5bb f66a a4bc 01e5 0abd 3f9a f3bb
00000360: cd5c 57be 6338 48bd 0e80 51bd d9fe 6f3b
00000370: d768 bebe 8ced f4bd f6f4 fcbb e454 b9bd
00000380: 7844 83be 8134 f63d 7d43 c6bd d31d 84bc
00000390: ccc0 9e3c 8fa5 3e3c 5233 8f3c 45e7 063b
000003a0: 2836 e0bc 5dc2 7cbd 044f 873b f75f 91bc
000003b0: f47b 4f3d 5575 b4be 6e67 9a3d 2976 5abd
000003c0: 7e92 21bd 3da0 b1bd f4b4 a63d 45f6 143c
000003d0: 6c45 7ebe 2413 44be 5886 33bc 1242 4d3d
000003e0: 5e57 41be ce03 7a3d fc92 37be 83f6 62bc
000003f0: 9864 d8bd bcdf b23c 59f1 c3be cae3 a83c
0.0067705945 0.0039393995 0.008201523 0.0009543158 -0.022479272 0.0014929855 0.0013361414 -0.0028859086
0.07676465 -0.4338932 0.005696724 -0.0005759523 0.015728107 -0.27539358 0.0878456 0.011067048
-0.3316793 -0.24085647 0.008741188 0.11147707 -0.0118200695 -0.017987667 -0.04792827 -0.0131371
0.008183572 -0.03756686 -0.26342887 -0.0023179115 0.005762661 -0.0118028885 0.001118195 0.01373708
0.028404806 -0.019329933 -0.0012705408 -0.0001840149 0.17412838 -0.034743052 0.0018591605 0.0039954176
0.060941443 0.0070887124 0.0023080271 0.059828065 0.07650352 -0.035984643 -0.0002564173 0.0029946596
0.0049743187 0.009893083 0.11807756 0.008431827 -0.1499776 -0.08287186 -0.022013584 0.024437407
-0.54513127 0.03339741 -0.23458195 -0.010732097 -0.02241863 0.031125054 -0.04270056 0.0010703204
-0.18205966 0.07320085 -0.001438032 -0.03879974 0.11633559 -0.16100264 0.034153484 -0.004270092
-0.090407014 0.08489591 0.06555303 0.008135788 -0.25503147 -0.04184346 0.008207798 -0.34599343
0.0049674823 -0.05884378 0.08815057 -0.01762692 0.022463875 -0.026362626 0.047899388 -0.0027526296
0.010290137 -0.09375108 0.005626254 -0.3773971 0.018450454 -0.005265408 0.0669364 -0.011805505
-0.35530797 0.030860806 -0.03272063 0.000903539 -0.20176876 -0.008858449 -0.0014065768 -0.051090486
-0.04598135 0.0028616518 -0.03172332 -0.0049993065 0.00058752345 0.0010226722 -0.00013965445 0.00017190329
-0.0018880394 0.0025757896 0.00087686896 -0.00010124484 -0.0064587723 0.0033355218 -0.005463407 0.21145678
-0.23865539 0.14506851 -0.03125573 0.009530338 -0.44495758 -0.0066316146 -0.0053993445 -0.22230302
-0.05205869 -0.057858493 0.009561144 -0.017809318 -0.08988813 0.14567131 -0.106468804 0.012473616
-0.36655664 0.07549829 -0.015466311 -0.20066075 0.03829214 -0.1302197 -0.06708049 -0.017650528
-0.0033068736 0.0059604216 0.00924253 -0.20774361 -0.011140174 0.0076525025 -0.07425731 -0.012464882
-0.033069663 0.024877796 -0.01713494 -0.0019890487 0.09955097 -0.02576311 0.10918055 0.0022258433
-0.33445573 -0.09354636 0.015335511 0.039731935 -0.024593862 -0.002748059 0.075741045 -0.017952321
-0.03539066 -0.10896267 -0.5288708 0.0046432316 -0.031703416 0.0075916047 -0.0015328269 -0.14388382
0.025619632 -0.021171601 -0.035000302 -0.0025689437 -0.0717526 -0.06770634 -0.01632476 0.0052809455
-0.23240913 -0.07635915 0.0031548524 -0.036221392 -0.48724544 0.077969104 0.0152256545 -0.011684681
-0.0015311968 -0.0017318762 0.0068834573 0.00063356967 0.0040508984 -0.011700831 -0.0002479654 0.0018239669
-0.41061985 0.023241172 0.0028064118 7.983106e-05 -0.050255314 0.2789981 -0.037797406 0.0015250817
-0.065115 0.027499855 -0.0075073875 -0.02584057 -0.006508306 -0.020070534 -0.0339098 -0.007434159
-0.21031494 -0.0488819 -0.051147513 0.0036620407 -0.3718936 -0.11959371 -0.0077196313 -0.09049395
-0.25638175 0.12021733 -0.09680841 -0.016127503 0.019379042 0.011636152 0.017480526 0.0020584625
-0.027369574 -0.061708797 0.0041292924 -0.017745955 0.05065532 -0.35245767 0.07539259 -0.053335343
-0.039446346 -0.08673141 0.08139983 0.009091918 -0.2483117 -0.19147927 -0.010957323 0.050111838
-0.18880984 0.061038785 -0.17927164 -0.013852718 -0.10566062 0.0218352 -0.3827007 0.02061643

body_conv.6.0.bias f4 [56]
00000000: 68b3 85bb 1e8b 05be 42ad 013c 8d39 c03c
00000010: 9168 9bbd b901 08bd 0643 0dbe 2ec0 7ebd
00000020: 0d89 16bd aadf 013a b222 43be 7fa4 2bbe
00000030: 96b1 213e df24 0cbe b198 96bd 6543 00be
00000040: f978 5ebb 98ad d4bd 9cc1 37be bbd7 93bd
00000050: 305f 02be a6ba 36be 4ce1 e4bd 1c0b 9abd
00000060: 1e93 bebc 038c b6bd e95c 84bd 8c6e e5bd
00000070: e31e 0bba ddc3 0ebe 64f3 43bc a1f8 92bc
00000080: 2236 b0bd d984 1fbe 841e e0bd 6afc 873b
00000090: 2d31 8ebd 2e3e 0cbe 7622 43ba 9937 3fb8
000000a0: 6d07 05be b010 8d3e 595a 06be fc54 93bc
000000b0: ee96 bbbd 57ab 31be 83df 1abb 3356 4fbd
000000c0: 359a 3e3d 683d 15bd a846 26be 1ddf 2ebd
000000d0: 06d7 bbbd 9c65 be39 ae65 dc3b 09e5 c8bd
-0.004080225 -0.1304135 0.007914843 0.023464942 -0.07588304 -0.033204768 -0.13795099 -0.062194996
-0.036751796 0.0004954288 -0.19056204 -0.16761969 0.157904 -0.1368594 -0.07353342 -0.12525709
-0.0033946617 -0.10384673 -0.1794495 -0.07218882 -0.12731624 -0.17844638 -0.111757845 -0.0752165
-0.02326351 -0.08913424 -0.06463034 -0.11202726 -0.00053070317 -0.13941903 -0.011959884 -0.017940821
-0.08604075 -0.15578021 -0.109433204 0.004149963 -0.06942973 -0.13695595 -0.0007443795 -4.5589728e-05
-0.12991114 0.27551794 -0.13120402 -0.01798486 -0.09159647 -0.17350517 -0.0023631759 -0.050619315
0.046533782 -0.036435515 -0.1623789 -0.042693246 -0.09171872 0.0003631533 0.0067259884 -0.0980931
