save/fsrcnn-x4/iter_1200000.pth (torch, 317647 bytes, 48 tensors)

head_conv.0.weight f4 [56, 3, 5, 5]
000000 6e e2 c1 3d e0 c6 b5 bc a5 1b 9d bd 89 5b a6 bb
       0.09467016 -0.022189558 -0.076712884 -0.00507683
000010 61 39 ed 3d 8f d0 33 bb ce b3 4b be d3 34 fe 3e
       0.1158321 -0.0027437543 -0.19892809 0.49649677
000020 8c 1a 8f be fa 82 a0 bd 61 22 8b 3b e2 2b 96 3e
       -0.2794994 -0.07837482 0.0042460416 0.29330355
000030 65 e0 12 bf 43 46 df 3e b9 e5 c5 3d a1 e2 c5 3d
       -0.5737365 0.43608293 0.09662957 0.09662367
000040 8a f7 a4 be 3a ed b0 3e 0b 34 0b bf 82 e7 bf 3b
       -0.32220107 0.3455599 -0.54376286 0.0058564553
000050 14 17 ac 3d 24 64 71 3c d8 95 7d 3d b1 b0 b2 3d
       0.08402839 0.014733348 0.06191048 0.087251075
000060 60 01 07 3d e5 d8 89 bd 54 66 80 3d 47 08 36 be
       0.032960296 -0.067308225 0.062695175 -0.17776595
000070 f8 6d 13 3e 06 76 2d bc a6 8b f8 3d b2 29 67 be
       0.14397418 -0.010587221 0.12136011 -0.22574499
000080 73 ee 37 3e 0e 07 85 be c3 c2 f4 bb ea 20 7a be
       0.17962055 -0.25981945 -0.0074695065 -0.24426618
000090 ee d7 3e 3e 8f f3 ce be ed aa 21 3f 18 33 10 be
       0.18637058 -0.40420195 0.6315144 -0.1408199
0000a0 fa c6 b5 3d 53 ad 10 be 7b 35 e2 3e aa a0 ce be
       0.088758424 -0.14128618 0.44181427 -0.40356952
0000b0 b0 4d 8e 3d 2e 4d bd bd 6c 83 94 3d e6 71 1d be
       0.069484115 -0.092432365 0.07251629 -0.1537548
0000c0 ea f8 22 3e ab 28 c2 bd f6 6d ab bd 57 0f 19 3d
       0.15915266 -0.09480413 -0.08370583 0.037368145
0000d0 e2 d7 42 bf c1 ee 51 3d 90 11 72 3c fc d8 15 3e
       -0.7611066 0.051253084 0.014774695 0.14633554
0000e0 c9 58 4e 3e 59 65 8f 3f 14 52 22 3e 5e 90 93 bd
       0.20151056 1.1202804 0.15851623 -0.0720527
0000f0 20 04 4d bf 1b e1 8f 3f 6c 69 ed c0 29 88 07 40
       -0.8008442 1.1240572 -7.419119 2.1176856
000100 07 ff 43 bf eb 5e cb 3d 01 17 d1 3e 2c 4c e1 3f
       -0.76561016 0.099302135 0.40837863 1.7601371
000110 c3 34 fc bd fb 45 da bc 3f 57 5f bd 4b 8a 16 be
       -0.12314751 -0.026644697 -0.054526564 -0.14701192
000120 a2 a0 32 bf 34 13 0e 3d 7f c7 86 3c dd d5 5b 3d
       -0.69776356 0.034686282 0.016452549 0.053670753
000130 c6 b8 92 be 87 80 df 3e 9c 64 a8 bd 83 cd 96 3d
       -0.28656596 0.43652746 -0.08222315 0.07363417
000140 75 51 cc 3e dc da 28 be c1 f7 14 3f bf d2 26 bf
       0.39905897 -0.16489738 0.5819054 -0.65165323
000150 b4 d4 84 be 09 ee 20 bf 61 95 27 bc 4f 5f 2d bf
       -0.2594353 -0.6286321 -0.010228486 -0.67723554
000160 bc b6 6d 3e 72 3a 26 3f 84 44 8f 3e d7 64 d3 3e
       0.23214239 0.6493293 0.2798196 0.41287872
000170 10 e8 41 3d 88 7b 2a 3e 21 b3 e8 be f5 93 43 3c
       0.047340453 0.16648686 -0.45449165 0.011937131
000180 47 73 08 3d a3 07 12 bf 66 df c6 3e 6c 3a ab 3d
       0.033313062 -0.570429 0.38842314 0.083607525
000190 e0 28 c0 bd 47 2b 98 be e2 26 04 3f 7f 2f 21 be
       -0.09382796 -0.29720518 0.5162183 -0.15740775
0001a0 66 bf da bd c0 9e b3 3e 6e 3c c3 be 6e 1f 36 3f
       -0.106810376 0.35082054 -0.38132042 0.7114171
0001b0 18 84 3a bf 52 7f c4 3d ce d2 3d be 09 c3 46 3e
       -0.7285781 0.09594597 -0.18537447 0.19410338
0001c0 ab 1f 75 be 24 fe 15 3d b9 04 68 3f f1 0e c9 3d
       -0.23937862 0.03661932 0.90632206 0.09817303
0001d0 be 9a 44 3e ef db 8d be 52 0f 33 3d d8 22 5c bf
       0.19199654 -0.2770686 0.043715782 -0.8599067
0001e0 69 2e 8a be 02 7b 6d 3e f8 bc b1 be f1 e1 05 3f
       -0.26988533 0.23191455 -0.34714484 0.52297884
0001f0 53 99 63 bd 65 10 e4 3c be 03 8a be 20 db b4 3e
       -0.055566143 0.027839849 -0.2695598 0.3532343
000200 1d b9 ac bd 6b 41 77 3c dc 6e 7d 3e 64 cf 82 be
       -0.08433745 0.01509128 0.24749321 -0.2554885
000210 d0 59 1e 3f c1 f4 02 bf 55 fd 06 be 1b 98 d5 be
       0.61855793 -0.51154715 -0.13182576 -0.4171761
000220 a5 db 24 3e 7c 04 00 bf 36 8b eb bd 8d 90 3b 3f
       0.16099413 -0.5000684 -0.11501162 0.7326744
000230 58 8e 84 3e b9 f7 5f 3e f9 42 83 bd 6e 01 d6 3e
       0.2588985 0.21871842 -0.064092584 0.41797966
000240 78 e0 2d bf 5e c1 2b bd 41 22 9e 3d a1 23 0e bf
       -0.6792064 -0.041932456 0.07721377 -0.55523115
000250 3f 54 02 3f c6 a5 79 bc 0c df df bb fb 78 5f 3b
       0.509098 -0.015237277 -0.006832009 0.003409921
000260 f0 13 dd 3d 7f 2e bc bd e3 0f 33 3d d6 9e ee bd
       0.107948184 -0.09188556 0.043716323 -0.11651389
000270 3a de 6d bb 50 87 b8 be 65 4b 7d 3d 88 68 1e 3d
       -0.0036295787 -0.36040735 0.06183948 0.038673908
000280 0b 8b b2 3d 05 8a b9 bd 5f b2 54 3f a4 8a 91 3e
       0.087179266 -0.09059528 0.8308467 0.28426087
000290 6e 70 4b bc 16 d7 36 be 00 0b a3 3d 74 98 4a 3d
       -0.012416942 -0.17855486 0.079610825 0.049461797
0002a0 1c eb 0f bf 3f 2e 25 be 65 5f bf 3c 0a 27 8d 3d
       -0.56218123 -0.16130923 0.023360917 0.06892212
0002b0 f1 e9 cf bd d2 d3 e4 bd 32 0b 0a 3e e5 3a 1a bd
       -0.10152043 -0.11173214 0.13480833 -0.037653822
0002c0 52 c0 05 be 00 ea d1 3d f6 8f 1e 3d f9 de 82 bb
       -0.13061646 0.1024971 0.03871151 -0.0039938656
0002d0 32 91 69 bd 07 f7 cf bd 4f 04 83 be 7b 35 ea 3d
       -0.057023235 -0.101545386 -0.25589225 0.11435982
0002e0 c6 bd 41 be 32 52 4f 3e 22 83 35 be dd 84 55 3f
       -0.18920049 0.20246199 -0.17725804 0.8340586
0002f0 a1 02 f7 3e 8b 5a cd bd 5f 76 04 3e cb a0 da 3d
       0.48244193 -0.10027035 0.1293578 0.106752
000300 45 54 ed 3d f3 7e 53 bf 81 0d 11 be c2 01 75 3c
       0.11588339 -0.82615584 -0.14165308 0.014954032
000310 c7 af 43 be 0a 2a 44 be 24 87 20 be 71 96 4c 3e
       -0.19110022 -0.19156662 -0.15676552 0.19979264
000320 bf 98 2d be 37 af be 3d 6f 2c 20 3d ee aa 2e 3e
       -0.169528 0.09310763 0.039104875 0.17057392
000330 da fb b7 bb c1 75 e0 3c a9 9c dd 3e b0 6f e8 be
       -0.00561474 0.0273999 0.43283585 -0.4539771
000340 e4 62 56 3c 07 98 ad 3d 7b a1 80 3d ae 2e 97 be
       0.013085101 0.084762625 0.062808 -0.295278
000350 cd f1 39 3e f5 99 66 3e 78 1b 22 be 89 78 01 3e
       0.18158646 0.22519667 -0.15830791 0.12643637
000360 17 66 90 3b 39 1c 28 be 5f 73 16 bf 35 fb 7b 3d
       0.0044067013 -0.16417016 -0.5876979 0.061518867
000370 5c dc 42 be 10 42 75 3d 26 83 ca bd 82 59 9a 3e
       -0.19029373 0.059877455 -0.09888296 0.30146414
000380 b8 ac 2c 3e 11 31 5a 3d 6d 62 f4 3d d7 e1 d7 3d
       0.16862762 0.05326945 0.11932836 0.105411224
000390 d7 f4 01 3e 01 79 25 3b 40 c6 0e 3e cf 86 42 3e
       0.12691055 0.0025249126 0.13942814 0.18996738
0003a0 e6 60 ba 3e cb 85 5a 3e e5 9d c1 3d 44 b5 fa 3d
       0.36402053 0.213401 0.09453944 0.12241605
0003b0 20 38 a1 3e 20 95 36 3f 69 02 ae 3e ee b4 20 3e
       0.31488132 0.71321297 0.33986214 0.15694019
0003c0 01 34 f9 3d c1 2c e1 3d f9 52 79 3e fa e5 64 3e
       0.12168122 0.10994864 0.24348058 0.22353354
0003d0 37 91 a6 3d b9 06 1a 3d 45 69 b3 3d 07 52 07 3e
       0.08133166 0.037604067 0.08760313 0.13214885
0003e0 4d 91 cd 3d a3 f8 dd 3c f2 0c 8d bc 3a 58 4a be
       0.100374795 0.027096098 -0.017218087 -0.19760218
0003f0 24 3c 8b be 06 b3 2b be 76 b6 46 bd 4e d2 65 be
       -0.2719432 -0.16767511 -0.048513852 -0.22443506

head_conv.0.bias f4 [56]
000000 5a 97 04 3e 41 fc cd ba 9f d1 c7 bd 70 5b b2 be
       0.12948361 -0.0015715436 -0.09756779 -0.34835386
000010 dd 75 93 bd 09 6d 13 3c fe 12 59 be 09 e9 47 3f
       -0.07200215 0.008998164 -0.21198651 0.7808996
000020 86 9d 8b 3e 14 f3 39 3a 20 77 84 3e 2a 3b 12 be
       0.27268618 0.00070934114 0.25872135 -0.14280382
000030 a6 b6 39 3c 6d 2e 28 be 9f a6 e2 bf 3a ad 64 be
       0.011335051 -0.1642396 -1.7707099 -0.22331706
000040 f2 83 98 be b8 89 c6 3e 63 6e af 3e a7 04 39 bf
       -0.29788166 0.38776946 0.34263906 -0.72272724
000050 d2 13 e8 bd de 29 12 3d e8 72 ae bc 95 67 03 3e
       -0.113319054 0.03568446 -0.021295026 0.12832482
000060 82 19 de 3c 8c 58 d6 3d b1 ee 0a 3e b1 70 af bc
       0.027111772 0.10466108 0.13567616 -0.02141604
000070 67 67 b7 bd 27 85 9a bd e3 a6 f5 3a 80 9a 54 be
       -0.08955269 -0.07544928 0.0018741753 -0.20762062
000080 ad 8b 3d bc 06 ab f8 3b a0 9d c5 3c 40 60 84 bf
       -0.011568946 0.007588747 0.024123013 -1.0341873
000090 56 47 98 3e 70 aa 2b 3e 58 b3 39 be ef cc be bb
       0.29741925 0.16764235 -0.1813482 -0.00582277
0000a0 d2 20 76 be b8 43 56 bd 4b 3c 1b 3d ca 37 80 be
       -0.24035957 -0.052310675 0.037899297 -0.25042564
0000b0 2d 5e 16 3b 8b ef 54 bd 74 05 89 bd bc 25 82 bd
       0.0022944317 -0.05198626 -0.06690493 -0.063548535
0000c0 94 a2 1e bd e8 1c f2 bd 68 16 20 3e a7 e5 66 3e
       -0.038729265 -0.1182192 0.15633547 0.22548543
0000d0 e8 79 00 3e 4e bb f8 bd 03 71 34 3d 60 ca e1 3c
       0.12546504 -0.121451005 0.04405309 0.02756232

body_conv.0.0.weight f4 [12, 56, 1, 1]
000000 c0 52 fa 3b 78 11 17 bb 92 4b 7f 3c 42 34 bc 3e
       0.007639259 -0.0023051184 0.015581982 0.3675862
000010 2b bb af 3c ff 24 17 3c a3 a2 2b 3b 7e 15 b7 3c
       0.021451553 0.009225129 0.0026189468 0.022349115
000020 31 a5 e2 ba 94 d8 94 3b ef 5b a7 3b c1 eb 57 bc
       -0.0017291663 0.0045424197 0.005107395 -0.013178767
000030 95 f2 79 3b 01 44 93 3c cb ef 53 bb 6a 36 fd bc
       0.0038138975 0.017976763 -0.0032338973 -0.030909736
000040 c3 c5 26 bc e6 65 a5 ba 95 72 c0 be 80 1e a2 bc
       -0.010178986 -0.0012618869 -0.3758742 -0.019789934
000050 30 63 ca 3b c3 1c 71 bb f8 82 96 ba d3 36 31 3d
       0.006176375 -0.0036790825 -0.0011483124 0.043265175
000060 32 d2 06 bc 1a d3 3f 3d d0 5b d3 3b 55 ee cd bc
       -0.008228825 0.04683218 0.006450154 -0.02513806
000070 bd bc 10 3d 35 60 e1 3c 4b f0 98 bb 12 5a df bc
       0.035336245 0.027511695 -0.004667317 -0.027264629
000080 2d 2e 3e bc de 8d d2 ba 72 b4 86 3a f7 ae 21 3c
       -0.011607689 -0.0016064008 0.0010277166 0.009868375
000090 30 94 53 bb 06 0e ef bc 19 5e e4 3a df d0 04 3c
       -0.0032284372 -0.029181492 0.0017423063 0.008106439
0000a0 2c fc 04 bf ab 5e 46 bc 7b f6 bc bb f6 ed 50 bc
       -0.51947284 -0.012107532 -0.0057666874 -0.012752047
0000b0 c9 cd 50 bc 61 5f 61 3b 86 09 a9 3b 83 e3 84 bb
       -0.0127443755 0.0034389126 0.005158606 -0.004055442
0000c0 04 47 04 3d ac 9d 63 3c b0 56 5e bc 2e 10 8d 3c
       0.03229429 0.013892572 -0.013570473 0.01721963
0000d0 6f be 90 3b 6b 20 2c bd 44 5c 58 bc 6e d3 12 bc
       0.0044172327 -0.042023104 -0.013205592 -0.008961542
0000e0 a8 ac c7 bc 39 87 f2 3b 78 f8 ff bc b2 fc c0 3a
       -0.024374321 0.0074013737 -0.031246409 0.0014723747
0000f0 3f 80 26 bd de 0d df bc 03 77 4a 3a 87 35 64 ba
       -0.04064965 -0.027228292 0.00077234226 -0.0008705486
000100 fd 9c b1 bc c5 2b 1f 3c 2e ca 8e bc 31 13 12 3d
       -0.021681303 0.009715025 -0.017430391 0.035662834
000110 f9 5f e6 bc 25 e1 09 bd ad 33 65 3a 05 b1 60 3d
       -0.028121935 -0.03366198 0.0008743357 0.05485632
000120 9f 2f 7e 3c a9 38 2b bb 6a a0 e0 3b 14 53 0f bb
       0.015514283 -0.0026126301 0.0068550603 -0.0021869587
000130 73 68 7b bc d0 34 83 3c 1f 78 4c 3b b5 2e 13 3b
       -0.015344727 0.016016394 0.0031199527 0.002245826
000140 7b 53 10 3c f4 c3 10 3f f9 a3 53 bb 56 c4 40 3d
       0.008808966 0.56549 -0.003229378 0.04706224
000150 1e 37 8c bd 70 10 48 bd fc 83 5f 3c 10 f4 f5 ba
       -0.0684645 -0.0488438 0.013642307 -0.0018764753
000160 7e 52 19 3d b8 d8 f7 3b 5d c4 8c bb 97 4c d6 bc
       0.037432186 0.0075636767 -0.0042958693 -0.026159568
000170 17 7b a6 3a a4 c7 70 3d 09 62 14 bc f2 f8 4a bc
       0.0012701479 0.058784142 -0.0090565765 -0.012388455
000180 10 b6 57 bc 1c 53 9e 3c 8c f9 9a 3c 2f dc 1b 3d
       -0.013165966 0.019326739 0.018917821 0.03805178
000190 95 da f9 3d 41 ea 06 3b 67 9c eb bb e5 91 33 3c
       0.12199894 0.0020586404 -0.0071902755 0.010960077
0001a0 bb 1c 7c bd e7 8e db bc ff a5 da 3c d3 39 27 bd
       -0.061550837 -0.02680154 0.026690481 -0.04082663
0001b0 3d 6d 05 bc 6e e9 81 bf cc 6c e0 3c e3 8a b6 3b
       -0.00814372 -1.0149362 0.027395628 0.005570756
0001c0 e6 51 64 3d 02 e3 af 3c 60 08 81 bd e0 a0 82 bd
       0.055742167 0.02147055 -0.063004255 -0.06378341
0001d0 89 c1 42 bd 6e 0e 24 3d 74 34 4e 3d e1 02 9f bd
       -0.04754785 0.040052824 0.050342992 -0.07764221
0001e0 f4 64 2f bd 35 5c a7 3e 97 37 2b 3e 2f 52 fc bd
       -0.042820886 0.32687536 0.16720425 -0.12320363
0001f0 37 7e b5 3e 33 50 f1 bc cc 13 34 3e 6c f6 d2 3c
       0.35447857 -0.029457187 0.17585677 0.025752269
000200 d9 bf ab bd bd 00 53 3e a7 43 10 3d e4 a3 af 3c
       -0.083862014 0.2060575 0.03522077 0.021440454
000210 76 21 b8 3d 72 ae 5a be b8 90 31 3d e4 a3 d8 bc
       0.08990757 -0.21355608 0.043350905 -0.026445337
000220 21 7d 1f 3d a7 c3 69 be 8e 73 64 3e 92 8c 4a 3d
       0.03893769 -0.22828542 0.22309706 0.049450465
000230 fe af 89 bd fb c9 c3 bc da d2 95 bc 57 32 6d 3b
       -0.06723021 -0.023900023 -0.018289018 0.0036193335
000240 32 75 44 be 6e 7f 60 bd ce 17 ee bc 15 35 8f bc
       -0.19185331 -0.054809026 -0.029064085 -0.017481366
000250 f0 6e c9 bd 33 11 bf 3d 4b ac c0 3b d3 6f d5 bd
       -0.09835613 0.09329452 0.005879914 -0.104217194
000260 0f 3b 5a bd 51 fe 46 3d d7 c7 84 be f0 9b 77 be
       -0.05327898 0.04858238 -0.25933716 -0.24180579
000270 45 2a e1 be fa dd 52 be 33 05 3a bd ba 87 aa bd
       -0.43977562 -0.2059249 -0.045415115 -0.08326669
000280 12 8b 38 bd 18 3e 2a bd 4c 82 98 3d 22 56 a1 3e
       -0.045054503 -0.041563123 0.07446727 0.31511027
000290 19 c0 96 3e bb d1 e7 3d 11 94 13 3d 11 8c 59 bc
       0.29443434 0.113193 0.03602988 -0.013278023
0002a0 d5 67 ef bc 4a 56 1b 39 84 3a f2 bb e7 1f be 3a
       -0.029224316 0.00014814097 -0.0073922295 0.0014505357
0002b0 1b 0c 3d 3b ec ed 71 bb d1 c6 9a 3c 2b 03 33 3c
       0.0028846327 -0.0036915494 0.018893631 0.010926048
0002c0 73 37 2f be 41 b0 54 bc 69 11 d3 bb 33 46 08 3d
       -0.17110996 -0.012981475 -0.0064412844 0.033270072
0002d0 50 c5 e4 3b 9c d0 55 bc 79 90 a7 bb 27 3d 00 ba
       0.0069815293 -0.013050225 -0.005113658 -0.0004891925
0002e0 02 0d fd ba e1 ed d5 bb 72 b2 f1 39 5b d4 78 bb
       -0.0019306245 -0.0065286015 0.00046100054 -0.003796837
0002f0 1f 01 05 3a 5a 4a 2c 3c 28 cf 45 3b d4 d9 61 3b
       0.00050737144 0.010515774 0.003018329 0.003446211
000300 66 67 13 bc 0f 75 78 bc c0 79 29 b9 38 b5 31 bc
       -0.00899682 -0.015164628 -0.00016162451 -0.010846429
000310 44 64 06 bc 87 56 a6 bb ac 6c 79 ba 9c 42 02 bb
       -0.008202616 -0.005076233 -0.00095147896 -0.0019876128
000320 3c 40 f8 3b 08 8c 2a 3b 10 d3 ab 39 c0 7f 02 bb
       0.0075760167 0.0026023407 0.00032772915 -0.001991257
000330 dc ab 74 ba 35 ec 83 ba 46 3a 03 bc b0 5a 60 b9
       -0.00093334704 -0.0010064902 -0.008009499 -0.00021396088
000340 18 f8 16 bb 0b 89 1d bc 92 c3 e0 3b 01 df 5b bf
       -0.002303606 -0.009615193 0.0068592513 -0.8588715
000350 a2 87 88 3e 67 e9 18 3c 36 81 a6 3b 90 02 68 3b
       0.2666598 0.009332991 0.005081321 0.0035401918
000360 e3 47 95 bb 21 b0 b4 bc 58 d5 a1 ba 68 26 ed 3e
       -0.0045556887 -0.022056641 -0.0012346907 0.46318364
000370 88 c2 96 bc ad 54 ef 3b 26 74 78 bb ea 6e e0 bc
       -0.018403307 0.0073037953 -0.0037911027 -0.027396638
000380 72 d5 85 bc 27 0c c6 b9 e9 0b bb bb cf 8d bf 3c
       -0.01633713 -0.00037774557 -0.005708207 0.02338305
000390 1c 0e 15 bb 23 6a f6 38 2c 6c 7a 3c f9 73 ee bd
       -0.0022744006 0.000117499636 0.015284579 -0.11643214
0003a0 34 87 3b be 28 fa 8b b9 0d 94 0d bb f5 48 d4 3c
       -0.18313295 -0.00026698527 -0.0021603138 0.025913695
0003b0 2b d2 8c bb 08 f7 94 bc ea 7a 01 bc 7f ce 33 3a
       -0.004297515 -0.0181842 -0.00790284 0.00068590784
0003c0 78 0e 56 ba 8a 4b 13 bc 7d 8f d8 bc 33 88 00 3e
       -0.0008165608 -0.008990178 -0.026435608 0.12551956
0003d0 51 c2 cc 3b 50 95 3b 3c 75 6e 87 3b 90 fc b0 be
       0.0062487503 0.011449173 0.0041330406 -0.3456769
0003e0 2e 3f c9 bb cb a6 af bb 5d a2 4d bc ab b8 60 ba
       -0.006141565 -0.0053604594 -0.012550917 -0.00085724395
0003f0 32 2f 43 bc 42 a3 e5 bb 51 5a cb b9 84 02 33 3e
       -0.011913108 -0.0070079872 -0.00038786468 0.17481428

body_conv.0.0.bias f4 [12]
000000 8c 70 59 3e d8 b7 47 bc 8b 56 95 bd 64 33 ed ba
       0.2123434 -0.012189828 -0.072918974 -0.0018096981
000010 91 cd 65 3e 97 d9 31 3f de ca a3 3d 2b e2 8a bd
       0.22441699 0.6947264 0.07997678 -0.06781419
000020 a5 e6 1d 3e 54 cb 64 be 4e a9 2f bf 3c ab db 3c
       0.15420015 -0.22343189 -0.68617713 0.02681505

body_conv.1.weight f4 [12, 12, 3, 3]
000000 b7 fd dd bd fb c6 75 3e 60 08 ea bd 51 bb 8b 3e
       -0.10839408 0.24001686 -0.11427379 0.2729135
000010 21 8a 39 bb be 35 e2 be df d1 ea 3c bb 4f 79 3e
       -0.002831109 -0.44181627 0.028664527 0.24346821
000020 a5 42 ef bd a9 48 c5 bc 95 35 e2 3d e9 7e 4a bc
       -0.11682633 -0.024082499 0.11045376 -0.012359359
000030 59 93 41 be 31 a4 c9 3e 7c b3 97 be 03 b9 9e 3c
       -0.18903865 0.3938308 -0.29629123 0.01937533
000040 ef 90 45 3d 6d 4f 60 3b c9 e7 a0 ba 11 47 ca be
       0.048233923 0.003422703 -0.0012276109 -0.39507344
000050 3d 02 9c 3d 97 15 80 bd a2 d2 ab 3e 16 94 69 be
       0.076176144 -0.06254118 0.33559138 -0.22810397
000060 b9 20 6f 3d 82 b8 0a 3d dd b7 e6 3c 28 1c c4 bc
       0.058380816 0.033867367 0.028163845 -0.023939207
000070 6a 78 89 be db 04 35 bd 45 7e 4d be 6d e0 85 3f
       -0.2684968 -0.044194084 -0.20067699 1.0459114
000080 d9 6a 82 3c e7 e8 15 3d ed fe be be 5d 3a 92 3c
       0.01592009 0.036599066 -0.37303868 0.017850095
000090 6a 8f df 3d 2f 40 90 3e 26 ef 73 3e 52 ba 1d bc
       0.10916026 0.28173968 0.23821697 -0.009626942
0000a0 39 89 09 bf f1 ab a7 bd b1 e6 24 3c 3c f8 e8 3c
       -0.5372501 -0.08187092 0.010064767 0.02843868
0000b0 95 dd 28 3d 89 65 96 3d e9 e8 38 bc ea 37 9b bc
       0.041226942 0.07343585 -0.011285999 -0.01894756
0000c0 9c 64 a7 be 14 29 a3 3e e6 b7 cc bd e1 b5 0f 3e
       -0.32693946 0.31867278 -0.09996013 0.14034225
0000d0 3d 59 bc bd f3 ef d8 3c c1 5b 2c bb 8b 03 1f 3e
       -0.09196708 0.026481604 -0.0026299807 0.15528695
0000e0 d9 c6 aa 3c 25 1f fe bd 28 b1 4c bd a5 e3 ba 3d
       0.020846771 -0.12408284 -0.049973637 0.09125451
0000f0 30 b7 9e 3b 3e cb c1 bd 6d 0a d5 3d 44 47 f8 3d
       0.004843615 -0.094625935 0.10402379 0.12122968
000100 23 82 ef 3d fe c7 e0 bd 5b e9 fc bd b0 20 11 3d
       0.116947435 -0.109756455 -0.123491965 0.035431564
000110 5d 13 9a bd 38 73 88 3d 28 25 e8 3d 14 16 11 bd
       -0.075232245 0.06662601 0.11335212 -0.035421446
000120 ba c7 b6 3b 76 45 3d be 81 8f fb 3b d7 c8 e0 3d
       0.0055780085 -0.18483528 0.007677019 0.10975807
000130 68 b2 4f 3e a4 19 0c bd e2 3e 88 bc a7 ab c3 bd
       0.202829 -0.03420414 -0.016631547 -0.095542245
000140 3a cb 53 bd db 2c b9 bd d5 78 12 be e6 8e 44 be
       -0.051707484 -0.090417586 -0.14303906 -0.19195136
000150 9f 9f 78 bc 47 47 0c 3f b6 c1 d0 bc 2b 0e e4 bc
       -0.015174775 0.5479626 -0.025482994 -0.027838787
000160 3e 70 2d bd 09 85 5e 3c 09 46 91 bd 54 f1 6d 3c
       -0.04234337 0.013581523 -0.07093436 0.014522869
000170 ee 2e 37 3d d8 91 ba 3e 6e b6 59 be 5c 7a d9 3c
       0.04472249 0.36439395 -0.21260998 0.026547603
000180 6b 5f 1b be 8e 4e 2d 3d fc 36 30 bd fc f1 a4 3d
       -0.15173118 0.042311244 -0.043021187 0.08053967
000190 8d 34 a4 3e fd 21 28 3d 4c bf 42 be 8a 30 12 be
       0.32071343 0.04104804 -0.19018286 -0.14276329
0001a0 2f a2 83 3d 19 f9 8f bd ef a1 00 be 86 2c 67 3d
       0.064274184 -0.070299335 -0.12561773 0.056438945
0001b0 ee dd 19 be 1d 00 6e 3e 07 05 ab be c8 b8 91 3e
       -0.15026066 0.2324223 -0.33402273 0.2846129
0001c0 a1 52 a0 be a6 bc 1d 3f ab 6d d0 be ed 74 77 3f
       -0.3131304 0.6161598 -0.4070867 0.9666279
0001d0 c0 d3 6a bf 54 e8 b6 3c ab e5 e8 bd 38 35 48 3d
       -0.91729355 0.02232758 -0.11371931 0.04887888
0001e0 12 a1 2b be 01 49 2a 3f cc 09 a5 be 6a ad 31 bd
       -0.16760662 0.66517645 -0.32234037 -0.04337827
0001f0 16 19 32 bf be 82 38 3e d9 ce 0b bd 0f 3b 97 3e
       -0.6956953 0.18018624 -0.034132812 0.29537246
000200 1d f8 88 bd 33 f5 92 be d1 0d af 3e a1 12 b7 be
       -0.06687949 -0.28702697 0.3419023 -0.357564
000210 fc 93 ad 3e 06 7d a3 3e b7 6b 13 3c c4 86 e0 bd
       0.33901966 0.31931323 0.008997849 -0.109632045
000220 70 68 c9 3d 53 54 04 bd 3e d3 5f 3e 9d 86 e7 be
       0.09834373 -0.03230698 0.21857926 -0.4521989
000230 d2 6a 87 be 18 81 9f be 83 e4 6f be 5b af ce bd
       -0.26448685 -0.31153178 -0.23427014 -0.1009204
000240 a3 84 79 3c 58 9b 94 bc 0a fa 7c 3d 34 c1 38 3d
       0.015229377 -0.01814048 0.061761893 0.045106128
000250 29 4b 81 be dc f3 3a 3d 29 c4 3e 3d df f6 30 be
       -0.25252655 0.04564272 0.04657379 -0.17281674
000260 99 0e 20 3e 94 33 fb 3c 6b 41 fd bd 7a f3 b5 3d
       0.15630569 0.030664243 -0.12365993 0.0888433
000270 8b 5b fd bd 1d 85 94 3e fe df 7a be b1 d0 97 3d
       -0.12370976 0.29007807 -0.24499509 0.074128516
000280 4d be 24 be d7 ec e0 3d e7 d3 08 be 85 54 40 be
       -0.16088219 0.109826736 -0.13362084 -0.18782242
000290 ef ca 73 bd fe 8b 8d 3c 5a 6c 93 be 1e 95 cc bd
       -0.059519704 0.017278668 -0.28793603 -0.09989379
0002a0 67 5f 1b 3d 80 75 ba 3e e9 eb 05 bc 78 de 07 be
       0.03793278 0.3641777 -0.008173921 -0.13268459
0002b0 95 95 36 bd aa 82 21 3d 5b 2c b5 3e 09 c3 52 3e
       -0.044576246 0.03943125 0.35385403 0.20582213
0002c0 17 9d 6d 3c f1 d9 85 be 14 b6 28 bf 92 b4 77 3e
       0.014502785 -0.2614284 -0.6590283 0.24189976
0002d0 6f 67 59 3d 06 6b 5d 3e 6c 7b 10 3e c2 39 08 3e
       0.053077158 0.21622857 0.14109582 0.13303283
0002e0 96 19 07 be 92 fd 28 3e 2b c4 69 be 6c 84 36 be
       -0.13193354 0.1650298 -0.22828738 -0.17823952
0002f0 2b 76 47 bd ac 58 cd bc ad 16 40 3e 21 dc a5 bd
       -0.048696678 -0.025066696 0.1875865 -0.08098627
000300 e2 54 3e be 66 64 db 3c 9c 72 26 be a0 23 8f bb
       -0.18587068 0.026781272 -0.16254658 -0.0043682605
000310 85 9e b4 3e 47 ac c4 bd fc 8a 85 bc a4 a0 96 3e
       0.3527719 -0.09603172 -0.016301624 0.29419434
000320 03 4d 48 bd 80 c6 8f bd cc 1e 85 be f8 32 34 3c
       -0.04890157 -0.07020283 -0.2600006 0.01099848
000330 ed c6 a0 bd 50 c2 19 3e bb d7 44 bd 25 8e d2 3b
       -0.07850442 0.1501553 -0.0480573 0.0064256364
000340 0a 1f 21 bd f9 50 83 bc b2 97 a3 be 64 9f 2f bd
       -0.03933624 -0.016029822 -0.31951672 -0.042876616
000350 fd ee 54 be 3d 62 4f bd 42 61 d9 3d 44 64 b1 bc
       -0.20794292 -0.050630797 0.106142536 -0.021654256
000360 9e a1 5f bd e4 ae 3a 3e 65 e5 63 3c b2 a9 14 3e
       -0.05459749 0.18230778 0.013909672 0.14517859
000370 07 70 46 3f 22 55 ce 3e 98 d5 45 be 4d ab a3 3e
       0.7751469 0.40299326 -0.19319761 0.3196663
000380 bc 53 0c be b2 57 cf bd 4c 12 64 be bf db cd bd
       -0.13703817 -0.101241484 -0.22272605 -0.10051679
000390 b9 cb 02 be a4 87 1f 3f ad 31 4b 3e ee c3 85 bd
       -0.12773027 0.62316346 0.19843169 -0.06531511
0003a0 5a 08 84 be 93 0b b1 bb e8 16 62 bd 4e 44 d5 bd
       -0.25787622 -0.005402991 -0.055197626 -0.10413419
0003b0 7e 22 a7 bd 36 3f 81 3e cd 14 7b 3c a6 c7 9a 3d
       -0.08160876 0.2524354 0.0153247835 0.07557611
0003c0 fd 20 ea 3d 6f a1 ef bd 65 14 aa bd 86 00 95 3d
       0.11432073 -0.11700713 -0.08304671 0.072754905
0003d0 b5 a0 d4 3d 0d 61 79 3b 04 c3 76 bd 47 45 0b bf
       0.10382215 0.0038052232 -0.060244575 -0.54402584
0003e0 de a5 71 3d 55 84 0a bd 56 35 ad 3e 9b 16 a4 3b
       0.058996074 -0.033817608 0.33829755 0.0050075776
0003f0 a1 5c 59 3d ed d9 12 bd 63 3c 48 bd 0e 53 90 3d
       0.053066853 -0.03585236 -0.048885714 0.070470914

body_conv.1.bias f4 [12]
000000 f4 33 a5 bc 9b d7 f8 3d 44 2e b7 bd 0b 15 d3 3d
       -0.020166375 0.121504985 -0.08944371 0.10306748
000010 13 0c 92 3d e5 a4 9c 3c 82 5b 80 be 53 aa 3a be
       0.07131209 0.019121597 -0.25069815 -0.18229036
000020 6b 74 02 bf be bd 84 bc 3f ab b9 3d 7d 42 7b 3e
       -0.5095889 -0.016203757 0.09065866 0.24537082

body_conv.2.weight f4 [12, 12, 3, 3]
000000 4d d1 00 3d 69 47 11 3c 27 f8 c5 3c 77 21 da bc
       0.031449605 0.008867123 0.02416618 -0.026627285
000010 5a c4 ab be cf 0a 68 bd e6 62 8a be 07 23 4a 3e
       -0.33548242 -0.056650933 -0.2702858 0.19739924
000020 18 74 5e 3d b1 69 88 3d bc ea 15 3d 19 a2 9e 3d
       0.054309934 0.06660784 0.036600813 0.077457614
000030 bb 47 64 be 43 46 f4 be 93 64 2d 3d 7f 22 55 3d
       -0.22292988 -0.47709855 0.042332243 0.05203485
000040 04 94 9e 3d b1 26 fd bd 73 56 f4 3e e4 0d 0b 3e
       0.077430755 -0.123608954 0.47722206 0.13579518
000050 92 bd 22 3e 0d 96 a3 bd df 0c 89 bf d8 48 b2 3e
       0.15892628 -0.07987604 -1.0707053 0.348212
000060 b5 b9 94 3d d5 39 53 bd 39 4e eb 3c 39 38 43 be
       0.07261983 -0.051568825 0.028723823 -0.19064416
000070 56 b5 5b be 9f e6 ee bd 54 89 07 be 9b 85 2a 3f
       -0.21455893 -0.11665081 -0.1323598 0.66610116
000080 ef 10 08 be 5d ba 24 3b 30 db 71 3e 73 99 a4 3d
       -0.1328771 0.0025135495 0.2361877 0.080370806
000090 fb 59 4b bd e1 ec 32 be 5d 04 da 3d fa b6 86 3d
       -0.04964636 -0.17473175 0.106453635 0.06577869
0000a0 16 2b 96 3e 5e b1 62 bd 3b 3d 8d bd 29 ce 98 3b
       0.29329747 -0.05534493 -0.068964444 0.004663248
0000b0 27 a3 af 3c 23 b4 9e 3c aa 83 a6 bc b7 31 c3 3d
       0.021440102 0.019373005 -0.020326454 0.09530967
0000c0 eb ed 78 be 88 e6 f8 3e f9 34 14 be 52 cc f7 bc
       -0.24309509 0.4861338 -0.14473332 -0.030248795
0000d0 29 86 8d bd d7 28 c6 bd 38 f2 6b 3e cb 3c 37 be
       -0.06910355 -0.09675758 0.23041618 -0.17894284
0000e0 e2 5d c7 3b 6e b1 aa bd e8 a9 2a 3f 65 4c b2 be
       0.0060841898 -0.08334623 0.66665506 -0.3482391
0000f0 8f 51 b8 bd 08 1d 14 be 7d a5 97 bd 66 71 00 be
       -0.08999931 -0.144642 -0.07404611 -0.12543258
000100 0d 72 51 be d6 2a 4a 3d 5e 7d 70 be 45 96 a8 3e
       -0.20453663 0.049357258 -0.23485324 0.32927147
000110 13 ce c0 bd 86 64 cc 3d b7 ce 92 be 2a bb 9b 3d
       -0.094143055 0.09980111 -0.28673336 0.07604058
000120 c1 01 b4 3c 37 d2 a5 3d f9 26 f8 3b 66 67 aa bd
       0.021973493 0.08096736 0.0075730053 -0.08320503
000130 ca 82 7b bd c2 34 12 be f2 42 12 3e 02 48 1a 3d
       -0.061404027 -0.14277938 0.1428335 0.03766633
000140 c5 25 3c 3a 73 83 89 3e 41 55 9b bd 57 29 14 3d
       0.0007177259 0.268581 -0.0758462 0.036172237
000150 b8 94 98 3c 10 28 fe 3e 2f dd 84 bb 3f 08 c5 3c
       0.018625602 0.4963994 -0.0040546875 0.024051784
000160 a6 9f 37 3d cb 97 3f 3c 2a 94 16 3b 7a ee 36 bd
       0.044829987 0.011693905 0.0022976496 -0.044661023
000170 15 d6 63 3d 11 bb 6b bd f8 c9 15 3e 69 26 56 be
       0.055624086 -0.057551447 0.14627826 -0.2091309
000180 7f 22 cb bd 52 8e bf bd d4 65 b7 bc c0 2c 02 be
       -0.09918689 -0.09353317 -0.022387423 -0.12712383
000190 83 2b 8f bc 84 18 f8 bd dc d0 ad b9 88 04 38 bd
       -0.017476803 -0.12114051 -0.00033152744 -0.044926196
0001a0 63 07 35 3e 1c 0e c1 3d 8a 22 14 bd 02 8a c4 3d
       0.17678599 0.09426519 -0.03616575 0.095966354
0001b0 b6 f2 f9 bd 4a 99 b8 3c fe f8 d4 bc e5 62 dd 3d
       -0.122044966 0.022534031 -0.025997635 0.10809878
0001c0 34 6c 39 bf db 17 80 3e 48 31 a7 3e b5 22 cf 3d
       -0.7243073 0.250182 0.32654786 0.10114042
0001d0 04 7e 9d 3d 12 7c 7a bd 54 52 69 3d a6 f7 a6 bd
       0.07690051 -0.06115348 0.05696328 -0.08152704
0001e0 15 43 44 3e 43 9a 18 3e d1 33 ee bd b4 2d c3 bd
       0.19166215 0.14902596 -0.11630977 -0.095302016
0001f0 5e e3 df 3c dc 5a a9 bd 98 27 c6 bd c3 d6 5a 3c
       0.027330097 -0.08269283 -0.09675521 0.013356867
000200 41 cd 66 bd ba 17 ae 3b e1 f4 2d be f8 aa 93 3d
       -0.05634809 0.005312887 -0.16987945 0.07210344
000210 6e d2 8d 3b ab dd 4a 3e 54 6e 30 3d 7b 2e 79 bd
       0.0043280637 0.19811122 0.043073967 -0.060835343
000220 5c 14 fd bd d1 93 02 bd c5 ea 3c 3d 9c dc 90 3e
       -0.12357399 -0.03187925 0.04612233 0.28293312
000230 0d 65 b8 3d 32 85 79 bd 5e 35 10 be e7 1f 24 bc
       0.09003649 -0.06091804 -0.14082858 -0.010017372
000240 67 7b 7a bd 83 4a 29 3d 4b 7b d1 3d 6b 11 c5 3e
       -0.061152842 0.041330826 0.102285944 0.3848985
000250 07 45 42 bf 01 db 3e bd 53 31 18 3e 48 83 4d 3e
       -0.7588658 -0.046595577 0.14862566 0.20069611
000260 17 37 c6 bb b2 4a 01 3d 84 9b 06 3d 70 00 6c 3c
       -0.0060490477 0.031565376 0.032863155 0.014404401
000270 2a 45 a4 3e cc 82 59 3d ce 54 ba bd ca b0 3b be
       0.32084018 0.053103253 -0.090982065 -0.18329158
000280 1b 0f ba bd 36 fd 8c bd df 21 c6 3d d5 4e 2b bc
       -0.090849124 -0.06884234 0.09674429 -0.010455807
000290 01 72 95 bb 64 6a b2 3d dc f4 ee bd 8f 82 ac 3d
       -0.0045607095 0.08711699 -0.11667797 0.084233396
0002a0 6e 45 e4 bd 0b 8c 30 bd 90 20 8f 3c 40 79 91 3d
       -0.11146055 -0.043102305 0.017471582 0.07103205
0002b0 f9 53 22 bd c8 6a e0 3d fa ef 99 3e 9c 53 e1 be
       -0.039630864 0.10957867 0.300659 -0.440091
0002c0 e2 86 15 3e 01 8a ff bd 3e 1e 8f bb 3c 93 20 bc
       0.14602235 -0.12477494 -0.004367619 -0.009800728
0002d0 1e 55 0a bd 8f a7 4a 3d e1 5c 70 bd 64 10 79 3c
       -0.03377258 0.049476203 -0.058682326 0.015201662
0002e0 da 1d 1f 3e 7f 12 4b bc c1 65 80 bd da a2 16 3d
       0.15538731 -0.0123945465 -0.06269408 0.0367764
0002f0 1d 28 e2 ba 5a b5 23 bc 6e bb 6d be e1 51 56 3d
       -0.0017254386 -0.009991968 -0.2321603 0.05232418
000300 06 17 a1 be 5a 9a cc 3e 0e 1f 98 3d 38 bf 57 3d
       -0.31462878 0.3996151 0.07427798 0.052672595
000310 49 6f 17 3d 00 b0 6e bd 0e 26 74 3c 27 b7 6d be
       0.036971364 -0.058273315 0.014901651 -0.23214398
000320 1e 29 47 3e 18 e7 58 be a6 a4 c8 3e a1 c3 11 3e
       0.19449279 -0.21181905 0.39188117 0.14234783
000330 41 1b fd bd 38 40 d7 bd 01 53 6f bd c6 68 b4 bd
       -0.12358714 -0.10510296 -0.058428768 -0.088090464
000340 b5 e0 ba 3e 2f 02 58 be 58 2a f0 3e 6a 98 20 3c
       0.36499563 -0.21094583 0.46907306 0.009801963
000350 8e 73 90 3e 1a 44 7e 3d 79 6a d0 3e cf 82 15 be
       0.2821316 0.062076665 0.40706232 -0.14600681
000360 54 d7 a2 bd 21 d5 9a 3d 30 3a 4c 3d e8 6f f3 3e
       -0.07951227 0.07560182 0.04986018 0.47546315
000370 03 63 f5 be fb 11 7e 3e f4 09 10 3c dc eb a3 be
       -0.47927102 0.24811547 0.0087914355 -0.32015884
000380 31 04 f4 3c b7 21 48 3e 62 60 ff 3d 6e b5 08 3e
       0.029787155 0.19544111 0.124695554 0.1335046
000390 4a bd ba be 89 6e a4 be e2 73 4c be 7b e2 db 3d
       -0.3647254 -0.32115582 -0.19966081 0.10736557
0003a0 58 d9 65 3e f0 52 c8 3d 8d 46 19 bc 60 0e 38 bc
       0.22446191 0.09781444 -0.0093551995 -0.011233896
0003b0 14 56 fa 3c df d1 98 bd f7 fa 10 be b1 4a a2 3d
       0.030558623 -0.07461905 -0.14158235 0.079244025
0003c0 9d 84 f1 3c 3b f6 dc 3b 04 1b db 3d ae 42 28 3e
       0.02948218 0.00674322 0.10698512 0.16431686
0003d0 e4 f3 2b be a4 0c c8 3d 64 e4 13 bd e7 3c 30 3e
       -0.16792256 0.09768036 -0.036106482 0.17210732
0003e0 e6 f8 b2 bc 59 76 24 3d aa 70 db bd 10 80 13 be
       -0.0218472 0.040151928 -0.10714848 -0.1440432
0003f0 62 d2 42 bc 64 41 78 bd d0 9e 66 bc bb 37 7e 3e
       -0.0118909795 -0.060609236 -0.01407595 0.24825947

body_conv.2.bias f4 [12]
000000 69 c8 16 bc e6 64 20 be 2a b1 7c be db b9 3c 3b
       -0.009203055 -0.1566349 -0.24676958 0.0028797302
000010 be 7b 11 bc b0 74 85 3b 02 dd 0f bd bc 12 49 3c
       -0.0088796 0.004072748 -0.03512288 0.012272533
000020 8e a0 47 3c de bb a9 bb b0 dd 49 3b e2 0b 86 3b
       0.012184275 -0.005179866 0.0030802302 0.004090772

body_conv.3.weight f4 [12, 12, 3, 3]
000000 65 7b 9a bd d6 b0 6b be 26 27 b8 ba c1 b7 1e 3d
       -0.07543067 -0.23016676 -0.0014049753 0.03874946
000010 96 2a db bc f0 d7 1c 3e 0c 07 f6 3d 2a b4 ae 3d
       -0.026753705 0.15316749 0.12013063 0.08530457
000020 99 74 2b be 90 8e e8 bd 12 07 65 3e 8d c4 5c bc
       -0.16743697 -0.11355317 0.22365978 -0.013474596
000030 5c 95 69 bd 71 17 4a 3e da 0a 27 bf 6b d2 ed 3d
       -0.057027206 0.19735505 -0.65250933 0.116124
000040 85 85 6b bd 7a 64 b6 3e 46 b3 fb bd 3b 15 98 3d
       -0.05750038 0.35623533 -0.12290053 0.074259244
000050 aa 58 80 3d c7 08 fd 3c d1 62 b8 be 83 ae 50 3d
       0.06266911 0.030887974 -0.3601289 0.050947677
000060 e0 0f a2 3c 23 59 7f 3e 1b 09 8e 3c 11 6e 66 bd
       0.01978296 0.24936347 0.017338326 -0.05625731
000070 9c 1b cb bd b6 67 d0 bd 88 81 57 bc b5 45 85 3e
       -0.099173754 -0.10176031 -0.013153441 0.26029745
000080 a6 33 8e 3d fd bc b2 3c 8a 02 30 3e 65 b8 48 3e
       0.06943445 0.021818632 0.17188469 0.19601591
000090 d7 29 73 3c 87 7a fc 3d d1 97 12 bc 41 1a 09 be
       0.014841518 0.12328058 -0.008947329 -0.13388921
0000a0 d6 e2 be be 0d 98 fd 3a 6e 41 eb bd 74 2d 6f bd
       -0.37282437 0.0019347683 -0.11487089 -0.058392957
0000b0 02 a5 72 3e e9 be 19 bd 96 ed db bd 25 c4 1f be
       0.23695758 -0.03753558 -0.10738675 -0.15602167
0000c0 2d b0 89 3d 98 9a 36 3d 32 ec 11 be dc 56 56 3d
       0.06723056 0.044581026 -0.14250258 0.05232893
0000d0 82 6e b4 3d 5a ee 07 bd 1f c9 7f bc 5e 26 7b be
       0.0881014 -0.033186294 -0.015611916 -0.24526355
0000e0 e1 f1 88 3d 4e dd 74 be 40 6c 10 3f 5b 20 2b be
       0.0668676 -0.23912546 0.56415176 -0.16711561
0000f0 46 e1 f4 bd d2 08 d3 3e b1 29 83 be e0 d7 26 3d
       -0.1195703 0.41217667 -0.25617746 0.04073322
000100 3f e1 76 bd 6d e7 85 3d 60 3e 4c be 41 fe 81 be
       -0.060273405 0.065382816 -0.19945669 -0.25389293
000110 86 fa 45 3e cc 4f 90 bc dc 54 e4 3d 99 8b a3 bd
       0.19333848 -0.017616175 0.11148998 -0.079856105
000120 7b a9 2e bc 27 f6 a3 bd 6c 88 9d bd 71 12 9f 3d
       -0.0106605245 -0.08005934 -0.07692036 0.07767189
000130 79 4a 1d 3e bf af 34 be 99 1d 67 3c 15 97 23 3d
       0.1536044 -0.17645167 0.014106178 0.039939005
000140 f1 ed 19 bd 97 3a 25 be af c5 67 be 29 76 a2 3c
       -0.037580434 -0.16135632 -0.22634004 0.019831734
000150 b4 de 8e be 48 24 26 3f b3 c0 a1 be 20 64 39 bd
       -0.27904284 0.6489911 -0.3159233 -0.045261502
000160 2c 33 99 bd ba 75 24 3d 2f 44 8e 3d 37 d4 78 bd
       -0.074804634 0.040151335 0.06946599 -0.06074926
000170 14 13 11 bd 9f 35 f2 3b be 95 59 be 5b ae 7d 3e
       -0.035418585 0.007391646 -0.21248528 0.24773543
000180 f0 fa a4 bc c1 46 76 3d 27 f6 9a be be 4e b4 bb
       -0.020139188 0.06012607 -0.30265924 -0.005502551
000190 6d 0e 85 bd 98 19 a5 bd 9e c0 ab be 51 8d 1c 3f
       -0.06496892 -0.08061522 -0.33545393 0.6115313
0001a0 74 45 f2 bc c1 b2 2b be 62 f9 3a be 43 7c a9 3e
       -0.029574133 -0.16767408 -0.18259194 0.33102617
0001b0 73 e5 f8 3c f5 d5 bf 3d de 12 f4 3d de 6b 6f 3d
       0.030382847 0.09366981 0.11917661 0.05845248
0001c0 43 f4 38 bf 57 38 44 3e 5d 50 1b 3e 9b 22 86 3d
       -0.72247714 0.19162117 0.15167375 0.06549569
0001d0 a1 d6 bb 3c 69 6b f0 b9 4c 03 0f bd 6b 63 54 bc
       0.022929491 -0.00045856394 -0.034915254 -0.012963156
0001e0 6d be a9 bc 5d df f3 3d f3 c0 0d 3c 99 ce 55 bd
       -0.020720685 0.119078375 0.00865196 -0.05219898
0001f0 e6 71 84 3d 18 d3 50 3c cf cc ae 3d 36 b0 2a 3e
       0.06467037 0.012745641 0.08535158 0.16668782
000200 90 6b 76 3c dd 74 1c 3e e2 36 c2 3e 9c 3e 4d 3e
       0.015040293 0.15278955 0.37932497 0.20043415
000210 42 2a 5c bc f4 2a 17 3e 1d 9c 3f 3c 88 4f 00 3e
       -0.013437809 0.14762479 0.011694935 0.12530339
000220 62 6a 22 bd bf 79 86 3d c6 44 32 3e c9 83 71 bf
       -0.039652236 0.0656619 0.17409047 -0.94341713
000230 6d f7 80 bd cc 18 0b 3e 5a bc d4 3e c9 2d 10 3e
       -0.06297193 0.13583678 0.4154995 0.14079966
000240 35 d4 b9 3d 49 58 94 3d 10 b7 bc bc 6e 7a c6 bd
       0.090736784 0.072434016 -0.02303651 -0.0969132
000250 77 1c 51 be 8e 3a ed bc d9 b9 cd bc 4d 04 8c 3c
       -0.20421015 -0.028958585 -0.025113033 0.017091895
000260 2c 05 4e 3e ce 27 5a 3a 3c 26 51 bc 9d ff 61 3e
       0.2011916 0.00083219714 -0.012765463 0.22070165
000270 61 29 28 3c c9 e3 0e bf 92 5a 83 3e a0 30 a7 3c
       0.010263772 -0.5581632 0.25655037 0.020408928
000280 90 6c 4b 3e fb e0 07 be 09 19 b2 3d 3e 0a 0a bd
       0.19865632 -0.13269417 0.08696181 -0.033701174
000290 d3 30 ea 3b 99 fb e8 bd d6 06 75 be fe 17 ee 3d
       0.0071469336 -0.113761134 -0.23928389 0.1162567
0002a0 b0 6d 7e bc 59 80 0c 3d 9f 2f 18 3e 51 ba a9 bc
       -0.015529081 0.03430209 0.14861916 -0.020718725
0002b0 7e 4f 30 be 9d 4c 8a be 46 f2 15 bb 0b 9c 88 3f
       -0.17217824 -0.27011576 -0.0022880002 1.067262
0002c0 cb 53 bf be f9 68 d0 bd a8 fe 7e bd 27 d2 98 bd
       -0.37368616 -0.10176272 -0.062254578 -0.074619584
0002d0 49 ae bc bc 02 08 63 3d 00 91 46 bd cf e3 d3 bd
       -0.023032324 0.05542756 -0.048478127 -0.103461854
0002e0 ac b1 8b 3d 18 64 31 be 16 8e a0 3d 26 31 b5 3d
       0.068209976 -0.17323339 0.07839601 0.08847265
0002f0 8b e8 5a 3d 06 56 51 3e f7 84 29 3e fe 86 e6 3d
       0.053444427 0.20442972 0.16554628 0.112562165
000300 08 01 1e 3f 6e 14 6b bf 28 50 d7 bc 05 63 33 bc
       0.61720324 -0.9182805 -0.026283339 -0.010948901
000310 3b 1e 90 bd bf 73 7c bd 1a af 1d 3d 88 23 70 be
       -0.07037016 -0.06163382 0.038497068 -0.23451054
000320 b7 3b 96 3d c4 55 03 3d e3 ed 4f 3e 42 1b 1d 3c
       0.073356085 0.032064214 0.2030559 0.009589018
000330 5e c4 83 3d ae 0a 1f be 77 dd 01 bd fd d4 9f bd
       0.064339384 -0.15531418 -0.031705346 -0.07804296
000340 6f a6 bd 3c e1 e2 8b 3d 23 76 23 3e 84 3d a2 bd
       0.02315065 0.06830383 0.15963034 -0.079218894
000350 68 d9 12 bc 1e bf 4e bd 29 59 09 be b3 ae d0 3d
       -0.0089629665 -0.050475232 -0.13412918 0.10189571
000360 d9 5f d8 bd 90 9f 1d 3d 23 8d de 3d e7 c6 d9 bd
       -0.105651565 0.03848225 0.108667634 -0.10633641
000370 ce ea 3f 3e 7b ee 90 3e e8 f6 0c 3d 9a dc 69 be
       0.18741915 0.28306946 0.034415156 -0.22838059
000380 10 17 ac bd 23 31 4f bc 00 e1 0f 3f 94 fe 90 be
       -0.08402836 -0.012645992 0.562027 -0.28319228
000390 bf 5a fd bd 27 47 38 be 7a 20 75 bd 9f 0f 9f bd
       -0.12370824 -0.17995892 -0.059845425 -0.07766651
0003a0 7f 53 36 3d c3 dc f5 3d 75 08 9c 3d 3f 74 28 3e
       0.04451322 0.120049976 0.076188006 0.16450594
0003b0 ff 68 24 bd 8c 08 39 be 0d ee 4b bd 22 89 81 3d
       -0.040139195 -0.18069667 -0.04978757 0.06324984
0003c0 78 ec b8 bc c5 4f ba bd d3 93 39 3d 03 3d 1e be
       -0.022573695 -0.09097246 0.04530699 -0.15452962
0003d0 16 77 a7 bd 88 a8 1c be 17 3c 77 be 72 22 1d bf
       -0.08177011 -0.15298665 -0.24144016 -0.61380684
0003e0 9a e1 63 3e 74 ba a3 3d 36 39 51 bd eb 23 cb 3a
       0.22254029 0.079945475 -0.05107995 0.0015498375
0003f0 9a b9 ca 3d 49 f1 b0 3e 0b ab c8 bd 52 51 6f be
       0.09898682 0.34559086 -0.09798249 -0.23370865

body_conv.3.bias f4 [12]
000000 ae 14 18 bd 91 9b 2b bd 0c c0 31 3a b0 49 0b 3c
       -0.037129097 -0.041896407 0.00067806314 0.008501455
000010 6a b0 12 3a 7c 00 75 3e 29 e3 a3 bc a2 15 02 3c
       0.0005595746 0.23925966 -0.02000578 0.007939728
000020 5d 8a f7 3c 43 41 70 bc 8b 86 98 bc f4 5e 75 bc
       0.030217344 -0.014663997 -0.018618843 -0.014976252

body_conv.4.weight f4 [12, 12, 3, 3]
000000 75 43 35 be 26 fe 26 be 57 c3 ba 3d 85 2e 7d be
       -0.17701514 -0.16307887 0.09119289 -0.24724777
000010 38 9c b9 3e 2e 4a f5 bc 2d ec 4f 3d 71 f7 0b 3e
       0.36251998 -0.029942598 0.050762344 0.1366861
000020 0f 3d bf 3d f9 47 e4 3d 0b 18 08 3e 1d 42 64 3b
       0.09337818 0.1114654 0.13290422 0.0034829446
000030 12 e6 0f 3e 70 54 2b 3e dc b4 8a be dc 90 0f bc
       0.14052609 0.16731429 -0.2709111 -0.0087625645
000040 98 32 1f be a8 80 00 be f4 58 0c 3d a2 75 05 3d
       -0.15546644 -0.12549078 0.03426452 0.032582887
000050 c1 3d 4b bc 5c 9f 35 3e 7b b7 b9 be 72 2d 2a 3d
       -0.01240486 0.17736572 -0.36272797 0.041547246
000060 39 72 14 bc bf 97 7c bd 6a 98 35 3d 8b 04 d7 bd
       -0.009060436 -0.061668154 0.044334807 -0.104989134
000070 dc 2e 4f bc 6c 46 9f 3c e9 1c 37 be 1a 27 a2 3d
       -0.0126454495 0.01944276 -0.17882122 0.07917614
000080 a8 89 91 3d 05 bb a1 3d 18 ba a3 3d 95 ad a2 3c
       0.07106334 0.07896999 0.07994479 0.019858161
000090 68 fa b6 bc 1c 2b 1b 3e 95 c7 3e 3d 32 ee 09 be
       -0.0223362 0.15153164 0.046577055 -0.1346977
0000a0 a4 a2 2c 3e 13 18 cb be 3d de aa 3c 0b 3a 44 3d
       0.16858917 -0.39666805 0.020857925 0.047906917
0000b0 ba fb 1b 3e 54 6c 1a 3a 02 21 0f 3e c6 7f b9 bc
       0.15232745 0.0005890776 0.13977435 -0.022643935
0000c0 cd 52 3c 3d 7e 71 62 be c7 52 ae 3b f7 58 7c 3d
       0.045977402 -0.22113606 0.0053199264 0.06160828
0000d0 16 13 84 bd 27 a0 63 3d c2 ba 9f bc b6 33 99 bd
       -0.06448953 0.055572655 -0.019498233 -0.07480566
0000e0 41 f5 cf 3c 63 3b be 3d 2d 48 df 3d 81 10 6f 3b
       0.0253855 0.09288671 0.10902438 0.0036478343
0000f0 06 44 c3 3c d1 d3 57 be e3 08 2f bb 6a 82 86 3d
       0.023836147 -0.21076895 -0.0026708178 0.06567843
000100 5c 2e 07 3d 52 19 f6 3d 4e 68 09 3e d8 0b a1 bd
       0.033003196 0.12016548 0.13418695 -0.07863587
000110 fd 4e 42 be 76 c6 3b 3d d7 a4 5b be e0 4d c8 3d
       -0.18975444 0.045843564 -0.214496 0.097804785
000120 63 d6 ad 3d b6 cf 88 3a 70 02 a8 bc cf 1f 13 be
       0.08488157 0.0010437879 -0.020508975 -0.14367603
000130 fb 4f d8 bd d4 31 aa 3d 1f 0f 4b bc 4b b9 89 3e
       -0.1056213 0.08310285 -0.012393742 0.2689918
000140 09 95 12 be 43 a0 17 3c 32 c3 46 3d 4b bd 10 bd
       -0.14314665 0.009254518 0.048525997 -0.035336774
000150 ff 87 05 3d 90 96 1d be 80 75 a5 3d e5 68 b3 3c
       0.0326004 -0.15389466 0.08079052 0.021900604
000160 f8 59 32 bd d7 c2 3a 3d 19 58 00 3e 30 af 63 bd
       -0.043542832 0.04559597 0.12533607 -0.055586994
000170 28 d9 48 3d 32 c5 13 bd 42 d7 30 bf fa 0d 6e 3e
       0.04903522 -0.036076732 -0.6907846 0.23247519
000180 1e fb 6d bd 5a ac 84 3e de 19 b9 3d c3 05 c7 3c
       -0.058100812 0.25912744 0.09038137 0.02429474
000190 30 17 c3 bd d0 16 49 3d be e2 4c bd d2 24 b4 3d
       -0.09525907 0.04909402 -0.050020926 0.087960854
0001a0 f3 3e 24 bc eb 29 24 bd 05 18 7d 3c 84 df 8c 3d
       -0.010024774 -0.04007904 0.015447621 0.0687857
0001b0 fa d2 3c 3e 8e aa fc 3d ed ca 16 3d 88 39 bb 3e
       0.18439856 0.12337218 0.03681462 0.3656733
0001c0 d3 8a 4e 3e bf 91 18 3e e5 f7 ba 3d f2 ac 04 3d
       0.20170145 0.14899348 0.091293134 0.032391496
0001d0 dc 02 4b 3d fc f5 32 3d 44 ac 04 bd f2 a9 a5 bc
       0.049563274 0.04369162 -0.032390848 -0.020222638
0001e0 1c 22 d1 bd c5 52 4d 3e 75 ca 21 bd 7c fb 3d bd
       -0.10211584 0.20051105 -0.03949972 -0.046382412
0001f0 17 50 67 3c 91 db 40 bd 88 bd 2d 3d 33 4e e1 bc
       0.014118216 -0.047084395 0.04241708 -0.027503109
000200 5b be 20 bd e9 9d aa 3e f3 7f f8 3b 37 3b 03 be
       -0.039244037 0.333236 0.007583612 -0.12815557
000210 63 41 cb bd 62 18 2e bc f8 54 8a 3a 31 e8 87 bc
       -0.09924581 -0.0106259305 0.0010553887 -0.01659021
000220 fd 58 8c bd 53 67 c0 bc 86 a8 de 3c 64 3e 83 be
       -0.06852911 -0.023486769 0.027179968 -0.25633538
000230 d6 4e 2f 3e 5c 92 0c 3e 7a af 79 3d ab c6 e2 bd
       0.17119917 0.13727707 0.060958363 -0.11073049
000240 10 09 2b bd de 02 b1 3d b3 b3 16 3e 7a 1b 05 3e
       -0.04175669 0.08643125 0.14716987 0.12998763
000250 30 49 18 bd 18 d6 49 bd 9f 25 02 3e 1e 33 1b 3d
       -0.037179172 -0.04927644 0.12709664 0.037890546
000260 2a 01 05 3e 30 06 5f 3d d5 72 cd 3c 02 d7 96 bd
       0.12988725 0.05444926 0.02507917 -0.07365228
000270 32 b5 71 3e 5c 50 80 be bd d9 bc bb 48 51 01 3e
       0.23604277 -0.2506131 -0.005763261 0.12628663
000280 88 c2 dc bd d5 1c a5 bc 04 5b c3 bd 59 b5 49 3e
       -0.107792914 -0.02015535 -0.09538844 0.19698085
000290 0c 37 20 3d cb 88 99 bd 96 2b a1 bd 5c 9c d0 bd
       0.039114997 -0.07496794 -0.078696415 -0.10186073
0002a0 64 bb ab 3d 97 af 9f 3d 0e c0 cc bd ec ed 67 3d
       0.08385351 0.07797163 -0.09997569 0.056623384
0002b0 c7 ae cb 3d 21 37 0b 3e 4c c3 1b bd a8 a3 5e 3e
       0.099454455 0.13595249 -0.038028046 0.21742117
0002c0 99 d4 2e 3d 62 1a 3a bd 06 54 cd 3a 14 9a d2 3d
       0.042683218 -0.045435317 0.00156653 0.10283294
0002d0 24 04 ad 3d 93 0c 05 3e 4f 6b 82 bc a3 b2 96 bd
       0.084480554 0.12993078 -0.01592031 -0.07358291
0002e0 16 47 f0 3e 7c 51 5d be a2 0f 0a 3c 4d bb e9 3d
       0.46929234 -0.21613115 0.008426579 0.11412678
0002f0 ae c2 ea bd 7e 51 5d 3d cf ae a5 bd 28 79 31 bd
       -0.114629135 0.054032795 -0.08089983 -0.043328434
000300 b7 6a 87 3c 04 32 d7 b9 3c 2b 59 3d 36 af a3 bc
       0.016530378 -0.0004104526 0.053019747 -0.019981008
000310 e7 68 a1 3c 2e 40 b3 bc e3 37 c7 bb d4 34 bd bc
       0.019703342 -0.02188119 -0.0060796603 -0.02309648
000320 86 ee 3e ba 22 6d 90 be 95 a2 89 bd d8 79 10 3e
       -0.00072834676 -0.28208262 -0.06720463 0.1410898
000330 f7 ee 75 bd a2 ac 5d 3e b6 e6 99 3d 69 dc e2 bd
       -0.060042348 0.21647885 0.07514708 -0.11077196
000340 5e 8a 69 3d c7 8f a2 3d 05 95 23 bd ce ce e2 be
       0.057016723 0.079375796 -0.039937038 -0.44298404
000350 23 f9 a7 3d 4a f0 82 3d d5 c9 42 be e6 fd a4 bb
       0.08201816 0.06393488 -0.19022305 -0.00503515
000360 37 bf fd 3c 0e c0 71 3d 7d e7 0b bd d2 7a 0b 3f
       0.030974967 0.05902105 -0.03415631 0.54484284
000370 fb ff b7 be 5b b7 98 3d f0 22 eb bc 01 e9 97 3c
       -0.35937485 0.07456847 -0.028703183 0.018543722
000380 b1 75 05 3c cf c5 50 bd 10 19 81 3d 1e 5a 79 bd
       0.008145736 -0.050969895 0.063036084 -0.060876958
000390 c3 a4 c1 3d 0f 09 30 bc fd 2c df 3b 47 d8 bf bd
       0.09455254 -0.010744347 0.006810783 -0.093674235
0003a0 d7 2f 37 3c 35 f1 99 bb a9 c7 ab bd ad 99 9b 3d
       0.0111808395 -0.0046979436 -0.083876915 0.07597671
0003b0 60 da 33 3c a8 b0 46 be e5 46 de 3d d6 16 d3 3c
       0.010977358 -0.19403327 0.10853366 0.025767725
0003c0 f0 b1 8b bc 43 80 76 3b fa 43 a4 bd 27 a7 16 3d
       -0.01705262 0.003761307 -0.08020778 0.036780503
0003d0 0a 5c 17 3d 3d 03 3f 3d d9 55 43 3e f4 17 11 bd
       0.03695301 0.046633948 0.19075717 -0.035423234
0003e0 b2 27 4a 3d db c4 d0 3c bd 95 45 bd d0 a0 ef 3b
       0.049354263 0.025484493 -0.048238505 0.0073128715
0003f0 e3 3a a4 3c 27 80 1a 3d 2b 9c 91 bc 81 44 5a be
       0.02004761 0.03771987 -0.017774662 -0.21315195

body_conv.4.bias f4 [12]
000000 86 e7 c3 bd c6 40 b0 bb 22 9c 00 be cd 12 88 be
       -0.09565644 -0.0053788153 -0.1255956 -0.26576844
000010 6f f8 49 be cb 79 db bd bb 4c 84 be dc f8 9a bd
       -0.19723676 -0.107165895 -0.2583979 -0.075669974
000020 81 e6 bb bb 18 4c 26 3c 84 0d 83 3d 58 97 85 3d
       -0.0057342653 0.010149978 0.06399062 0.06523007
