save/fsrcnn-x4/iter_1600000.pth (torch, 317647 bytes, 48 tensors)

head_conv.0.weight f4 [56, 3, 5, 5]
0.09549738 0.013216631 -0.11165974 0.003667606 0.15031819 0.023793822 -0.20861459 0.4751253
-0.24115063 -0.06702085 0.008782355 0.16589862 -0.53316736 0.41082013 0.08855901 0.11319716
-0.33034396 0.3335674 -0.5340038 0.03276482 0.08197554 0.00354279 0.05922393 0.105669245
0.01615803 -0.0945936 0.07688842 -0.20810588 0.14189999 -0.018842474 0.14356457 -0.19032241
0.19637258 -0.21961747 -0.00415249 -0.21722767 0.11138231 -0.42636982 0.56636673 -0.16612346
0.101161644 -0.10556126 0.46896362 -0.39792418 0.092699304 -0.088185795 0.046658732 -0.13983901
0.17169873 -0.102658436 -0.1102627 0.01881581 -0.74438125 0.048282478 0.035185378 0.122844815
0.2082055 1.1615596 0.18767598 -0.09775361 -0.74252766 1.1532547 -7.6209064 2.1094327
-0.76925206 0.06910721 0.40956575 1.8283362 -0.1800935 -0.08199441 -0.047578733 -0.1670086
-0.71030825 0.06487172 -0.0015810172 0.010326675 -0.21223642 0.34097925 -0.09830674 0.07640852
0.33898628 -0.18280083 0.6967771 -0.6056513 -0.24261951 -0.5110546 -0.058307167 -0.6871386
0.22216271 0.62294555 0.2014199 0.3935477 0.115456216 0.13587406 -0.48698434 -0.000683046
0.06080988 -0.5595858 0.3918496 0.08015573 -0.09516024 -0.18592104 0.4298551 -0.15906233
-0.09758701 0.2972953 -0.4149519 0.8121556 -0.74110365 0.057077803 -0.07066206 0.093782485
-0.30782118 0.002667874 0.95793146 0.053067975 0.22883055 -0.19856443 0.061885122 -0.8257741
-0.2410592 0.2265327 -0.4246095 0.5536499 -0.075567946 0.020623418 -0.16203259 0.25903365
-0.114102125 0.04609741 0.13974759 -0.24910073 0.7083771 -0.49354166 -0.14278512 -0.33812177
0.07110849 -0.47328252 -0.18295233 0.80245423 0.24876915 0.26906326 -0.0009015958 0.36431405
-0.7372623 -0.029367574 0.060033333 -0.61438817 0.58699733 -0.02538582 0.023090504 0.09341389
0.117199 -0.05663753 0.04418022 -0.064658746 -0.012789666 -0.5582945 0.103432804 0.009354438
0.084698424 -0.040046576 0.8506841 0.19179322 0.014050975 -0.05665269 0.0547422 -0.43335304
-0.3943081 -0.032296035 -0.009842101 0.006884058 -0.035854913 0.060994077 0.075256675 -0.019045115
-0.10418956 0.08843552 -0.0005640678 0.030595552 -0.054336067 -0.12361296 -0.3413386 0.21145548
-0.14623448 0.1337839 -0.08717015 0.9364237 0.41577408 -0.066899486 0.06706942 0.09058831
-0.2732969 -0.6231733 -0.084277056 -0.02053117 -0.20643066 -0.12654388 -0.04456236 0.050139993
-0.123767056 0.06775457 0.07667316 -0.016357856 0.07726768 -0.002095604 0.40182653 -0.35703927
0.029483803 0.06957727 0.00055776257 -0.11594692 0.36034733 0.1448581 -0.1843706 0.04814606
0.051791567 -0.3414645 -0.32568452 0.06465038 -0.18191476 0.08564027 -0.026854144 0.24956994
-0.027975682 0.043992978 0.13194457 0.12865448 0.12935929 -0.004569333 0.1333209 0.16126183
0.35981584 0.18387112 0.078676924 0.10450787 0.30984724 0.72666943 0.33963382 0.14476228
0.11180629 0.10990959 0.20995304 0.22031637 0.08056498 0.02813911 0.07134921 0.13384609
0.09583547 0.014016452 6.84435e-06 -0.16652279 -0.24864239 -0.13696793 -0.04773253 -0.18782677
00000000: 2194 c33d 918a 583c ddad e4bd 385c 703b
00000010: 03ed 193e 43eb c23c 109f 55be a043 f33e
00000020: 31f0 76be 3a42 89bd dee3 0f3c 54e1 293e
00000030: a87d 08bf 0457 d23e 6d5e b53d ead3 e73d
00000040: d822 a9be 59c9 aa3e 79b4 08bf 6734 063d
00000050: cbe2 a73d 272e 683b cb94 723d 1e69 d83d
00000060: d85d 843c 4aba c1bd ad77 9d3d b519 55be
00000070: 3b4e 113e 885b 9abc 9702 133e e1e3 42be
00000080: e515 493e 67e3 60be 9c11 88bb ee70 5ebe
00000090: 691c e43d 254d dabe 69fd 103f 451c 2abe
000000a0: d62d cf3d 8030 d8bd 001c f03e b8bc cbbe
000000b0: 22d9 bd3d c19a b4bd 3a1d 3f3d f531 0fbe
000000c0: cbd1 2f3e 963e d2bd 69d1 e1bd 9d23 9a3c
000000d0: c58f 3ebf d9c3 453d 8b1e 103d 1096 fb3d
000000e0: d333 553e fcad 943f 222e 403e 0b33 c8bd
000000f0: 4b16 3ebf da9d 933f 77de f3c0 f200 0740
00000100: b4ed 44bf 1588 8d3d 9ab2 d13e ec06 ea3f
00000110: 6e6a 38be afec a7bd ebe1 42bd 4d04 2bbe
00000120: c3d6 35bf 77db 843d 223a cfba 3731 293c
00000130: 8154 59be d594 ae3e 0b55 c9bd 127c 9c3d
00000140: 9c8f ad3e 2430 3bbe fc5f 323f f70b 1bbf
00000150: 4071 78be 79d4 02bf 7fd3 6ebd 51e8 2fbf
00000160: 9f7e 633e 5c79 1f3f 0541 4e3e 167f c93e
00000170: 4f74 ec3d 9222 0b3e 0356 f9be 710e 33ba
00000180: c813 793d 0441 0fbf 83a0 c83e b028 a43d
00000190: 5fe3 c2bd 1662 3ebe f815 dc3e 3ce1 22be
000001a0: b3db c7bd 1737 983e 9374 d4be 6ee9 4f3f
000001b0: f8b8 3dbf 6aca 693d 45b7 90bd 0811 c03d
000001c0: bd9a 9dbe 80d7 2e3b ff3a 753f ce5d 593d
000001d0: 8e52 6a3e 7954 4bbe 417b 7d3d ee65 53bf
000001e0: 39d8 76be 30f8 673e 6b66 d9be 00bc 0d3f
000001f0: 5ec3 9abd 71f2 a83c dfeb 25be 0fa0 843e
00000200: 60ae e9bd a3d0 3c3d fe19 0f3e 4314 7fbe
00000210: 3458 353f 7eb1 fcbe 4336 12be 4c1e adbe
00000220: 54a1 913d 1652 f2be db57 3bbe a46d 4d3f
00000230: 57bd 7e3e a9c2 893e 1259 6cba 5f87 ba3e
00000240: 39bd 3cbf 4494 f0bc 83e5 753d 8b48 1dbf
00000250: 7545 163f ecf5 cfbc 4c28 bd3c c84f bf3d
00000260: 0806 f03d c1fc 67bd 52f6 343d ce6b 84bd
00000270: bf8b 51bc 63ec 0ebf 94d4 d33d 5b43 193c
00000280: 5e76 ad3d e107 24bd 6fc6 593f 7165 443e
00000290: 1036 663c a70c 68bd 5b39 603d 73e0 ddbe
000002a0: c0e2 c9be d948 04bd c340 21bc aa93 e13b
000002b0: 9adc 12bd edd4 793d 2c20 9a3d 8004 9cbc
000002c0: 5661 d5bd af1d b53d f3dd 13ba 86a3 fa3c
000002d0: 7f8f 5ebd cb28 fdbd efc3 aebe c987 583e
000002e0: 7ebe 15be a6fe 083e 4386 b2bd 77b9 6f3f
000002f0: 57e0 d43e 9902 89bd b15b 893d 5d86 b93d
00000300: 92ed 8bbe 4988 1fbf 7399 acbd fc30 a8bc
00000310: 8f62 53be b894 01be 0587 36bd 985f 4d3d
00000320: 9579 fdbd e8c2 8a3d d106 9d3d e900 86bc
00000330: 843e 9e3d 6756 09bb 35bc cd3e dacd b6be
00000340: 0488 f13c 877e 8e3d d036 123a 9475 edbd
00000350: 727f b83e af55 143e a6cb 3cbe ce34 453d
00000360: 6523 543d 6fd4 aebe 1fc0 a6be 6b67 843d
00000370: dd47 3abe 2a64 af3d 39fd dbbc 438f 7f3e
00000380: 422d e5bc fb31 343d 7a1c 073e 00be 033e
00000390: c376 043e 58ba 95bb 4685 083e d221 253e
000003a0: c839 b83e b648 3c3e 5e21 a13d 3908 d63d
000003b0: 4ca4 9e3e 0207 3a3f 7ce4 ad3e 903c 143e
000003c0: b2fa e43d 4718 e13d eefd 563e 9d9a 613e
000003d0: 41ff a43d fe83 e63c 891f 923d f30e 093e
000003e0: 6345 c43d 43a5 653c 85a8 e536 f384 2abe
000003f0: 1c9c 7ebe 5241 0cbe 2f83 43bd a955 40be

head_conv.0.bias f4 [56]
0.1129855 0.0016902434 -0.09343068 -0.36634594 -0.07965087 0.01220978 -0.19668967 0.79290706
0.034637827 -0.00030743718 0.23938833 -0.14548853 0.0047211526 -0.15365565 -1.9011925 -0.22336996
-0.16650036 0.44914258 0.37152207 -0.7354275 -0.037449647 0.029510558 -0.020047747 0.13277626
0.021030359 0.12951405 0.15173768 -0.023157787 -0.10137946 -0.10868143 0.0003150691 -0.20582853
-0.010621889 0.0063248277 0.026941987 -1.0328213 0.28574985 0.14033096 -0.13312933 -0.013708664
-0.2376681 0.0002471614 0.034795996 -0.23638791 0.001638943 -0.037579965 -0.06507952 -0.07035482
-0.053249568 -0.09362341 0.0007166511 0.22170842 0.14938739 -0.13548812 0.047622465 0.029214026
00000000: f164 e73d 288b dd3a 9658 bfbd b291 bbbe
00000010: ff1f a3bd 870b 483c 0469 49be f5fb 4a3f
00000020: 65e0 0d3d 852f a1b9 3722 753e f2fa 14be
00000030: e6b3 9a3b e857 1dbe 475a f3bf 18bb 64be
00000040: 127f 2abe 04f6 e53e 2438 be3e fa44 3cbf
00000050: cd64 19bd 20c0 f13c 2c3b a4bc 80f6 073e
00000060: dc47 ac3c 559f 043e 1f61 1b3e 66b5 bdbc
00000070: 09a0 cfbd 5f94 debd dc2f a539 b7c4 52be
00000080: 6e07 2ebc 8040 cf3b 71b5 dc3c 7d33 84bf
00000090: ce4d 923e ebb2 0f3e 0e53 08be 4e9a 60bc
000000a0: 445f 73be 7195 8139 3f86 0e3d ac0f 72be
000000b0: cdd1 d63a 73ed 19bd 6948 85bd 3016 90bd
000000c0: 381c 5abd a1bd bfbd a4dd 3b3a 8807 633e
000000d0: 02f9 183e 66bd 0abe c60f 433d 4152 ef3c

body_conv.0.0.weight f4 [12, 56, 1, 1]
0.0021497996 0.0007976365 0.014843965 0.38416445 0.014264617 0.0038413724 -0.00016339602 0.009647429
-0.00964453 0.0054725637 0.0013768876 0.0011769834 -0.0019710644 0.021452967 -0.002640935 -0.026677098
-0.005448 -0.001957802 -0.38065413 -0.010606763 0.00041077056 0.0009913855 -0.00043853142 0.051052913
-0.011562638 0.11859136 9.6461845e-05 -0.02256017 0.027102865 0.025468798 -0.0016518661 -0.032817747
-0.0042638783 0.0035933286 -0.0025974046 0.0047073015 -0.0036563 -0.02293781 0.0012131523 0.0051737423
-0.6683728 -0.0044190423 -0.0056283986 -0.022783723 0.017902428 -0.0007843979 0.006229389 -0.0021803596
0.028104322 0.017809415 -0.023071202 0.028033327 0.0014832561 -0.1010547 -0.007210608 -0.005119405
-0.013991424 0.00051475276 -0.05228705 0.0013701799 -0.04712311 -0.024698937 0.011853506 -0.009158787
-0.030902797 0.001756911 -0.018355608 0.02181606 -0.025603615 -0.07026201 -0.0008158934 0.08427458
0.0061136945 -0.0031568508 0.0029936226 0.0040854705 -0.0015974618 0.008736416 0.007647901 0.0077035795
0.022804793 0.524974 0.0030745848 0.07327432 -0.09288319 -0.07951226 0.0033790343 -0.005478406
0.045823935 -0.004795397 0.0049278187 -0.02934658 0.00237274 0.080389746 -0.015740393 -0.017134722
-0.008318861 0.01123353 0.02719352 0.022266224 0.16033952 0.029226203 -0.014149474 0.011268697
-0.09612234 -0.07154484 0.07320697 -0.024106322 -0.0004165332 -0.9535461 0.021825837 -0.00015479645
0.07032427 0.012420958 0.014836991 -0.06473524 -0.029320497 0.051374067 0.06108832 -0.0595458
-0.04816223 0.33496794 0.18168603 -0.13305584 0.36705193 0.0067062923 0.1881054 -0.008587933
-0.04380671 0.23027828 0.03393775 0.027472192 0.12840547 -0.20026185 0.049691763 -0.021772457
0.0147112915 -0.22652464 0.28872228 0.037698973 -0.038657792 -0.008690897 -0.034444716 0.0073481384
-0.20258477 -0.061725464 -0.015651224 0.052996617 -0.09276074 0.058474466 0.027594423 -0.09174067
-0.062582016 0.04480049 -0.26882452 -0.25514862 -0.57711226 -0.22371383 -0.025264133 -0.09573379
-0.017893907 -0.029304884 0.03605119 0.3135891 0.29946187 0.10885286 0.030657083 0.0042897225
-0.011689386 -0.0022568116 -0.008777952 0.002323393 -0.0020959585 -0.003363121 0.02982551 -0.0016515765
-0.18341029 -0.007830555 -0.008214078 0.052610025 0.012905616 -0.014237531 -0.003031925 0.0070144553
-0.0035931864 -0.008184055 -0.00033284913 -0.0028783819 -0.0027315563 0.0077292854 0.008181941 0.005946522
-0.011864633 -0.026897974 -0.0016480233 -0.007977198 -0.014776405 -0.014920694 -0.008791852 -0.003908302
0.023010492 0.0007574484 0.0051798564 0.00075886835 -0.0019912259 -0.00047938083 -0.007910514 -0.005095516
-0.0024216974 -0.0031465774 0.003783565 -0.8960663 0.22294347 0.024646642 0.0069757546 0.0013626781
-0.011570093 -0.048671033 0.006285082 0.46013704 -0.020626156 0.017400842 -0.011565701 -0.02816811
-0.0017363967 -0.0013102063 -0.0076396265 0.032329153 -0.007942673 0.0063360822 0.02546437 -0.1275404
-0.14066002 0.0062035657 0.0010749991 0.03488033 -0.0028444603 -0.01780396 -0.0023456381 0.008507621
-0.0027039133 -0.0066764937 -0.031399824 0.13785236 0.0063245385 0.009340326 0.0066277245 -0.34302565
-0.007588504 -0.02576378 -0.017471239 0.0027508163 -0.016814664 -0.015172126 -0.0033924885 0.19162661
00000000: a7e3 0c3b 7b18 513a 1a34 733c 34b1 c43e
00000010: 24b6 693c 89bf 7b3b 4955 2bb9 4010 1e3c
00000020: 1704 1ebc 3153 b33b ae78 b43a 0245 9a3a
00000030: f92c 01bb 22be af3c 8913 2dbb ee89 dabc
00000040: 2385 b2bb 784e 00bb 19e5 c2be fdc7 2dbc
00000050: b15c d739 61f1 813a b1ea e5b9 dc1c 513d
00000060: 3871 3dbc 07e0 f23d 8f4b ca38 1bd0 b8bc
00000070: d406 de3c f1a3 d03c 6e83 d8ba e76b 06bd
00000080: 01b8 8bbb 0d7e 6b3b 3839 2abb b53f 9a3b
00000090: 899e 6fbb 13e8 bbbc a302 9f3a 7f88 a93b
000000a0: 7b1a 2bbf 9dcd 90bb 6e6e b8bb eea4 babc
000000b0: 1da8 923c 0da0 4dba e71f cc3b 5de4 0ebb
000000c0: 093b e63c 0de5 913c d1ff bcbc 26a6 e53c
000000d0: d169 c23a c4f5 cebd f746 ecbb afc0 a7bb
000000e0: 493c 65bc 79f0 063a f22a 56bd 9c97 b33a
000000f0: 2a04 41bd 6d55 cabc 3535 423c bd0e 16bc
00000100: dd27 fdbc 2748 e63a 805e 96bc 98b7 b23c
00000110: acbe d1bc 87e5 8fbd aee1 55ba 2798 ac3d
00000120: 6355 c83b 2be3 4ebb a730 443b 69df 853b
00000130: ec61 d1ba 2f23 0f3c 3e9b fa3b 4f6e fc3b
00000140: 1ed1 ba3c b264 063f f97e 493b d910 963d
00000150: 8b39 bebd 53d7 a2bd ca72 5d3b 3384 b3bb
00000160: e1b1 3b3d b522 9dbb 8a79 a13b 3d68 f0bc
00000170: f97f 1b3b 61a3 a43d fff1 80bc 1e5e 8cbc
00000180: d54b 08bc d70c 383c f2c4 de3c a867 b63c
00000190: 0b30 243e ca6b ef3c 32d3 67bc 57a0 383c
000001a0: cadb c4bd 1a86 92bd 89ed 953d 9f7a c5bc
000001b0: 2462 dab9 991b 74bf 19cc b23c db50 22b9
000001c0: 2c06 903d 4681 4b3c da16 733c e993 84bd
000001d0: 8a31 f0bc 9d6d 523d bf37 7a3d 4ce6 73bd
000001e0: c245 45bd eb80 ab3e e70b 3a3e ca3f 08be
000001f0: 3bee bb3e 75c0 db3b b49e 403e 67b4 0cbc
00000200: aa6e 33bd 12ce 6b3e 4f02 0b3d 5d0d e13c
00000210: b97c 033e 7111 4dbe 9789 4b3d 275c b2bc
00000220: a107 713c 13f6 67be 68d3 933e 3d6a 1a3d
00000230: a257 1ebd 4464 0ebc e715 0dbd a7c8 f03b
00000240: 6272 4fbe d7d3 7cbd ff36 80bc fb12 593d
00000250: 58f9 bdbd ec82 6f3d b30d e23c 88e2 bbbd
00000260: 002b 80bd b880 373d 5ea3 89be d7a2 82be
00000270: a1bd 13bf 3d15 65be baf6 cebc 1410 c4bd
00000280: 3e96 92bc cc10 f0bc 6aaa 133d c08e a03e
00000290: 1153 993e 40ee de3d 9024 fb3c cd90 8c3b
000002a0: d784 3fbc 04e7 13bb 66d1 0fbc 1144 183b
000002b0: 595c 09bb cf67 5cbb a154 f43c b679 d8ba
000002c0: e8cf 3bbe ba4b 00bc 5794 06bc 9c7d 573d
000002d0: 1472 533c 8944 69bc 43b3 46bb 84d9 e53b
000002e0: aa7b 6bbb 6a16 06bc 4182 aeb9 3ca3 3cbb
000002f0: e903 33bb f245 fd3b 8c0d 063c 0bdb c23b
00000300: e163 42bc 2459 dcbc 7c02 d8ba cbb2 02bc
00000310: bc18 72bc ed75 74bc b30b 10bc 3711 80bb
00000320: 8080 bc3c 808f 463a c9bb a93b cbee 463a
00000330: 3a7f 02bb 6855 fbb9 1a9b 01bc 49f8 a6bb
00000340: 57b5 1ebb cf36 4ebb b0f5 773b 9a64 65bf
00000350: 4b4b 643e c1e7 c93c df94 e43b e49b b23a
00000360: 7d90 3dbc 475b 47bd 17f3 cd3b 1597 eb3e
00000370: 2ff8 a8bc 368c 8e3c 117e 3dbc cfc0 e6bc
00000380: ce97 e3ba 3abb abba d555 fabb 936b 043d
00000390: fc21 02bc e99e cf3b a89a d03c f399 02be
000003a0: 2e09 10be 4847 cb3b fce6 8c3a adde 0e3d
000003b0: 206a 3abb 9cd9 91bc 47b9 19bb 8c63 0b3c
000003c0: 2334 31bb 7dc6 dabb 1a9d 00bd 2b29 0d3e
000003d0: 133e cf3b 2b08 193c 622d d93b 0fa1 afbe
000003e0: fca8 f8bb 900e d3bc d81f 8fbc 0a47 343b
000003f0: e8be 89bc 8294 78bc 8354 5ebb c439 443e

body_conv.0.0.bias f4 [12]
0.23732664 -0.024762161 -0.08245615 -0.0035343724 0.2109915 0.69712424 0.089931116 -0.0843331
0.17641589 -0.21030164 -0.68893313 0.0022772776
00000000: c105 733e 04da cabc c5de a8bd eea0 67bb
00000010: 280e 583e bc76 323f ce2d b83d d5b6 acbd
00000020: 5ea6 343e 5059 57be ec5d 30bf 613e 153b

body_conv.1.weight f4 [12, 12, 3, 3]
-0.07563025 0.31808773 -0.13422778 0.23324749 -0.12980749 -0.39368522 0.010729704 0.21089603
-0.06282369 0.005463692 0.039985213 0.021941109 -0.15087779 0.3626325 -0.23327564 0.022739792
0.023458479 0.031665146 -0.016771406 -0.3798582 0.007963627 0.02117203 0.37943864 -0.26964435
0.07304074 0.061572306 -0.047066286 -0.056342706 -0.3133193 -0.025976125 -0.23917921 0.98929065
-0.00032218033 0.025410276 -0.3993235 -0.025381196 0.11158488 0.26825732 0.23601668 -0.012314397
-0.58701944 -0.09581072 -0.009199235 0.14203578 0.029359851 0.08878968 -0.037740562 -0.011021236
-0.3194266 0.3241672 -0.11868004 0.13620397 -0.04493702 0.0004744693 -0.007128971 0.13618006
0.031001095 -0.102434985 -0.069147654 0.12308584 0.031304717 -0.063956775 0.09328012 0.09039325
0.14523584 -0.08741114 -0.10254627 0.050912283 -0.10887517 0.035456922 0.1744409 -0.0101100085
0.010442544 -0.18710488 -0.040402893 0.08622191 0.13709366 -0.06867428 0.001321147 -0.044087477
-0.06624998 -0.071199745 -0.12075766 -0.21249142 -0.037910506 0.55003554 0.032628678 0.008299599
-0.11086399 0.0019254419 -0.07577049 0.023340946 0.02762423 0.3240604 -0.22142859 0.024151552
-0.13095728 0.046029113 -0.006919274 0.087376535 0.3105454 0.06144977 -0.21128245 -0.14087431
0.0072798566 -0.063311994 -0.14546241 0.048021592 -0.14771661 0.25431305 -0.33375138 0.2875249
-0.31274444 0.5427618 -0.4125815 0.9819179 -0.83964765 -0.016116012 -0.25427487 0.07483679
-0.14525072 0.57219976 -0.39309305 0.011445184 -0.92474633 0.23425743 -0.0027981407 0.20747262
-0.07476373 -0.29654664 0.37884223 -0.3004317 0.36386687 0.35530105 -0.051930178 -0.11498758
0.08007432 -0.024772905 0.23503159 -0.5980483 -0.2865645 -0.42387033 -0.471927 -0.083541386
0.0058173384 -0.07053828 0.08004406 0.069514796 -0.32198447 0.104776 0.120193034 -0.18717673
0.10923448 0.05875042 -0.16071197 0.08059124 -0.16780548 0.3380763 -0.2316415 0.09530831
-0.14418092 0.1213703 -0.20658062 -0.23930243 -0.1014725 -0.05864554 -0.1717027 -0.13024646
0.04366619 0.31926236 -0.040804353 -0.15486577 0.0015884603 0.024867728 0.3419153 0.19102648
-0.029882867 -0.12492392 -0.51513284 0.25809136 0.15301786 0.26761448 0.13027951 0.16500215
-0.14149357 0.2473961 -0.23484953 -0.21310495 -0.03215295 -0.03808892 0.14896761 -0.091965415
-0.14383286 0.10621906 -0.1332115 -0.0032473905 0.36420235 -0.08104082 -0.022416975 0.29025945
-0.021803811 -0.030057235 -0.31273574 0.03748178 -0.045738198 0.12738815 -0.04183144 -0.03415677
-0.059552204 -0.019726189 -0.36008924 -0.109435186 -0.24233486 -0.0587219 0.0587815 0.035368852
-0.045912866 0.168875 -0.01766169 0.13563755 0.8424237 0.3712523 -0.21987654 0.3366195
-0.16983417 -0.05690902 -0.16587625 -0.066939384 -0.064727284 0.5116668 0.17645425 0.0040102103
-0.3112791 -0.0043637445 -0.09167685 -0.07290711 -0.069283776 0.27373874 -0.02617449 0.10924296
0.10543631 -0.12941992 -0.04938056 0.06047048 0.074694626 0.010057152 -0.010062331 -0.60180277
0.06298127 0.016719572 0.2659628 -0.013043001 0.047447205 -0.017531736 -0.036803707 0.08867253
00000000: 08e4 9abd 65dc a23e 0273 09be 6ed8 6e3e
00000010: 41ec 04be 1c91 c9be a4cb 2f3c 21f5 573e
00000020: b5a9 80bd c508 b33b 89c7 233d d7bd b33c
00000030: b57f 1abe f8aa b93e cfdf 6ebe cd48 ba3c
00000040: ff2b c03c 50b3 013d 3064 89bc c67c c2be
00000050: df79 023c f770 ad3c c845 c23e d30e 8abe
00000060: 6296 953d 3e33 7c3d 94c8 40bd 9cc7 66bd
00000070: 636b a0be e2cb d4bc 65eb 74be 2742 7d3f
00000080: 50ea a8b9 3629 d03c 2174 ccbe 3aec cfbc
00000090: 9d86 e43d 0659 893e 5bae 713e 53c2 49bc
000000a0: e846 16bf 6938 c4bd 63b8 16bc d471 113e
000000b0: 1284 f03c 5dd7 b53d d995 1abd 6a92 34bc
000000c0: e28b a3be 3ef9 a53e 850e f3bd 0e79 0b3e
000000d0: e10f 38bd 31c2 f839 259a e9bb c972 0b3e
000000e0: 02f6 fd3c 6fc9 d1bd 499d 8dbd 6e14 fc3d
000000f0: 6039 003d c5fb 82bd a609 bf3d 1920 b93d
00000100: b4b8 143e 9d04 b3bd c703 d2bd 6689 503d
00000110: f2f9 debd 473b 113d a3a0 323e 73a4 25bc
00000120: 3417 2b3c 6c98 3fbe 817d 25bd 1d95 b03d
00000130: 4862 0c3e 1aa5 8cbd 562a ad3a 1295 34bd
00000140: 12ae 87bd 2cd1 91bd cb4f f7bd 5a97 59be
00000150: 0c48 1bbd 21cf 0c3f a6a5 053d 0bfb 073c
00000160: a90c e3bd 1c5f fc3a 8f2d 9bbd 8335 bf3c
00000170: 364c e23c 3feb a53e 2dbe 62be 7ad9 c53c
00000180: aa19 06be 0689 3c3d 14bb e2bb 78f2 b23d
00000190: cfff 9e3e c1b2 7b3d 6d5a 58be 5b41 10be
000001a0: dd8b ee3b b8a9 81bd 19f4 14be 4ab2 443d
000001b0: 0643 17be 5235 823e 76e1 aabe 7736 933e
000001c0: 0a20 a0be 70f2 0a3f e23d d3be f95e 7b3f
000001d0: 26f3 56bf ba05 84bc 5130 82be 0844 993d
000001e0: 9bbc 14be af7b 123f 7e43 c9be 9584 3b3c
000001f0: 2dbc 6cbf 2ee1 6f3e 0361 37bb b473 543e
00000200: ba1d 99bd f6d4 97be 9cf7 c13e 2fd2 99be
00000210: c24c ba3e 05ea b53e bdb4 54bd 9c7e ebbd
00000220: 01fe a33d 8cf0 cabc 1fac 703e b219 19bf
00000230: 95b8 92be 8805 d9be 6aa0 f1be bf17 abbd
00000240: 5f9f be3b 6076 90bd 24ee a33d c65d 8e3d
00000250: 26db a4be cd94 d63d c427 f63d 42ab 3fbe
00000260: 54b6 df3d 48a4 703d ae91 24be 050d a53d
00000270: 33d5 2bbe 5618 ad3e 6e33 6dbe 0131 c33d
00000280: 2aa4 13be fe90 f83d df89 53be b20b 75be
00000290: d0d0 cfbd 4e36 70bd d5d2 2fbe 545f 05be
000002a0: 52db 323d 5b76 a33e 7722 27bd 2295 1ebe
000002b0: e233 d03a 68b7 cb3c 860f af3e 729c 433e
000002c0: eacc f4bc 1dd8 ffbd bfdf 03bf 8d24 843e
000002d0: b7b0 1c3e c404 893e fe67 053e 53f6 283e
000002e0: b1e3 10be 6755 7d3e 657c 70be 2f38 5abe
000002f0: d0b2 03bd 2103 1cbd f78a 183e 5d58 bcbd
00000300: ec48 13be 6189 d93d 9868 08be 2cd2 54bb
00000310: bb78 ba3e bbf8 a5bd cea3 b7bc e39c 943e
00000320: e89d b2bc 973a f6bc e61e a0be 7f86 193d
00000330: fa57 3bbd 0a72 023e 7257 2bbd f8e7 0bbd
00000340: 03ed 73bd d198 a1bc 9e5d b8be 8e1f e0bd
00000350: a126 78be 6086 70bd dfc4 703d eede 103d
00000360: 210f 3cbd 91ed 2c3e 40af 90bc 92e4 0a3e
00000370: 14a9 573f c814 be3e 5127 61be 6459 ac3e
00000380: 02e9 2dbe 6f19 69bd 77db 29be 8417 89bd
00000390: bd8f 84bd 98fc 023f 6cb0 343e 1568 833b
000003a0: f95f 9fbe befd 8ebb 13c1 bbbd 5350 95bd
000003b0: a7e4 8dbd 7c27 8c3e e26b d6bc c6ba df3d
000003c0: feee d73d a886 04be 4543 4abd e5af 773d
000003d0: 7ff9 983d c1c6 243c 7adc 24bc bf0f 1abf
000003e0: 53fc 803d 7cf7 883c 472c 883e 50b2 55bc
000003f0: 0058 423d b79e 8fbc 7cbf 16bd f299 b53d

body_conv.1.bias f4 [12]
0.021022325 0.15001795 -0.14290296 0.08692728 0.10553692 0.07938606 -0.29817578 -0.23882098
-0.51470476 -0.012325702 0.12749772 0.23985744
00000000: 0337 ac3c 4e9e 193e 2755 12be ee06 b23d
00000010: be23 d83d 2995 a23d 7faa 98be 7d8d 74be
00000020: b1c3 03bf bef1 49bc c38e 023e 309d 753e

body_conv.2.weight f4 [12, 12, 3, 3]
0.04002353 -0.054135576 0.0062320353 0.039378338 -0.29069802 -0.06282631 -0.26650217 0.12123988
0.064051054 0.056262325 0.048070606 0.030965192 -0.17638473 -0.4329249 0.008539446 0.032729167
0.09472576 -0.08544996 0.45908168 0.21506484 0.1765481 -0.039684743 -1.0933284 0.33163014
0.06884551 -0.1497592 0.01298143 -0.17721534 -0.2366114 -0.1318638 -0.12492463 0.6732059
-0.113674276 0.015705261 0.17853336 0.07149196 -0.060858756 -0.13974288 0.09344613 0.09661114
0.19194657 -0.0673979 -0.11019179 -0.027182449 0.03660572 0.06717586 -0.0069196015 0.13932778
-0.2554658 0.43759844 -0.19002058 -0.04373507 -0.1006713 -0.08685125 0.23794462 -0.14007379
0.035046257 -0.15276125 0.58416057 -0.3366452 -0.060309593 -0.055207845 -0.082960345 -0.11210743
-0.19181843 -0.010588244 -0.26495442 0.28923157 -0.056765277 0.078021236 -0.2923494 0.048119247
0.030671705 0.09399424 0.05577464 -0.061373346 -0.116213426 -0.1748135 0.119152695 0.069203034
-0.018053146 0.24723886 -0.10143169 0.01882815 0.014840871 0.4520589 0.053175356 0.031182969
0.030794468 0.012761308 0.0017920346 -0.075563684 -0.017685775 -0.04767508 0.2288683 -0.16816163
-0.10621696 -0.0743893 -0.01567482 -0.11172227 -0.13981324 -0.036111407 -0.036308702 -0.0039572194
0.102320954 0.13554369 -0.022610296 0.12920755 -0.11664827 0.039528504 -0.024079211 0.09123706
-0.6956908 0.24243844 0.2579849 0.16190007 0.06764978 -0.040885378 0.04237535 -0.07521095
0.16152796 0.12566705 -0.09285677 -0.10156183 0.06451928 -0.08955441 -0.059541974 0.016789874
-0.052682057 0.022172924 -0.15895401 0.043859 0.011860395 0.21307832 0.03403514 -0.029023616
-0.1061551 -0.03735586 0.001013593 0.2682835 0.09315221 -0.014567223 -0.1873835 0.004703402
-0.03101465 0.038398303 0.042337224 0.40768492 -0.8093005 0.028390855 0.18985073 0.18885575
-0.03221516 0.021439428 0.03178288 0.014649002 0.3153939 0.05340563 -0.112465866 -0.18848382
-0.06786922 -0.04479843 0.07976065 0.040719535 -0.014328129 0.05628 -0.122429825 0.06353267
-0.10978479 -0.030148288 0.05191407 0.049053226 -0.04853571 0.08892768 0.28224155 -0.4183368
0.13750042 -0.07288808 -0.015194125 0.008474697 -0.032639816 0.054525796 -0.051489104 0.01024793
0.15248 -0.016800363 -0.06565702 0.03386212 -0.0066689644 -0.002499125 -0.19764082 0.03854549
-0.33857703 0.3456526 0.06915048 0.06555788 0.049235955 -0.045353893 0.01832245 -0.19884884
0.1621509 -0.18894593 0.38299936 0.13942277 -0.12861988 -0.15092522 -0.016524466 -0.083001055
0.3620434 -0.20006905 0.46541968 0.014829308 0.2802242 0.05638272 0.39762834 -0.14889528
-0.07550866 0.12146515 0.061938565 0.44247735 -0.47214326 0.21253628 0.007636261 -0.31541815
0.014044813 0.158641 0.13543952 0.117060035 -0.27120438 -0.28320485 -0.213203 0.08885233
0.23077774 0.037614986 -0.024003219 -0.013150454 0.021176329 -0.08128588 -0.15267769 0.0768802
0.051315416 0.009257871 0.11842927 0.14944135 -0.13717261 0.09743836 -0.06577594 0.14584129
-0.012532293 0.029829288 -0.105301015 -0.10059542 0.023143476 -0.072829954 0.048098616 0.24657068
00000000: b7ef 233d 44bd 5dbd 1a36 cc3b 2e4b 213d
00000010: 5fd6 94be 15ab 80bd f972 88be 9d4c f83d
00000020: 332d 833d 5373 663d afe5 443d b7aa fd3c
00000030: 339e 34be 55a8 ddbe 08e9 0b3c 050f 063d
00000040: 94ff c13d 6300 afbd c10c eb3e f539 5c3e
00000050: 06c9 343e 788c 22bd 2ff2 8bbf 6dcb a93e
00000060: e0fe 8c3d 7a5a 19be 10b0 543c f077 35be
00000070: 424a 72be 4e07 07be 7cd8 ffbd 3957 2c3f
00000080: 0fce e8bd 52a8 803c 73d1 363e 606a 923d
00000090: 0847 79bd c218 0fbe af60 bf3d 10dc c53d
000000a0: a48d 443e e907 8abd 3cac e1bd baad debc
000000b0: e1ef 153d 7f93 893d d3bd e2bb f1ab 0e3e
000000c0: 6acc 82be e70c e03e c194 42be 8b23 33bd
000000d0: c12c cebd 11df b1bd c1a7 733e 816f 0fbe
000000e0: aa8c 0f3d 726d 1cbe 8c8b 153f c25c acbe
000000f0: 3107 77bd 9f21 62bd 1de7 a9bd 9598 e5bd
00000100: 0d6c 44be 507a 2dbc 1ba8 87be 2916 943e
00000110: b582 68bd 99c9 9f3d d2ae 95be b018 453d
00000120: 3a43 fb3c 0d80 c03d f373 643d 9e62 7bbd
00000130: 4e01 eebd 4f02 33be 5406 f43d 52ba 8d3d
00000140: 31e4 93bc 2f2c 7d3e 6bbb cfbd 7e3d 9a3c
00000150: 2027 733c 4474 e73e 67ce 593d 6d73 ff3c
00000160: ae44 fc3c ce14 513c b4e2 ea3a 22c1 9abd
00000170: c2e1 90bc f246 43bd 745c 6a3e 9032 2cbe
00000180: 4788 d9bd 6b59 98bd 7b68 80bc a5ce e4bd
00000190: 342b 0fbe 8ee9 13bd 6fb8 14bd 90ab 81bb
000001a0: a68d d13d f7cb 0a3e 3a39 b9bc fc4e 043e
000001b0: 4ae5 eebd a4e8 213d c441 c5bc 7fda ba3d
000001c0: cb18 32bf c841 783e 9916 843e 22c9 253e
000001d0: f88b 8a3d 6d77 27bd c691 2d3d 3308 9abd
000001e0: 9667 253e ddae 003e b12b bebd a6ff cfbd
000001f0: af22 843d 4d68 b7bd 49e2 73bd eb8a 893c
00000200: 24c9 57bd fea3 b53c d7c4 22be 7fa5 333d
00000210: 1a52 423c 3431 5a3e 6e68 0b3d efc2 edbc
00000220: d867 d9bd 7502 19bd 8ada 843a 745c 893e
00000230: 96c6 be3d 5dab 6ebc 76e1 3fbe ff1e 9a3b
00000240: 6f12 febc 8a47 1d3d cc69 2d3d 14bc d03e
00000250: 512e 4fbf f093 e83c 3b68 423e 6763 413e
00000260: 0bf4 03bd bda1 af3c c42e 023d 5e02 703c
00000270: 4f7b a13e ddbf 5a3d 8154 e6bd e701 41be
00000280: 05ff 8abd 8f7e 37bd 8d59 a33d 87c9 263d
00000290: 87c0 6abc db85 663d 7dbc fabd 6b1d 823d
000002a0: d9d6 e0bd 8bf9 f6bc d9a3 543d 09ec 483d
000002b0: 61cd 46bd b71f b63d f781 903e 3e30 d6be
000002c0: e9cc 0c3e 5846 95bd c7f0 78bc 75d9 0a3c
000002d0: 54b1 05bd 7156 5f3d 3de6 52bd efe6 273c
000002e0: b823 1c3e eaa0 89bc 3077 86bd 02b3 0a3d
000002f0: 5487 dabb 5cc8 23bb 5b62 4abe e0e1 1d3d
00000300: f859 adbe 61f9 b03e c49e 8d3d 3643 863d
00000310: a4ab 493d 01c5 39bd f618 963c 089f 4bbe
00000320: e30a 263e 0b7b 41be 7e18 c43e d8c4 0e3e
00000330: eeb4 03be 248c 1abe 515e 87bc 75fc a9bd
00000340: c15d b93e e7de 4cbe 7d4b ee3e a0f6 723c
00000350: 8c79 8f3e 91f1 663d f195 cb3e 0178 18be
00000360: 49a4 9abd b8c2 f83d 4bb3 7d3d 648c e23e
00000370: c3bc f1be 1ca3 593e 9a39 fa3b 7d7e a1be
00000380: 371c 663c c972 223e a8b0 0a3e 2cbd ef3d
00000390: 4ddb 8abe 3a00 91be e351 5abe 36f8 b53d
000003a0: 0051 6c3e 2c12 1a3d 66a2 c4bc 0075 57bc
000003b0: fb79 ad3c 3679 a6bd 8a57 1cbe 5e73 9d3d
000003c0: 1d30 523d 53ae 173c 0c8b f23d 2707 193e
000003d0: fa76 0cbe c38d c73d 89b5 86bd 6b57 153e
000003e0: 3f54 4dbc 8d5c f43c 0fa8 d7bd f904 cebd
000003f0: 6397 bd3c df27 95bd 0e03 453d 067d 7c3e

body_conv.2.bias f4 [12]
0.002570536 -0.16379473 -0.2458476 0.012598006 0.00792717 0.016172187 -0.02477759 0.024168331
0.028926926 0.0004971305 -0.00943593 -0.00026314807
00000000: 7076 283b ceb9 27be 79bf 7bbe de67 4e3c
00000010: f6e0 013c 897b 843c 5ffa cabc aafc c53c
00000020: 29f8 ec3c dd51 023a 2999 1abc 23f7 89b9

body_conv.3.weight f4 [12, 12, 3, 3]
-0.103392154 -0.20018946 -0.05181674 0.029532036 -0.054282572 0.17425765 0.109906785 0.047795307
-0.13411975 -0.08470961 0.23703603 -0.06990981 -0.020929089 0.22836289 -0.65755016 0.13518254
-0.101769015 0.3305715 -0.10661845 0.09989557 0.058283493 0.01907441 -0.33886868 0.04965309
-0.0019185031 0.2544543 -0.0038187567 -0.06464384 -0.08592194 -0.0693833 -0.0022980806 0.25408402
0.08158401 0.0031772892 0.118041314 0.1639578 0.011936315 0.11591875 0.022857206 -0.12284578
-0.41128966 -0.0045069433 -0.08824435 -0.060686138 0.26061368 -0.04832265 -0.09397104 -0.1777234
0.0635384 0.057295058 -0.11547498 0.021857385 0.052449428 -0.08237276 -0.026703266 -0.2492671
0.07210076 -0.25520712 0.5305988 -0.2178312 -0.07373536 0.45260525 -0.20653826 0.018779978
-0.07167616 0.09935552 -0.19481528 -0.29336733 0.16418482 -0.03060082 0.086270675 -0.07744933
-0.012319845 -0.12773073 -0.09286878 0.07651223 0.12465737 -0.15064895 -0.0061016176 0.08291661
-0.05363989 -0.1762414 -0.2070292 0.0427903 -0.26042163 0.723054 -0.27990648 0.0031030125
-0.12312025 0.038271017 0.09240677 -0.11907129 0.015655722 0.02200733 -0.18661617 0.3606587
-0.08311407 0.102029786 -0.32459494 0.016336977 -0.12140066 -0.08181109 -0.29665765 0.6841652
-0.08302424 -0.12561338 -0.22969659 0.2830602 -0.00057401636 0.13999945 0.10195264 0.050912477
-0.6884257 0.16654213 0.14807886 0.056320883 0.033537548 -0.00302539 -0.03915899 -0.014767055
-0.018677473 0.115125 0.004314218 -0.05623218 0.06603841 0.02458254 0.07915563 0.1652155
0.009763594 0.14921804 0.3851634 0.20090239 -0.017210767 0.14442357 0.0045882952 0.11724345
-0.04558781 0.051612854 0.1895328 -0.9297049 -0.016865103 0.0884242 0.42982414 0.11388417
0.090362184 0.05084053 -0.03652294 -0.093801506 -0.17927544 -0.02512876 0.004446819 0.005985471
0.19181642 -0.022081137 -0.0035949065 0.24079789 0.0072647426 -0.5164287 0.25234297 -0.0037822037
0.2006289 -0.14942926 0.080715254 -0.02931775 0.0045189303 -0.118830405 -0.23690924 0.11842799
-0.026358137 0.03734538 0.1391764 -0.026809035 -0.16293557 -0.28692034 0.0012790745 1.068178
-0.37261978 -0.08402559 -0.09682725 -0.042150468 -0.05225481 0.084205754 -0.059046116 -0.06332852
0.039515372 -0.16550878 0.073443346 0.08174786 0.062946424 0.19203795 0.15511185 0.101726234
0.57511646 -0.90468764 -0.041470464 0.017591877 -0.02890914 -0.050367676 0.022054428 -0.20125069
0.07944307 0.04776223 0.18669084 -0.02888992 0.02954255 -0.12968387 -0.006821607 -0.10562702
0.009732832 0.08068258 0.15450217 -0.04083676 -0.014878569 -0.048802894 -0.15438603 0.12216664
-0.12844431 0.06565354 0.00065243023 -0.0881872 0.23582838 0.251933 0.007473321 -0.18390575
-0.13343224 0.018028872 0.5823432 -0.3537443 -0.14342247 -0.14999068 -0.09006395 -0.035077866
0.04198584 0.13079533 0.102097616 0.15310988 -0.03267146 -0.18692398 -0.042793527 0.0717922
-0.046547003 -0.113847695 0.06447615 -0.19958258 -0.06374879 -0.123808324 -0.20278506 -0.66159606
0.23681954 0.06727903 -0.09966412 -0.015766615 0.063293606 0.33378497 -0.047896672 -0.233175
00000000: 44bf d3bd 77fe 4cbe ca3d 54bd 2bed f13c
00000010: 6757 5ebd 9970 323e cf16 e13d 03c5 433d
00000020: b056 09be 3b7c adbd 93b9 723e e02c 8fbd
00000030: 7b73 abbc f6d7 693e 3555 28bf 4b6d 0a3e
00000040: 466c d0bd ab40 a93e c65a dabd 0c96 cc3d
00000050: acba 6e3d f041 9c3c 3280 adbe 0a61 4b3d
00000060: 4876 fbba d647 823e 1b44 7abb fd63 84bd
00000070: d8f7 afbd d518 8ebd 659b 16bb 4d17 823e
00000080: 8415 a73d 113a 503b a5bf f13d 8ee4 273e
00000090: 8990 433c cf66 ed3d 093f bb3c 9196 fbbd
000000a0: 8f94 d2be fbae 93bb 74b9 b4bd 0792 78bd
000000b0: 286f 853e f9ed 45bd e373 c0bd 1ffd 35be
000000c0: 6c20 823d 39ae 6a3d 257e ecbd 420e b33c
000000d0: 36d5 563d 0db3 a8bd cfc0 dabc e03f 7fbe
000000e0: 90a9 933d 82aa 82be 53d5 073f 240f 5fbe
000000f0: 9002 97bd e0bb e73e c47e 53be 78d8 993c
00000100: f3ca 92bd e87a cb3d a87d 47be 3e34 96be
00000110: 1120 283e 92ae fabc aeae b03d c19d 9ebd
00000120: 2dd9 49bc d8cb 02be fd31 bebd 72b2 9c3d
00000130: 5d4c ff3d b843 1abe 14f0 c7bb 2fd0 a93d
00000140: 80b5 5bbd a078 34be 76ff 53be e244 2f3d
00000150: fc55 85be 111a 393f e74f 8fbe e95b 4b3b
00000160: 7826 fcbd 12c2 1c3d c33f bd3d a6db f3bd
00000170: 6e40 803c b748 b43c 4f18 3fbe 42a8 b83e
00000180: b637 aabd fef4 d03d 4f31 a6be 20d5 853c
00000190: e9a0 f8bd 938c a7bd 83e3 97be 7325 2f3f
000001a0: 9d08 aabd cba0 00be 9535 6bbe 44ed 903e
000001b0: 9679 16ba 045c 0f3e 8ccc d03d 9a89 503d
000001c0: ab3c 30bf 058a 2a3e fca1 173e bab0 663d
000001d0: ab5e 093d 9f45 46bb 2d65 20bd 85f1 71bc
000001e0: 8001 99bc a8c6 eb3d 495e 8d3b b753 66bd
000001f0: 253f 873d 5361 c93c 591c a23d 412e 293e
00000200: 7bf7 1f3c 9dcc 183e 2334 c53e 5bb9 4d3e
00000210: 98fd 8cbc c6e3 133e 6959 963b 551d f03d
00000220: 49ba 3abd 0068 533d e314 423e 2401 6ebf
00000230: af28 8abc bf17 b53d e911 dc3e 1b3c e93d
00000240: cf0f b93d 293e 503d 1499 15bd 011b c0bd
00000250: fb93 37be d4da cdbc 9fb6 913b c521 c43b
00000260: 866b 443e 80e3 b4bc 8698 6bbb b993 763e
00000270: 140d ee3b ac34 04bf 1933 813e d9de 77bb
00000280: aa71 4d3e fc03 19be 0a4e a53d c72b f0bc
00000290: 8913 943b 5b5d f3bd 5698 72be 608a f23d
000002a0: 05ed d7bc 78f7 183d 4284 0e3e 9f9e dbbc
000002b0: 95d8 26be 39e7 92be 9ea6 a73a 0fba 883f
000002c0: 05c8 bebe 9c15 acbd 5e4d c6bd f8a5 2cbd
000002d0: 2409 56bd 1174 ac3d 57da 71bd 62b2 81bd
000002e0: dfda 213d 227b 29be 7769 963d 6c6b a73d
000002f0: 0eea 803d 99a5 443e a4d5 1e3e d855 d03d
00000300: d53a 133f 9c99 67bf efdc 29bd d71c 903c
00000310: dcd2 ecbc 564e 4ebd 7dab b43c a914 4ebe
00000320: 0cb3 a23d 54a2 433d e22b 3f3e 8eaa ecbc
00000330: 3803 f23c d9cb 04be c987 dfbb fb52 d8bd
00000340: 7576 1f3c e93c a53d d135 1e3e 7244 27bd
00000350: 3ec5 73bc 8be5 47bd 5f17 1ebe 8132 fa3d
00000360: e886 03be 5d75 863d da07 2b3a 7e9b b4bd
00000370: ff7c 713e 5dfd 803e c3e2 f43b ca51 3cbe
00000380: 76a2 08be 49b1 933c 7214 153f f91d b5be
00000390: 57dd 12be 2897 19be 7373 b8bd cfad 0fbd
000003a0: 58f9 2b3d 36ef 053e 8e18 d13d d6c8 1c3e
000003b0: 82d2 05bd 0069 3fbe 4448 2fbd ca07 933d
000003c0: 12a8 3ebd fb28 e9bd 120c 843d 605f 4cbe
000003d0: ba8e 82bd 388f fdbd e3a6 4fbe 5c5e 29bf
000003e0: d280 723e 97c9 893d b41c ccbd fd28 81bc
000003f0: 14a0 813d dde5 aa3e 4d2f 44bd 6dc5 6ebe

body_conv.3.bias f4 [12]
-0.06439677 -0.037804045 0.023875691 0.0030683181 0.02456029 0.26433995 -0.032956123 0.010509832
0.06337326 -0.026293127 -0.044005055 -0.027916238
00000000: 74e2 83bd 6ad8 1abd f496 c33c d615 493b
00000010: a932 c93c 9157 873e 00fd 06bd 6e31 2c3c
00000020: d7c9 813d af64 d7bc a53e 34bd 98b0 e4bc

body_conv.4.weight f4 [12, 12, 3, 3]
-0.14937232 -0.12135088 0.10046475 -0.20587961 0.36481518 -0.07913304 0.072210014 0.16632055
0.09267294 0.110488355 0.13421255 0.005278991 0.14710376 0.1791451 -0.2895373 -0.010278085
-0.15953018 -0.12551825 0.023412505 0.009212551 -0.010743285 0.15724772 -0.3905334 0.05918848
0.013200431 -0.091955215 0.030405125 -0.08118542 0.011334886 0.0003625068 -0.102598205 0.074180804
0.05385 0.053250063 0.102161385 0.008468415 -0.035050116 0.21167342 0.0009630196 -0.13293712
0.1459492 -0.40790585 0.033982236 0.042941537 0.17224355 -0.013449982 0.16288951 -0.025268666
0.056080453 -0.17643844 -0.012970409 0.0362022 -0.063765384 0.05004621 0.006050134 -0.062117416
-0.0049546636 0.07847933 0.09074412 0.06768306 0.01053206 -0.2076468 0.03821638 0.07927211
0.039405476 0.121567555 0.1340161 -0.07908117 -0.24721916 0.022822455 -0.2707013 0.14095928
0.11688738 -0.06549137 0.025059387 -0.12244276 -0.21520175 0.07856806 0.0051548295 0.31609938
-0.13439807 -0.017869532 0.030325495 0.0016369121 0.041145056 -0.116650015 0.036572423 0.015241112
-0.03067408 0.052262563 0.14468504 -0.07508697 0.06277478 -0.042346127 -0.73068345 0.25235626
-0.047928993 0.30277494 0.10052889 0.03371406 -0.049596846 0.017485272 -0.059759434 0.1408982
-0.014574612 -0.045010924 0.00058280514 0.02851199 0.19740368 0.08165586 0.028119335 0.40642312
0.22275792 0.14804642 0.09238374 0.012881012 0.050700672 0.052826677 -0.028448489 -0.03262265
-0.07153034 0.21403803 -0.0633809 -0.08175995 0.030636117 -0.05314695 0.014402677 -0.011640453
-0.041713092 0.35202575 0.014951533 -0.13168237 -0.110263176 -0.027564587 -0.0027172992 0.019818656
-0.110368714 -0.042554248 0.06510151 -0.28161454 0.1490844 0.14512892 0.014184277 -0.14368789
-0.06847104 0.13886182 0.12904742 0.07660757 -0.07591108 -0.016886132 0.17203753 0.03359616
0.12390146 0.07295404 0.018513437 -0.07927999 0.23287798 -0.26192465 -0.018443316 0.14183158
-0.12126341 -0.011934497 -0.08754195 0.24572831 0.041719835 -0.14121433 -0.024724238 -0.11392343
0.043680187 0.1261289 -0.07121706 0.09374801 0.15717952 0.14425705 -0.02076821 0.19185764
0.04040454 -0.071195975 -0.044169 0.12894507 0.07855878 0.101370156 -0.0020591842 -0.05712932
0.4766037 -0.22770195 0.023028951 0.084764846 -0.10062006 0.067163125 -0.10264254 -0.029836286
0.037891757 0.020377016 0.018138949 0.0043652267 -0.001699088 -0.015691299 0.037805222 -0.016147472
-0.02436019 -0.2466119 -0.109494865 0.10826198 -0.07160886 0.18710737 0.05889813 -0.115180604
0.06293024 0.085121594 -0.022527983 -0.50758344 0.08849098 0.035854142 -0.18730405 -0.023553558
0.03875661 0.037555024 -0.014902221 0.5773781 -0.35552412 0.11671912 -0.029476449 -0.00715856
0.03025416 -0.053718805 0.055446327 -0.042385496 0.09159444 0.010779424 0.0024771702 -0.10665036
0.011955731 -0.01107854 -0.052207958 0.067243494 0.007894962 -0.19252883 0.08724463 0.020600846
-0.028371282 0.0075093685 -0.05173813 -0.00717949 0.038961545 0.03244651 0.19256496 -0.048066646
0.0794108 -0.0047552357 -0.086651295 0.044134766 0.016546175 0.0124806035 -0.039151892 -0.22157793
00000000: 0ff5 18be cf86 f8bd 76c0 cd3d 1bd2 52be
00000010: 0ec9 ba3e 8110 a2bd d8e2 933d ef4f 2a3e
00000020: 4fcb bd3d b847 e23d 046f 093e 63fb ac3b
00000030: 5ea2 163e d071 373e 3c3e 94be 6a65 28bc
00000040: e15b 23be db87 00be 95cb bf3c 3df0 163c
00000050: 9a04 30bc 8c05 213e fef3 c7be 9f6f 723d
00000060: 9f46 583c 0453 bcbd 2b14 f93c 8b44 a6bd
00000070: f5b5 393c d70e be39 021f d2bd 1bec 973d
00000080: d191 5c3d bd1c 5a3d fd39 d13d 1bbf 0a3c
00000090: b690 0fbd ebc0 583e 2773 7c3a ab20 08be
000000a0: b573 153e 09d9 d0be f530 0b3d 77e3 2f3d
000000b0: 9d60 303e 505d 5cbc 82cc 263e 3c00 cfbc
000000c0: 9eb4 653d 47ac 34be d781 54bc c248 143d
000000d0: 6d97 82bd 41fd 4c3d 3440 c63b d56e 7ebd
000000e0: bb5a a2bb c5b9 a03d 0ed8 b93d 6b9d 8a3d
000000f0: a98e 2c3c 5da1 54be c788 1c3d 6a59 a23d
00000100: a367 213d 69f8 f83d 843b 093e 4ff5 a1bd
00000110: 0527 7dbe 28f6 ba3c 5c99 8abe a157 103e
00000120: a762 ef3d 5720 86bd 5849 cd3c 45c3 fabd
00000130: d95d 5cbe 4be8 a03d d8e9 a83b c7d7 a13e
00000140: a69f 09be 2063 92bc 2c6d f83c a88d d63a
00000150: b887 283d 34e6 eebd f7cc 153d dbb5 793c
00000160: 3548 fbbc 4511 563d 5128 143e 33c7 99bd
00000170: 1090 803d 2273 2dbd 120e 3bbf d734 813e
00000180: 3151 44bd 5105 9b3e 17e2 cd3d c117 0a3d
00000190: 1026 4bbd 463d 8f3c 4fc6 74bd 9e47 103e
000001a0: 5aca 6ebc 605d 38bd 64c7 183a fa91 e93c
000001b0: 3124 4a3e 303b a73d 855a e63c b116 d03e
000001c0: a71a 643e 7b99 173e b033 bd3d e10a 533c
000001d0: 82ab 4f3d c960 583d ce0c e9bc 549f 05bd
000001e0: 807e 92bd c92c 5b3e d8cd 81bd c371 a7bd
000001f0: 98f8 fa3c 9eb0 59bd 35f9 6b3c 99b7 3ebc
00000200: 59db 2abd b83c b43e 46f7 743c bed7 06be
00000210: a9d1 e1bd 21cf e1bc b714 32bb bc5a a23c
00000220: fe08 e2bd 5d4d 2ebd f153 853d c82f 90be
00000230: 95a9 183e ad9c 143e 2b65 683c eb22 13be
00000240: 8b3a 8cbd cb31 0e3e 0225 043e 6ee4 9c3d
00000250: 4577 9bbd c954 8abc 9b2a 303e 219c 093d
00000260: 0cc0 fd3d ed68 953d 7ea9 973c 8c5d a2bd
00000270: 9177 6e3e fd1a 86be 7016 97bc 4c3c 113e
00000280: f358 f8bd e988 43bc 3249 b3bd 34a0 7b3e
00000290: 6be2 2a3d 7d9a 10be 7c8a cabc b050 e9bd
000002a0: ffe9 323d ef27 013e 40da 91bd f5fe bf3d
000002b0: abf3 203e 1fb8 133e 1822 aabc 5476 443e
000002c0: 3b7f 253d 32cf 91bd 8eea 34bd 2d0a 043e
000002d0: 6de3 a03d 289b cf3d 61f3 06bb 6f00 6abd
000002e0: 6605 f43e b32a 69be 36a7 bc3c 3199 ad3d
000002f0: e411 cebd d28c 893d 4136 d2bd 3a6b f4bc
00000300: 6334 1b3d b3ed a63c 2298 943c 2d0a 8f3b
00000310: efb3 deba 0a8b 80bc a6d9 1a3d b447 84bc
00000320: 058f c7bc d487 7cbe d83e e0bd 75b8 dd3d
00000330: aaa7 92bd 1399 3f3e 2a3f 713d cfe3 ebbd
00000340: 92e1 803d 3b54 ae3d 9b8c b8bc fdf0 01bf
00000350: c23a b53d cbdb 123d a2cc 3fbe 64f3 c0bc
00000360: 40bf 1e3d 4cd3 193d 7228 74bc 0dcf 133f
00000370: 4207 b6be 6f0a ef3d 9878 f1bc 5b92 eabb
00000380: 92d7 f73c 4008 5cbd b01b 633d 6a9c 2dbd
00000390: de95 bb3d 2e9c 303c 0558 223b 816b dabd
000003a0: f8e1 433c c482 35bc 03d8 55bd f5b6 893d
000003b0: df59 013c 4726 45be 50ad b23d 1bc3 a83c
000003c0: e46a e8bc 2611 f63b 5deb 53bd ed41 ebbb
000003d0: 2496 1f3d a2e6 043d c02f 453e 88e1 44bd
000003e0: 21a2 a23d cfd1 9bbb 3c76 b1bd a8c6 343d
000003f0: d88b 873c 727b 4c3c bc5d 20bd 53e5 62be

body_conv.4.bias f4 [12]
-0.18551911 0.12768665 -0.12100378 -0.27268937 -0.16836381 -0.1999453 -0.30116993 0.025001979
-0.017438406 0.06837077 0.1269494 0.069085434
00000000: b9f8 3dbe 4ac0 023e d4d0 f7bd f19d 8bbe
00000010: 9067 2cbe 76be 4cbe f232 9abe f3d0 cc3c
00000020: fdda 8ebc f905 8c3d 06ff 013e aa7c 8d3d

body_conv.6.0.weight f4 [56, 12, 1, 1]
0.008051937 0.002871619 0.007369076 0.00075786765 -0.02065227 0.0029887524 0.0009896926 -0.0020079878
0.07845529 -0.42653215 0.0048842565 -0.001011009 0.016330771 -0.28422233 0.087716155 0.010560544
-0.32986495 -0.2388138 0.008728853 0.11001182 -0.01121091 -0.022261746 -0.048827335 -0.01280907
0.0052768863 -0.03353849 -0.26621774 -0.002056978 0.006633994 -0.009192042 0.0008596363 0.011293778
0.025697427 -0.016177269 -0.0018363424 -0.000116397845 0.16107401 -0.032020736 -0.0023423065 0.0039146873
0.055513598 0.005257155 0.0019065987 0.05579637 0.07189918 -0.035921574 -0.002113358 0.002836657
0.0050890674 0.007870172 0.11312754 0.008655493 -0.14678225 -0.079470664 -0.024446238 0.020776374
-0.55410206 0.031917714 -0.23279054 -0.011320081 -0.022553083 0.02533981 -0.040692214 0.0003759655
-0.178183 0.07108222 -0.0019239455 -0.037666287 0.11313978 -0.15984246 0.032076806 -0.0044669164
-0.088576235 0.07830464 0.066412754 0.0069208685 -0.25524855 -0.041672688 0.0064336266 -0.35040444
0.00696365 -0.06293387 0.090141445 -0.020926397 0.023033144 -0.026295334 0.04996096 -0.0032690554
0.008219948 -0.089936234 0.0036320533 -0.3735476 0.018141748 -0.007967579 0.067000456 -0.00986299
-0.36309522 0.030619852 -0.029763337 0.00020341382 -0.20039701 -0.008347006 -0.002013272 -0.054600082
-0.04598423 0.0025137023 -0.028036913 -0.0049565798 0.0004624476 0.0015216095 -0.00044194024 -9.161522e-05
-0.0017543361 0.0024268727 0.00041689683 -0.0009382245 -0.005321928 0.0018917368 -0.006782297 0.2105536
-0.24466491 0.13649337 -0.03010209 0.007630016 -0.43929577 -0.005843749 -0.0040521636 -0.21110463
-0.0518842 -0.058816444 0.010535296 -0.019190455 -0.09129035 0.13894533 -0.108451925 0.011213733
-0.3634143 0.0771796 -0.015250065 -0.19840036 0.03792224 -0.13045442 -0.06784194 -0.016583586
-0.0015163816 0.005815214 0.0065222303 -0.20485263 -0.010178622 0.004929959 -0.07536647 -0.010454508
-0.024419531 0.018534735 -0.011200501 -0.0014028877 0.10035838 -0.032866474 0.110962674 0.0018285862
-0.33370638 -0.09251194 0.013265197 0.038356952 -0.024217628 -0.0056906533 0.07863958 -0.018370697
-0.032302685 -0.13223806 -0.5299653 0.00423734 -0.030509504 0.0066773943 -0.0013904859 -0.13058558
0.02240274 -0.02152097 -0.030534308 -0.0038991317 -0.07218004 -0.07065112 -0.016406106 0.0040887813
-0.23068984 -0.075481266 0.0017206853 -0.04005711 -0.48396775 0.07417662 0.020011175 -0.01304738
-0.0025208713 -0.00017843315 0.0058147316 0.0008650442 0.0049734907 -0.0110024065 -0.0001736388 0.0003021756
-0.4054578 0.024146799 0.002417981 -0.00041462752 -0.053437334 0.2735546 -0.041927937 0.0009858528
-0.06367997 0.030324636 -0.0047421902 -0.027444199 -0.0050845696 -0.0169069 -0.03364519 -0.00845073
-0.21025072 -0.050641995 -0.05020409 0.00164131 -0.37240887 -0.1176204 -0.008593963 -0.09398714
-0.248146 0.11084993 -0.09388241 -0.016810648 0.02091246 0.008203244 0.017464682 0.0021836204
-0.022636376 -0.052266516 0.004029155 -0.015660055 0.05055828 -0.3470915 0.07460375 -0.05393115
-0.038379002 -0.08903593 0.078935854 0.0080337925 -0.25156686 -0.19319756 -0.011277894 0.04698674
-0.1851205 0.05659318 -0.18166046 -0.014192368 -0.10112696 0.017047578 -0.38034117 0.019130105
00000000: 46ec 033c c631 3c3b 4a78 f13b a3ab 463a
00000010: f32e a9bc f2de 433b 93b8 813a 7298 03bb
00000020: 2bad a03d 6c62 dabe 1d0c a03b d583 84ba
00000030: 1cc8 853c 9785 91be 87a4 b33d 2206 2d3c
00000040: 0fe4 a8be 9b8b 74be 7703 0f3c e14d e13d
00000050: f7ad 37bc 445e b6bc 2cff 47bd 22dd 51bc
00000060: bbe9 ac3b a85f 09bd b14d 88be 5dce 06bb
00000070: fa61 d93b 389a 16bc 3759 613a 8a09 393c
00000080: 6983 d23c 3186 84bc 6db1 f0ba 9e1a f4b8
00000090: 96f0 243e 2d28 03bd 6281 19bb c746 803b
000000a0: 3a62 633d 3644 ac3b d6e6 f93a bc8a 643d
000000b0: e13f 933d 8022 13bd 4380 0abb 35e7 393b
000000c0: 31c2 a63b e5f1 003c 69af e73d c5cf 0d3c
000000d0: 164e 16be 84c1 a2bd 7a43 c8bc 3733 aa3c
000000e0: a2d9 0dbf 26bc 023d a560 6ebe dc77 39bc
000000f0: 3ec1 b8bc 6f95 cf3c e1ac 26bd 3c1d c539
00000100: 9b75 36be 8e93 913d e62c fcba f747 1abd
00000110: d4b5 e73d bead 23be f862 033d 365f 92bb
00000120: 7567 b5bd 2f5e a03d 6903 883d 74c8 e23b
00000130: f0af 82be fbb0 2abd 2cd1 d23b 3668 b3be
00000140: 552f e43b 79e3 80bd 149c b83d d66d abbc
00000150: 01b0 bc3c 5069 d7bc dda3 4c3d a63d 56bb
00000160: f6ac 063c 7d30 b8bd be07 6e3b a241 bfbe
00000170: 019e 943c 738a 02bc 8937 893d 6198 21bc
00000180: 9ee7 b9be 7cd6 fa3c 3ed2 f3bc 7b4b 5539
00000190: e034 4dbe e1c1 08bc 19f1 03bb 56a4 5fbd
000001a0: f659 3cbd edbc 243b abad e5bc ce6a a2bb
000001b0: ab74 f239 be70 c73a 37b4 e7b9 8c21 c0b8
000001c0: c0f1 e5ba 2b0c 1f3b f292 da39 2ef3 75ba
000001d0: 9163 aebb 27f4 f73a 083e debb 5d9b 573e
000001e0: 7089 7abe ebc4 0b3e a998 f6bc 3705 fa3b
000001f0: 60eb e0be eb7c bfbb 03c8 84bb d02b 58be
00000200: 8784 54bd 83e9 70bd 3c9c 2c3c 4d35 9dbc
00000210: 6ff6 babd af47 0e3e 0b1c debd ceb9 373c
00000220: 7011 babe 5710 9e3d 69db 79bc 7729 4bbe
00000230: 5a54 1b3d d895 05be b7f0 8abd 4dda 87bc
00000240: 53c1 c6ba 8d8d be3b 6fb8 d53b e3c4 51be
00000250: 3cc4 26bc 7e8b a13b bc59 9abd 6249 2bbc
00000260: 780b c8bc 28d6 973c 4e82 37bc 1ae1 b7ba
00000270: b288 cd3d ff9e 06bd 6640 e33d 2cad ef3a
00000280: 90db aabe e676 bdbd 4556 593c 2e1c 1d3d
00000290: 0c64 c6bc a978 babb ca0d a13d 257e 96bc
000002a0: d24f 04bd 6a69 07be ceab 07bf 62d9 8a3b
000002b0: 11ef f9bc 0bce da3b f740 b6ba 3ab8 05be
000002c0: f385 b73c bf4c b0bc 1623 fabc 9388 7fbb
000002d0: 21d3 93bd 89b1 90bd 1966 86bc 2ffb 853b
000002e0: f539 6cbe ec95 9abd 9e88 e13a ed12 24bd
000002f0: 9fca f7be e9e9 973d 7aee a33c aec4 55bc
00000300: 3435 25bb c919 3bb9 8189 be3b 22c4 623a
00000310: aaf8 a23b 7043 34bc cf12 36b9 536d 9e39
00000320: 2a98 cfbe 82cf c53c fd76 1e3b 5d62 d9b9
00000330: 1be1 5abd 590f 8c3e a1bc 2bbd bb37 813a
00000340: a56a 82bd 5f6b f83c 6064 9bbb a8d2 e0bc
00000350: 769c a6bb 5780 8abc 8acf 09bd ee74 0abc
00000360: f74b 57be fb6d 4fbd cea2 4dbd 3a21 d73a
00000370: 60ac bebe f7e2 f0bd b2cd 0cbc 547c c0bd
00000380: fc19 7ebe 4a05 e33d 6c45 c0bd 7cb6 89bc
00000390: 9b50 ab3c e666 063c 1812 8f3c 121b 0f3b
000003a0: ec6f b9bc 6a15 56bd 0007 843b 8449 80bc
000003b0: 3316 4f3d fab5 b1be dac9 983d e9e6 5cbd
000003c0: 4d33 1dbd 7858 b6bd 1fa9 a13d 2ba0 033c
000003d0: 5fcd 80be 95d5 45be eac6 38bc 2b75 403d
000003e0: 3a90 3dbe 40ce 673d 3305 3abe 1b87 68bc
000003f0: a71b cfbd 5da7 8b3c 14bc c2be bdb6 9c3c

body_conv.6.0.bias f4 [56]
-0.004580965 -0.13305886 0.0069130496 0.02077638 -0.07908695 -0.033371657 -0.14281052 -0.06454036
-0.03859495 0.00018785246 -0.19025908 -0.17066656 0.15565735 -0.13752715 -0.07705163 -0.12936826
-0.0033482558 -0.09697668 -0.17986172 -0.07196381 -0.12943536 -0.17701975 -0.11725204 -0.06831634
-0.025813809 -0.08660538 -0.06709545 -0.112205565 -0.0009747416 -0.14184538 -0.011136361 -0.016001303
-0.08370723 -0.15633875 -0.10257597 0.0018406949 -0.06575706 -0.13979568 -0.0010626215 -0.0003172614
-0.12919673 0.2705692 -0.13664763 -0.020270335 -0.098963074 -0.18165992 -0.0017273445 -0.05601824
0.04082625 -0.039373487 -0.1606194 -0.045892343 -0.09675243 0.00023895573 0.0072124735 -0.09922876
00000000: eb1b 96bb 9540 08be dd86 e23b 3a33 aa3c
00000010: 57f8 a1bd b8b0 08bd ec3c 12be bc2d 84bd
00000020: bd15 1ebd 43fa 4439 47d3 42be 37c3 2ebe
00000030: a464 1f3e ebd3 0cbe 3fcd 9dbd 1d79 04be
00000040: 696e 5bbb b69b c6bd ac2d 38be c361 93bd
00000050: b48a 04be aa44 35be d621 f0bd 70e9 8bbd
00000060: 7b77 d3bc 295e b1bd 5769 89bd 08cc e5bd
00000070: cd85 7fba ea3f 11be 4975 36bc 2a15 83bc
00000080: b26e abbd 4417 20be 5a13 d2bd 7943 f13a
00000090: a3ab 86bd 9926 0fbe a947 8bba 1b56 a6b9
000000a0: 264c 04be 0c88 8a3e 5bed 0bbe f90d a6bc
000000b0: 27ad cabd 0f05 3abe 1068 e2ba 6273 65bd
000000c0: 6d39 273d 1846 21bd 6979 24be 9cf9 3bbd
000000d0: 2326 c6bd 3190 7a39 9d56 ec3b 7338 cbbd
