save/fsrcnn-x4/iter_400000.pth (torch, 317565 bytes, 48 tensors)

head_conv.0.weight f4 [56, 3, 5, 5]
000000 b7 39 8d 3c cb 5e da bb 01 25 90 bd d3 1b 53 3d
       0.017239435 -0.0066641322 -0.07038308 0.051540207
000010 f4 21 bb 3a 4a a6 ba bb 12 6a 53 bd 2b 12 69 3e
       0.0014277087 -0.0056960927 -0.05161483 0.22760837
000020 80 6d fc bd 8e 39 dd 3c a8 58 1f bd 9a b7 95 3e
       -0.12325573 0.027004983 -0.03890291 0.2924164
000030 6b c1 bb be 6c c2 20 3e 4b b1 0a bd 5f 64 dc 3a
       -0.36671004 0.15699166 -0.033860486 0.0016814581
000040 5a b4 1a be b0 8f 17 3e 08 d8 3a be ac 65 ab bb
       -0.15107861 0.14800906 -0.18246472 -0.005230626
000050 2e 3f 95 3c ec b7 83 3b 1e 25 59 3c 88 3d 28 3d
       0.018218603 0.004019728 0.013253478 0.041074306
000060 53 45 4a 3b f4 ac 71 3d 4b fd 3d 3b c9 2f 04 be
       0.0030864074 0.05900283 0.0028990086 -0.12908854
000070 f9 4e 52 3d 12 69 22 3d 37 d0 a9 bc f1 b5 1e be
       0.051344845 0.039650984 -0.020729167 -0.15499093
000080 70 7a 48 3e 6a 99 55 be 38 80 7f 3c cf 30 13 be
       0.19577956 -0.20859304 0.015594535 -0.14374088
000090 94 74 80 3e 3c 5a 84 be 97 5e a9 3e 56 c9 00 be
       0.25088942 -0.25850093 0.3307998 -0.12576804
0000a0 d0 84 82 3d 89 de 43 be 1b 4c 81 3e a0 03 41 be
       0.06372988 -0.19127859 0.25253376 -0.18849039
0000b0 9a ab 43 3d f5 a7 3c 3c 72 dd 21 3d 92 4e c3 bd
       0.047771074 0.011514653 0.039517827 -0.095364705
0000c0 cd d6 09 3d 58 bd 3d 3d 54 f4 26 bd 0d e4 42 bd
       0.033652116 0.04632315 -0.040760353 -0.047580767
0000d0 8c 2b 13 bf cb 29 27 3d 31 a1 bd bc a7 b6 aa bb
       -0.5748832 0.04081134 -0.023148151 -0.005209762
0000e0 86 ba 70 3e 2b 3c 4e 3f e8 af 43 3e 18 52 47 bd
       0.23508653 0.8056056 0.19110072 -0.048662275
0000f0 7a 9d fd be 6b b2 29 3f 2c f4 a8 c0 4f 77 92 3f
       -0.49534208 0.6628787 -5.279806 1.144266
000100 1e cd 09 bf 15 bc c9 3d d2 a0 32 3d 99 b0 71 3f
       -0.5382861 0.09850327 0.0436104 0.9441009
000110 6f f8 61 3d 9b ff e0 3c 7e a7 7b bd ec cc 3a bb
       0.055168565 0.027465632 -0.06143903 -0.002850349
000120 76 f6 d9 be fe c7 2f 3d c9 f6 c0 bd f5 59 8b 3e
       -0.42570847 0.042915337 -0.094220705 0.2721707
000130 8c 10 60 be 60 60 99 3e bc 5c fb 3e b9 ad b8 3e
       -0.21881312 0.2995634 0.49094188 0.3607004
000140 4b 31 b2 3e 28 f2 0b bd 2d 7c 39 be 69 82 09 bf
       0.34803233 -0.034166485 -0.18113776 -0.53714615
000150 3d 01 38 bf 78 df e8 be e2 75 ec be 2a 65 03 bf
       -0.7187689 -0.45482993 -0.46183687 -0.5132624
000160 67 f9 e4 3e dd 14 77 3e 45 17 04 3e a9 57 0c 3f
       0.4472153 0.24129052 0.12899502 0.5482126
000170 89 74 2e 3e 57 19 bf 3e 86 cc 23 3c 74 9b 28 3e
       0.17036642 0.3732402 0.009997493 0.1646555
000180 4d e1 15 bd 69 88 d9 be d7 67 d0 3d bc 32 00 3e
       -0.036591817 -0.42486885 0.10176056 0.12519354
000190 5b bf e0 bd 7d d0 0a bf 38 77 22 3d 82 fe 45 3e
       -0.10973998 -0.5422438 0.039664477 0.19335368
0001a0 54 2b 00 3e 3a 91 ea 3e 9b ac aa 3e f6 3c a7 3e
       0.12516528 0.45813924 0.33334813 0.32663697
0001b0 ce 9e ae be b2 f5 52 be 71 60 6a be 3f d1 9e be
       -0.34105533 -0.20601538 -0.22888352 -0.31019017
0001c0 0e ab 84 bd c2 ae 71 3e 53 6a 80 3e 7d 84 8e bd
       -0.064779386 0.23601821 0.2508112 -0.06958864
0001d0 a0 10 a6 3e 74 34 89 be b3 96 a5 3c bb 53 b9 be
       0.3243456 -0.2679783 0.02021346 -0.36196694
0001e0 81 57 3a bd 39 1a 1e 3d c1 3a 43 be df 62 04 3e
       -0.045493606 0.038599227 -0.19065382 0.12928341
0001f0 35 20 b4 bc 00 d8 98 3d e4 ee 06 bf 28 a8 40 3d
       -0.021988014 0.07463074 -0.5270827 0.047035366
000200 76 34 ab 3e 6d 39 9b 3e a3 97 a4 3e 0d f8 40 3e
       0.33438462 0.3031725 0.3214694 0.18844624
000210 f6 48 92 3e 8b da 91 be 0b 58 bd be 72 d5 81 be
       0.2857129 -0.28487048 -0.36981234 -0.25358158
000220 08 22 b0 be cc ad 39 be 7c 50 d2 3d 54 a8 30 3e
       -0.34400964 -0.18132704 0.102692574 0.17251712
000230 a7 fc 9e 3d 13 99 63 3e ea 11 50 be 51 ed 5f 3e
       0.07763033 0.22226362 -0.20319334 0.21867873
000240 22 c2 fc bd c2 7e b5 3d a2 a0 46 3d f0 14 58 be
       -0.123417154 0.08862068 0.048493035 -0.21101737
000250 cc f8 1e 3e 80 1a e8 3d a4 d0 77 bd 7c b6 95 3c
       0.15524596 0.113331795 -0.06050171 0.018275492
000260 b3 38 2b bd e6 ad a9 bb 48 05 b2 bd 97 20 e6 3c
       -0.04180212 -0.005178201 -0.086924136 0.028091712
000270 74 50 a4 3d 6e b0 51 be cb 12 cb 3d 88 61 44 3d
       0.08023158 -0.20477459 0.09915694 0.047944576
000280 72 c0 91 bc 2a 8f a2 bd 05 db e5 3e 2e 70 46 3e
       -0.01779196 -0.07937463 0.4489366 0.1937873
000290 c1 b7 21 bc 90 f4 ce bc b1 45 3e ba 9b b4 e0 bd
       -0.0098704705 -0.0252631 -0.00072583096 -0.10971948
0002a0 86 3d 63 be 21 55 45 bc 06 6d 0b 3b cb ba 1c 3d
       -0.22191438 -0.012044222 0.00212747 0.038264077
0002b0 c2 84 13 bd 60 b7 99 bc de a0 86 3d a6 fc 0c 3c
       -0.03601528 -0.018764198 0.06573652 0.008605158
0002c0 04 4a 22 3c 2f 60 5c 3d 54 aa be 3c ad 4f 5d 3c
       0.009905342 0.053802665 0.023274578 0.013507766
0002d0 c6 56 2e bd 41 5e 4d 3d 24 be e6 bd ff fb 3e bc
       -0.042563222 0.050138716 -0.11266735 -0.01165676
0002e0 09 80 c5 bc 5c 48 f5 3c a9 07 cf bd c8 3d 13 3f
       -0.024108903 0.02994173 -0.10108883 0.57516146
0002f0 79 c2 f6 3d 58 b6 f7 bc ee 25 da ba d3 d6 db 3a
       0.120488115 -0.030238315 -0.0016643384 0.0016772397
000300 f8 d1 2e bd 61 d0 d2 be c0 da 26 bc aa ca 3a bd
       -0.04268071 -0.41174605 -0.01018399 -0.04560343
000310 71 ca af bc 52 e1 47 bd ba 81 7a bd 56 3a c7 3d
       -0.021458836 -0.048798867 -0.061158873 0.097279236
000320 f2 94 b4 bc 8a 05 2b bb 1e 71 89 3d 02 db a8 3d
       -0.022043679 -0.002609583 0.067110285 0.082448974
000330 b6 0d 18 3c 2b 4a a4 bc 66 8f 6f 3d d0 d7 a5 bd
       0.009280613 -0.020054897 0.058486365 -0.080978036
000340 42 a2 c1 bc 32 24 33 bd 64 f0 82 3c a2 b5 b3 bd
       -0.02363694 -0.04373569 0.015983768 -0.08774878
000350 9e 60 2d 3f 5e 81 9a 3c a6 1d 61 bd 2a 72 40 3d
       0.6772555 0.018860515 -0.054959916 0.046983875
000360 a0 0d 37 bc 8e 2e ce bd 31 cf 2a bf e9 a2 b0 bc
       -0.011172682 -0.10067473 -0.667224 -0.021562057
000370 90 0c d9 3c bb 59 aa 3c 52 7b 92 bd 1f 87 9b bd
       0.026495248 0.02079474 -0.07152428 -0.07594132
000380 f2 d5 bb 3d 5f 00 44 3d 9c a5 e9 3d ba ba 0f 3e
       0.09171666 0.047851916 0.114085406 0.14036074
000390 fb a1 00 3e 69 28 a4 3d 25 be 07 3e b9 5d 5f 3e
       0.1256179 0.0801552 0.13256128 0.21813096
0003a0 d1 02 5f 3e 4a cc 47 3e 48 42 fa 3d 41 21 0c 3e
       0.21778418 0.19511524 0.122196734 0.1368456
0003b0 e5 80 79 3e 6c ab 0d 3f 1a 60 3c 3e 84 70 1e 3e
       0.24365576 0.55339694 0.18396035 0.15472609
0003c0 5c 59 da 3d d2 89 32 3e 36 f1 15 3e 3b 8c 03 3e
       0.10661575 0.17435387 0.14642796 0.12846462
0003d0 fd 23 d6 3d cd e6 8f 3d 1b 5e d7 3d 07 f1 da 3d
       0.10456083 0.07026444 0.10515996 0.106905036
0003e0 5b 96 d1 3d e2 e7 3c 3d dd 16 fd bd e6 2f 51 be
       0.10233756 0.04611958 -0.123578764 -0.20428428
0003f0 0f 96 96 be 36 11 47 be 30 95 f6 bd 98 24 84 be
       -0.2941136 -0.19440159 -0.12040174 -0.2580917

head_conv.0.bias f4 [56]
000000 26 2d ab 3d e6 2f e9 be d7 55 2e be f8 a7 09 be
       0.08358221 -0.45544356 -0.17024933 -0.13442981
000010 df de 40 bd 57 69 9a 3b a6 78 9e bd bb c0 20 3f
       -0.047087546 0.0047122645 -0.077378556 0.62794083
000020 f1 51 f2 3e eb c8 16 bb dc 33 40 3e 98 32 6b be
       0.4732814 -0.002300794 0.18769783 -0.22968519
000030 25 be 2d 3c 60 c5 bc bd 15 f4 a3 bf 78 67 86 be
       0.010604416 -0.09217334 -1.2808863 -0.26250815
000040 12 04 f0 be cf 9b d9 3e 45 5b fb 3d 60 be 1f bf
       -0.46878105 0.42501685 0.12273268 -0.62399864
000050 85 d6 55 be 6e cd bd 3c ae 32 bb bc b9 8e 10 3d
       -0.20882614 0.023169246 -0.022851314 0.03529236
000060 d6 58 3a 3d eb 03 1c 3e 69 aa 2e 3d b6 91 fd bd
       0.045494877 0.1523587 0.042642985 -0.12381308
000070 3c dd 36 bd b3 97 b5 bd 9a 59 2e ba 10 1a 57 bd
       -0.04464458 -0.08866825 -0.0006650925 -0.05251509
000080 46 3a 85 3c f8 01 16 3b 5d 89 76 3d 9a c4 47 bf
       0.016263139 0.0022889357 0.060189594 -0.78034365
000090 1f 76 e6 3d e9 e4 19 3e 51 f2 25 be d4 aa 43 bb
       0.112529986 0.15028729 -0.16205718 -0.002985646
0000a0 f9 10 4c bd a8 bb 9e bd bd 9e 96 3c 41 03 81 be
       -0.049820874 -0.07750636 0.01838624 -0.25197795
0000b0 0d 69 05 be 16 36 9c 3b 38 65 0d be 34 56 30 bd
       -0.13028355 0.0047671897 -0.13808143 -0.04305096
0000c0 4e be 44 bd 38 ec c7 bd 78 58 a6 bb 5a 68 5f 3e
       -0.04803305 -0.09761852 -0.0050764643 0.2181715
0000d0 b6 62 11 3e 8f f0 42 be c2 3d 2d 3d 84 42 b0 3d
       0.14197811 -0.19037078 0.042295225 0.08606437

body_conv.0.0.weight f4 [12, 56, 1, 1]
000000 90 b7 08 3d 29 3e ec 3b 3a b8 25 3c 32 b0 aa 3e
       0.033378184 0.0072095585 0.010114724 0.3333755
000010 0f 87 cf 3c 5d 32 90 3c 88 37 42 3d bf c3 9d bc
       0.025332956 0.01760214 0.04741624 -0.019258378
000020 10 ec 76 ba ad 96 95 3c e4 4e f0 3b 54 36 bb 3b
       -0.00094193313 0.018260324 0.0073336232 0.0057132635
000030 d9 63 3e 3c 99 28 43 3c eb a2 29 bc a6 e7 7a bc
       0.011620485 0.011911535 -0.010353784 -0.015314018
000040 ae 59 69 bc ff 76 f3 ba 68 8e c5 be 13 e2 9e 3c
       -0.014242573 -0.0018574892 -0.3858521 0.01939491
000050 0b 93 25 3b 98 1a 22 bc 74 33 b3 ba dd 9f 0c 3d
       0.0025264646 -0.009894036 -0.001367195 0.034332145
000060 5b 2e cf 3b 9a a1 56 3d 10 58 ec 3b 0b 37 9c ba
       0.0063226647 0.05240021 0.0072126463 -0.001191826
000070 75 62 48 3c 55 b8 db 3b 6e e4 46 bc 53 b6 aa bc
       0.012230505 0.0067053237 -0.012139423 -0.020838892
000080 7f 3d ab bb b1 1e 69 3b 11 3b d9 3b d8 8a 33 3c
       -0.0052258368 0.0035571272 0.0066293557 0.010958396
000090 68 2a 10 bc 5b 64 40 bb 6b 4a 36 ba 6b 40 23 3b
       -0.008799173 -0.0029356692 -0.0006953838 0.0024910222
0000a0 ac 47 84 be 24 4c d1 bc d4 0e 19 39 51 7b ef 3b
       -0.2583593 -0.025549002 0.00014596741 0.0073084016
0000b0 3b ba f0 3a a2 89 12 3b f2 13 2c 3c db da 63 bc
       0.0018366048 0.0022359868 0.010502802 -0.01390716
0000c0 3c 70 ea bb c0 0c 21 bd d7 ba 44 3b c7 25 2d bb
       -0.0071544927 -0.0393188 0.0030018592 -0.0026420222
0000d0 96 e6 8d bb 9b 21 32 bd 2f 00 8f 3b 2c 2e 1f bd
       -0.0043304665 -0.04348908 0.0043640356 -0.038862392
0000e0 86 14 8e bd 6a 2b b2 bb 90 9e dc bc c5 67 49 bc
       -0.06937508 -0.0054373043 -0.026931077 -0.012292807
0000f0 af a9 0c bd 1e ef 15 bd d8 70 8f bd ee 62 8c 3c
       -0.03434151 -0.036604993 -0.07003945 0.017137017
000100 5c 70 2c bd e3 15 bf 3b c3 35 4b bc 89 dd 82 bc
       -0.04209934 0.0058314665 -0.0124029545 -0.015974777
000110 0b 9f 5e bc a6 86 62 bc 56 19 41 3c 64 a4 a8 3c
       -0.0135877235 -0.013826048 0.011785826 0.0205862
000120 e4 85 81 3c c3 8e 0b bb fb 7a 16 3d 00 2b 49 bc
       0.015810914 -0.002129481 0.036738377 -0.012278318
000130 ec 2a 4a bc 3a c6 e4 3c 46 45 03 bc 4c 1f 1f bb
       -0.012339335 0.027926553 -0.008012122 -0.002428013
000140 d7 f4 91 bc 96 53 23 3f ab 1c a7 bb 6a ad 1b bc
       -0.017816944 0.63799417 -0.005099853 -0.009501794
000150 1c ee a6 bc 87 81 8c bc ee 3c f9 3c 25 9f 3b 3b
       -0.020377211 -0.017151607 0.030424561 0.0028628793
000160 77 d1 78 3c a0 af d5 3b 85 0e 84 bc ee 72 a4 bc
       0.015186659 0.0065211803 -0.016120205 -0.020074334
000170 a6 79 5a 3c 17 d1 87 3c 8a ca 99 bb b2 6f 9d 3b
       0.013334667 0.016579194 -0.004693334 0.004804575
000180 15 81 39 bd ab 73 c7 3c 8d 66 a0 3c 09 60 b0 3d
       -0.045289118 0.024347147 0.01958015 0.08612067
000190 40 5d 54 3e 66 30 fc bb 83 8b 42 bc 82 e1 ed 3c
       0.20738697 -0.007696199 -0.0118740825 0.029038195
0001a0 1a 84 17 3c 71 cc 73 3d 91 d4 81 3a de 18 db bd
       0.009247804 0.059521142 0.0009905269 -0.106981024
0001b0 27 e6 52 bc a8 cc 4a bf e0 e2 5a b9 84 a9 3b 3d
       -0.012872255 -0.7921853 -0.00020874618 0.04581596
0001c0 f5 36 ad 3c b0 d1 08 bd 75 d1 4d bd 66 7d 9d bc
       0.02114437 -0.0334031 -0.050248582 -0.019224834
0001d0 29 a1 ad bd d9 40 cd 3c 9e e5 0e 3c f5 6d 0f bd
       -0.084780045 0.025055336 0.008721737 -0.035016973
0001e0 86 f8 5f bc 58 57 e4 3d 15 0e b9 3d 84 8f a4 bd
       -0.013670092 0.11149472 0.09035889 -0.08035186
0001f0 34 dc 9e 3d 85 63 02 be af 51 11 3d 54 e0 e9 3d
       0.07756844 -0.12733276 0.03547829 0.1141974
000200 4f 98 42 3d ec fc 91 3d 44 58 7f 3c d1 46 ff 3b
       0.047508534 0.07128319 0.015585009 0.0077904244
000210 af 3b 68 3d ba 8d cd bd b4 83 05 bb f5 aa c5 ba
       0.056697544 -0.10036798 -0.002037269 -0.0015080856
000220 38 46 84 3d 29 a1 59 bd 7e 4e c1 3d e4 95 01 3e
       0.06458706 -0.05313221 0.09438799 0.12654835
000230 89 70 43 be b0 8b 5e bd 76 d3 cd 3c 50 29 3a 3b
       -0.19085898 -0.054332435 0.025125246 0.0028405972
000240 ca c6 cf bc e3 fb 84 3d 15 bd 2e bd 61 32 31 be
       -0.025363345 0.06493356 -0.04266079 -0.17304374
000250 25 d6 29 be 86 c9 57 3e 8b 5a 06 be 2f f8 55 bb
       -0.16585596 0.21072969 -0.13120477 -0.003264915
000260 ec d2 d8 bc 9b 22 ac 3d 99 ed 2c bd 2b 82 e9 bd
       -0.026467763 0.08405038 -0.04221878 -0.11401781
000270 39 81 29 be 1b 97 43 bd 02 56 4e bd 85 a1 54 bd
       -0.16553201 -0.047751527 -0.050374992 -0.05191185
000280 fa e1 2d be 05 88 c8 bd 5f 45 dc 3d 1d 62 00 3e
       -0.16980734 -0.09791569 0.10755419 0.12537427
000290 79 82 f0 3d 8f 4e 9d bb 41 5a 22 3e 8b bd 8a 3d
       0.11743636 -0.0048006247 0.15854742 0.06774434
0002a0 04 9f dd bc 42 9e 84 3c ff 8b 05 3b 77 5c 9a ba
       -0.027053364 0.016188744 0.0020377634 -0.0011776824
0002b0 7d 49 e9 3b b3 7c e9 3b 14 04 82 3c 58 69 25 3c
       0.007119356 0.007125461 0.015871085 0.010095917
0002c0 ea 94 cf bd ed 8d c2 ba b7 07 b5 bb b1 fd b9 3b
       -0.10135825 -0.0014843323 -0.0055246013 0.0056759943
0002d0 4a 88 1b 3c 64 d5 16 3b 55 2d 33 3a 82 d2 59 bb
       0.009492943 0.0023015374 0.0006835063 -0.0033237045
0002e0 b3 af 2b bb e0 ce 18 bb 54 47 a1 bb 94 82 3a bc
       -0.0026197254 -0.0023316666 -0.004921833 -0.011383671
0002f0 14 1c d5 b7 fd 65 f9 3b fc 51 56 bb 0b 8f 4d 3a
       -2.5404654e-05 0.007611035 -0.0032702675 0.00078414445
000300 bd 8b 53 bc 34 fd 65 3b 1d 8d 48 bb d4 90 60 bc
       -0.012911734 0.0035093548 -0.0030601688 -0.013706405
000310 b0 ae 27 bb a8 bf b7 bb b3 f3 1d 3b 4d 49 4e bb
       -0.00255863 -0.005607564 0.0024101555 -0.0031476796
000320 a8 ec aa bb e8 ad 3c 3c 5e 42 0f bb b4 38 07 3c
       -0.0052162 0.011516072 -0.0021859626 0.008253265
000330 a5 71 c5 b9 59 84 d8 3a 6f 45 5a bb 9c 10 82 3c
       -0.0003765944 0.0016518935 -0.0033305546 0.01587706
000340 7d d2 fc 3b fb f4 94 bc 9a e0 2e 3c 66 a8 45 bf
       0.007715522 -0.018183222 0.010673666 -0.7721008
000350 44 8e 34 3c de 6b ae b8 27 d7 b0 3b bc b1 16 39
       0.011020247 -8.3170584e-05 0.005396742 0.00014371326
000360 e6 f2 54 bb 82 c5 f6 39 ec e6 3d 3b 75 24 08 3f
       -0.0032493412 0.0004706793 0.0028976751 0.5318063
000370 71 4b 91 bd 90 30 b9 38 45 50 b5 3b 24 fe de bc
       -0.070944674 8.830533e-05 0.0055332505 -0.027220793
000380 ad 6b 16 bd 7a c4 9a 3b aa a8 11 3c 17 72 84 3c
       -0.03672378 0.004723129 0.00889031 0.016167684
000390 92 3c 85 39 30 5f 2c 3b 9c 5f 39 3c fc 1d 8d bd
       0.00025412865 0.0026301853 0.011314299 -0.06890485
0003a0 d8 bf c4 bd ab a1 00 bc 2c c4 0c bb 2b 2d 9e 3b
       -0.09606904 -0.007851045 -0.0021479232 0.004827162
0003b0 cf 96 a1 bb e1 ee 89 bc 05 ae 47 bd eb 9d be 3a
       -0.004931308 -0.01683754 -0.048749942 0.0014542913
0003c0 43 f9 8a 3b 39 96 dd 39 aa 98 32 bc 45 4a 76 3d
       0.00424114 0.0004226433 -0.010900656 0.060129423
0003d0 29 e1 11 3a d2 e7 fc 3b 8c 96 a5 39 90 5b b9 be
       0.00055648625 0.007718065 0.0003158342 -0.3620267
0003e0 fb d4 60 bc e1 c1 4f bb 21 37 c2 3b ae 1e 78 bc
       -0.0137226535 -0.0031701254 0.005926982 -0.015144033
0003f0 68 25 bc bb 1f 04 fe ba 11 6e 00 ba cf 1b 5a 3e
       -0.005741764 -0.001937989 -0.00048992137 0.2129967

body_conv.0.0.bias f4 [12]
000000 37 02 ae 3d 0d 2b 89 3b 3f 2a 34 bd 1f 20 4e 3b
       0.08496516 0.0041860403 -0.0439856 0.003145225
000010 4e fc 90 3e 62 94 04 3f a0 7d 50 3d 00 37 77 3c
       0.28317493 0.51788914 0.050901055 0.015088797
000020 46 0d 92 3d 25 e9 8d be c9 dc 03 bf 18 0e 95 bd
       0.07131438 -0.27716938 -0.51508766 -0.07278079

body_conv.1.weight f4 [12, 12, 3, 3]
000000 c2 b0 0b 3e 6e a5 66 3d 47 b4 c2 bd 84 9e 02 be
       0.13641647 0.05631011 -0.095070414 -0.12755781
000010 65 c4 da 3c cd 6d 32 bf 36 67 28 3e 74 30 0c 3f
       0.026704976 -0.6969879 0.16445622 0.54761434
000020 79 e7 e0 bc f8 85 fc 3c 19 18 3c bd b6 ff 54 bd
       -0.027454125 0.0308256 -0.04592142 -0.052001677
000030 bb 5f 85 bd 09 f7 de 3e d7 54 25 be b6 91 01 be
       -0.065124 0.43547848 -0.16145645 -0.1265324
000040 a6 a5 c6 3d be 4a 29 3d b1 09 8e bc 0e de dc be
       0.09699564 0.041331045 -0.017338606 -0.43138164
000050 26 52 97 bc 2a d0 75 3d f9 6c 27 3f bf 73 98 be
       -0.018471789 0.060012974 0.65400654 -0.29775807
000060 70 a5 3b 3d 4e 7b 63 3e fb 07 0e 3d 18 9d 07 3c
       0.04581207 0.22215006 0.03467558 0.0082772
000070 dc ec 3c be 1e 8a a6 3d e3 57 36 be 03 22 7f 3f
       -0.1844973 0.081318125 -0.17806964 0.9966127
000080 e7 17 b9 3c 63 06 a4 bd 2e 35 4b be 68 01 be 3c
       0.022594405 -0.08009031 -0.19844505 0.02319403
000090 93 82 01 3e 63 1d b1 3e 91 a1 1f 3e bc 92 cc bd
       0.12647466 0.34592733 0.15588976 -0.09988925
0000a0 6c a0 fa be 11 21 57 3d 3e e8 db 3d 50 60 56 be
       -0.48950517 0.05252177 0.10737656 -0.20935178
0000b0 34 34 51 3d 03 3e 9c 3d f1 35 36 be 45 46 f8 bc
       0.051075175 0.07629015 -0.17794015 -0.030306945
0000c0 91 f5 44 be 65 67 d1 3e 54 26 1b be 45 84 34 3d
       -0.19234301 0.40899196 -0.1515134 0.044071455
0000d0 21 d6 6c 3a 5e d7 61 3d cb 97 e3 3b c1 fe 5a 3d
       0.0009034593 0.05513703 0.0069455854 0.05346561
0000e0 92 71 38 bd 62 f2 c6 bd 54 c6 7e bc fb 28 cc 3d
       -0.045030184 -0.097141996 -0.015550215 0.09968754
0000f0 46 a6 49 bd d3 f9 27 3c 77 ae e7 bc a1 dd cc 3d
       -0.049230836 0.010252434 -0.028281434 0.1000321
000100 f2 fa 0f 3d ac 97 cd 3c ba e4 a3 3c 6c 08 6b be
       0.03515143 0.025096737 0.020006526 -0.22952431
000110 e0 6c ae bd c5 1b c2 bb e2 4d 29 3d 21 eb 19 3e
       -0.0851686 -0.0059237205 0.04133404 0.15031101
000120 20 02 9f bd 52 ce 0e be 6f 9e 5e bd 53 88 6b bd
       -0.07764077 -0.13945892 -0.054350313 -0.057503056
000130 ad 18 5a 3e e5 7c 9d 3d 96 be 47 3c 44 30 0a bd
       0.21298476 0.07689837 0.012191435 -0.033737436
000140 66 b7 8b bd 24 8d 1e be cb 17 8a be 29 b4 4b be
       -0.0682209 -0.15483528 -0.26971278 -0.19892944
000150 45 99 99 3c 86 09 21 3f d8 e6 1e bc 66 d1 0c be
       0.018749842 0.62905157 -0.009698592 -0.13751754
000160 c8 bb 1f 3e c5 71 72 bd 34 70 62 bd b5 c3 66 3e
       0.15598977 -0.05919053 -0.055282786 0.22535594
000170 48 e6 96 3c f3 b6 45 3e 2f e2 67 be 30 6d ad 3d
       0.018420354 0.19308071 -0.22644876 0.084680915
000180 19 70 3c bd c4 2b b0 bc a8 1e d6 bd 27 0d d3 3c
       -0.046005342 -0.021505244 -0.10455066 0.025763107
000190 66 cf 07 3e 36 4d 88 3c 2b 98 b5 bd ad b3 cf bd
       0.1326271 0.01663838 -0.08866914 -0.10141692
0001a0 05 de 6f 3d 83 04 07 be 61 60 0b bd 47 4b 38 3c
       0.058561344 -0.13185315 -0.03402746 0.011248416
0001b0 10 d9 28 3e bd 26 c0 3d c2 8f 9f 3d 8c 2a db be
       0.16489053 0.09382389 0.077910915 -0.42805898
0001c0 f5 61 f9 3d b0 06 41 3d e1 cd 80 3e ee 45 7d 3d
       0.12176887 0.04712552 0.25157073 0.06183427
0001d0 01 04 cb be 84 41 62 3d a2 78 b7 3d d4 10 a9 bd
       -0.39651492 0.05523826 0.08958556 -0.08255163
0001e0 f0 85 62 3d 20 fc 1f 3f 9b 87 40 be 66 37 8c be
       0.055303514 0.6249409 -0.1880173 -0.27386016
0001f0 29 6e 21 be 3d da ca 3d d3 c8 08 be 56 6c 7b 3d
       -0.15764679 0.09904907 -0.13357858 0.061382614
000200 95 7f 1f be 42 3f 13 3d b6 fa eb 3e d6 eb c7 bd
       -0.15576012 0.035949 0.46089715 -0.09761779
000210 73 12 b8 bc ce 9a 38 bd 1c d3 0c 3d e3 45 95 bd
       -0.022469735 -0.04506951 0.034381017 -0.072887205
000220 6c 59 08 3c 09 52 d1 3d f3 d5 46 3d 35 8c 20 bf
       0.008322101 0.10220725 0.04854388 -0.6271394
000230 2e 88 a3 3d 47 2e 0a be c5 78 f4 bc 73 f9 f1 bd
       0.079849586 -0.13494216 -0.029842744 -0.11815157
000240 46 5c 44 bc f8 08 c7 3d 85 96 b1 3c 02 77 8b 3d
       -0.01198489 0.097185075 0.021678219 0.06809808
000250 8f 51 28 be a4 3f 70 bd 82 55 d1 bc 6a 76 4b be
       -0.16437362 -0.058654442 -0.025553469 -0.1986939
000260 62 c7 68 3e e2 3c 38 bc d8 80 2e be f1 b1 72 3c
       0.22732309 -0.011244984 -0.17041337 0.014812932
000270 3d 13 f3 3c b5 b3 cd 3e e2 16 1c be a6 3e 27 3d
       0.02967226 0.40176168 -0.15243104 0.04083123
000280 6c eb 09 be db 47 d1 bd 19 e1 8d bd 7d 44 19 be
       -0.13468713 -0.102187835 -0.069276996 -0.14967532
000290 8e a7 63 bc ba 5c ac 3d 9f f1 ed be 27 b5 bb 3c
       -0.013894929 0.08416124 -0.46473405 0.022913529
0002a0 7e ed b8 bd 5c fe 4f 3e 33 58 4a 3d 49 a8 c0 3d
       -0.09029673 0.20311874 0.04940052 0.09407098
0002b0 83 9d 0d 3e 66 6a e5 3d 85 cd 86 bd e4 1c 17 3f
       0.13829617 0.112019345 -0.065821685 0.5902846
0002c0 6b 67 01 bd 9a 78 44 be 54 3b 57 bf 30 36 28 3e
       -0.031592768 -0.19186631 -0.840749 0.16426921
0002d0 91 27 bf bd d1 24 bb bd d0 e6 5c bc fe bf 64 3e
       -0.093337186 -0.091378815 -0.013482764 0.22338864
0002e0 5b d6 37 be b2 64 28 3e 31 bf cc bd b3 bf bb 3e
       -0.17952864 0.16444662 -0.09997404 0.36669692
0002f0 b4 38 f3 bd 98 08 a5 3d 52 69 f7 bd 05 9b 77 3c
       -0.1187605 0.0805828 -0.12080635 0.015112643
000300 2a f7 37 be 24 a0 ed 3d 0b 09 29 bd 0d f1 96 3c
       -0.1796538 0.1160281 -0.04126839 0.018425489
000310 a1 a9 7a 3e fc dd 17 be 10 5d a0 3b 40 a0 90 3e
       0.24478771 -0.14830774 0.0048939064 0.2824726
000320 df 20 0d bd 47 51 ac bd 3a 41 cb bd e7 91 0a be
       -0.034455176 -0.0841394 -0.0992455 -0.1353222
000330 ba 03 c8 bd 21 d5 03 3e c3 36 57 bd ab fa ae 3d
       -0.09766336 0.12874271 -0.05254246 0.08543905
000340 4b 0f 6b 3d 0a e9 8f bb ec 89 a6 be 98 12 67 3d
       0.05738763 -0.004391794 -0.325271 0.056414217
000350 c9 50 5a be 5f 0b 5c 3d 1e 2e 82 3e d0 5b e7 bc
       -0.2131988 0.05372178 0.2542581 -0.028242022
000360 37 8f 81 bd 3c 48 75 3e 09 ad e1 3d 36 83 0a 3e
       -0.06326144 0.23953336 0.11019332 0.13526616
000370 36 17 0b 3f 6e ab c2 3e ce f7 55 bc 5d 9a 79 3e
       0.5433229 0.38021415 -0.0130595695 0.24375291
000380 53 26 2e bd 56 b7 10 be 13 50 d0 bd a8 d0 c3 bc
       -0.042517018 -0.14132437 -0.10171523 -0.023903206
000390 59 87 1b be e1 94 e5 3e c7 4e 85 3d 1a 04 9f bd
       -0.1518835 0.44840148 0.06509166 -0.07764454
0003a0 f3 af 9a bd c1 ce 05 bd 88 e0 a2 bd 19 cb 47 bd
       -0.07553091 -0.03266788 -0.07952982 -0.048777673
0003b0 b9 b0 84 bd e0 80 15 3e a3 d6 c1 3c 24 c5 b9 bc
       -0.0647902 0.14599943 0.023661917 -0.022677012
0003c0 86 a9 62 3e b6 d9 17 be 12 d7 01 bd 72 3c 27 3e
       0.2213498 -0.14829144 -0.031699248 0.16331652
0003d0 48 6c 00 3d c6 dd 0f bc bc 94 0a be 58 6d b9 be
       0.031353265 -0.008780902 -0.135333 -0.36216235
0003e0 99 c9 e3 3c 3d ba 3c 3c 1d f8 76 3e c6 9d 39 3d
       0.02780609 0.011519012 0.24118085 0.04531648
0003f0 7f 2e cc bc 39 bf 21 bd 79 69 0b bd 68 66 18 3d
       -0.024924515 -0.039489005 -0.034036133 0.037207037

body_conv.1.bias f4 [12]
000000 7c a0 8f bd 56 2b 91 3d f5 fd a8 bc 83 26 1d 3e
       -0.07013032 0.07088344 -0.020628909 0.15346722
000010 ef e4 b5 bc 62 95 da bd 36 28 7e bd 4d e4 16 be
       -0.02220389 -0.10673024 -0.062050067 -0.14735527
000020 1d 68 bb be cd c0 36 bc f5 e5 d1 3c ac 67 5e 3e
       -0.3660287 -0.011154366 0.025622347 0.21719235

body_conv.2.weight f4 [12, 12, 3, 3]
000000 d1 01 45 3e 04 9b 19 3d 4e 2a 47 3d 2f ae 0f be
       0.19238974 0.03750135 0.04862433 -0.1403129
000010 89 67 74 be 21 29 f2 bd 93 00 75 be 1f 8b 9a 3c
       -0.2386762 -0.11824251 -0.23926 0.018865166
000020 74 f7 b2 3d cf 7c aa bd 1b 3b 44 3e fb 98 8a bd
       0.08738604 -0.083245866 0.19163172 -0.0676746
000030 ee b8 93 be 21 65 4f be d7 18 34 ba 98 af 07 3e
       -0.28852028 -0.20253421 -0.00068701565 0.13250577
000040 e0 b2 7e bc 24 7b cf bc 14 61 b7 3e cc f0 86 3e
       -0.015545577 -0.025327273 0.35816252 0.26355588
000050 52 83 9c 3d 7d 0d 85 be 1d c7 34 bf cc 53 f3 3d
       0.07642235 -0.25986853 -0.7061632 0.11881217
000060 5d b4 83 bd 67 1c a9 3b 63 86 35 3e 1f 3d be be
       -0.06430886 0.0051608565 0.17727046 -0.37156007
000070 7d 99 44 bd 8a 60 99 be 57 d7 31 3d bf 2a 4c 3f
       -0.04799794 -0.29956466 0.043418255 0.79752725
000080 eb e2 66 3d 5c ef 31 3d 7c 57 a8 3e 78 21 a5 3d
       0.05636875 0.04344116 0.32879245 0.08063024
000090 88 d6 82 3c 3d bc 26 bc 28 dd 8e 3d a6 e5 d6 3b
       0.015971437 -0.010176715 0.06975776 0.006558138
0000a0 41 0e 4c 3d 89 88 62 3d 0b f3 ae bc f9 b4 da 3d
       0.04981828 0.05530599 -0.021356126 0.10679049
0000b0 8e 23 3d bc 4c 57 26 bd 56 a0 3d be b6 67 e9 3d
       -0.011544121 -0.040610597 -0.18518195 0.113967344
0000c0 ca 73 b8 be 6e e2 2a 3f 80 c6 98 3d cb 5a a8 3d
       -0.3602584 0.66751754 0.07459736 0.082204424
0000d0 e7 33 41 be f6 f8 55 bc 84 61 3b 3e cc 51 65 be
       -0.18867455 -0.013059845 0.18298918 -0.22394484
0000e0 07 43 0f 3d 1e fd d4 bd 72 2c 2c 3f 63 b3 6e be
       0.03497603 -0.10399841 0.6725532 -0.23310618
0000f0 66 c4 0a be 0e ff 64 be f4 cc c9 3c 7a bc 06 bd
       -0.13551483 -0.2236292 0.024633862 -0.03289459
000100 89 e9 89 be f8 8b 31 3c 5c 0a 99 bd c2 4c 24 3f
       -0.26935986 0.010836594 -0.07472679 0.64179623
000110 fe 04 10 be 2a 2f 73 3e 61 ac a8 be df 8d d0 3c
       -0.14064404 0.2374846 -0.32944015 0.025458274
000120 35 11 91 ba 84 d6 de bd 83 78 85 bd af b4 1c bc
       -0.001106775 -0.10880759 -0.065171264 -0.009564563
000130 16 b4 ec bb ad 0d 8c 3d 65 cd 43 3e 9b 22 90 bd
       -0.0072236164 0.06838546 0.1912132 -0.070378505
000140 7b 42 d0 bb 68 06 96 3e 51 e5 bb bd fe 16 0e 3d
       -0.0063555813 0.29301763 -0.09174598 0.034689896
000150 d9 6f b9 bd 02 71 43 3f 6e db 05 3c 2a e7 f5 3c
       -0.09054536 0.7634431 0.008169992 0.030017454
000160 db e0 f0 bc 3c d9 da bc 49 12 00 be 80 cd b5 bd
       -0.029404094 -0.026714914 -0.12506975 -0.08877087
000170 a1 ba 06 3d 58 69 70 bd 82 f9 db 3d 1b 3c 20 be
       0.032892827 -0.058694214 0.10740949 -0.15647928
000180 ea a8 4b 3c 06 71 95 bd 35 bf 8c 3d 81 52 03 be
       0.012430409 -0.07296948 0.06872407 -0.12824441
000190 91 2c 31 3d 6e 56 33 3b e2 f9 ae 3c e9 a3 3e be
       0.043255392 0.0027364749 0.021359388 -0.18617214
0001a0 b1 5b 44 3d 99 1b 60 bd 0c a5 54 3e 35 25 83 3d
       0.047939006 -0.05471382 0.20766085 0.06403581
0001b0 2a da 96 bd 50 dc eb bd 7f e7 21 3d d2 a6 b7 3d
       -0.0736583 -0.11516631 0.039527413 0.08967365
0001c0 08 76 0c bf 01 6d 99 3e 54 6b 9d 3e e2 50 11 3c
       -0.548676 0.29965976 0.30745947 0.008869382
0001d0 e1 0e fc 3c c7 52 ef 3b 12 0a 9a bc 37 f9 bb bc
       0.030768814 0.007303569 -0.01880363 -0.022945983
0001e0 5a 1b 4e 3e 90 26 80 bb 2d 3c c2 bb fb 7a 95 bd
       0.20127621 -0.003910847 -0.0059275837 -0.07298847
0001f0 86 fe 2b 3d 92 8c 08 be b5 a6 e9 bd 47 8c 4b 3b
       0.04199078 -0.13334873 -0.1140875 0.0031058954
000200 40 f9 4f bd 9f 90 f8 3c e5 d3 3e be f9 e6 1c 3e
       -0.050774813 0.030342398 -0.18635519 0.15322484
000210 ba 8d 44 bb d4 cb 16 3e 64 30 cb 3c 0e 3a f2 3c
       -0.0029991702 0.14726192 0.024803348 0.029568698
000220 07 7b c9 bd b1 69 6f 3d 17 71 b4 bc 4a 56 90 3e
       -0.09837919 0.058450405 -0.022026582 0.28190833
000230 b1 3a 38 3b b1 ee f9 bd 40 b8 df bd 84 c9 15 bd
       0.0028111155 -0.1220373 -0.10923815 -0.036569133
000240 d9 08 22 3c b9 d3 f0 bd e7 cf fa 3d 2e 68 f4 3d
       0.009889805 -0.11759133 0.122466855 0.11933933
000250 76 62 fd be 59 31 ba bd 54 cc 83 3e d0 72 77 3d
       -0.49489182 -0.090914436 0.25741827 0.060412228
000260 b3 5c 13 3e 7c 29 e1 3d 60 5d 12 3e fc 82 a0 bd
       0.1439083 0.10994241 0.14293432 -0.07837483
000270 1a 74 ae 3e 7e 67 79 bc 15 81 39 3b 24 84 72 be
       0.34072953 -0.015222428 0.0028305699 -0.2368322
000280 5b 3b 33 be f8 22 a6 bd 0d 76 3d bd 08 3c b3 3c
       -0.17503111 -0.081121385 -0.04625516 0.021879211
000290 b4 d5 46 3d d7 31 ee 3d 5a c1 90 bd 95 59 f2 3d
       0.048543647 0.116306 -0.07068129 0.11833493
0002a0 5c 9b 3c bd 91 7a e5 bd f0 13 0a bd 05 21 ca 3d
       -0.0460466 -0.11205018 -0.03371042 0.09869579
0002b0 64 6e 04 3e e4 90 d9 3d aa 35 05 3e da 6c e6 be
       0.12932736 0.10623339 0.13008752 -0.45004922
0002c0 c7 fb b1 3d 7b 31 1e bd 57 27 96 bb 2f 24 f8 bc
       0.08690601 -0.038621407 -0.0045823264 -0.030290691
0002d0 35 d2 f3 bc 93 54 29 3d fa 66 76 bd 9a a7 11 3d
       -0.02976332 0.041340422 -0.0601568 0.035560228
0002e0 56 92 27 3e 49 13 9d ba 07 78 74 bc 09 ef 7f 3d
       0.16364416 -0.0011983897 -0.014921195 0.06248382
0002f0 5c cc 1e 3d c0 a4 01 be 5b 57 61 be ff ec d2 bb
       0.03876911 -0.12660503 -0.2200598 -0.0064369435
000300 62 db fd bd c9 ed 7a 3e 74 bd 98 3e 34 1c 07 bd
       -0.123953596 0.2450477 0.2983204 -0.03298588
000310 66 08 e4 3d 7e 00 1c be a2 86 52 bd 5d f2 50 be
       0.111344144 -0.15234563 -0.051397927 -0.20404954
000320 7b d6 38 3e c1 ac 8b bd 3e 4e a3 3e 4f af 73 3e
       0.18050568 -0.068200596 0.31895632 0.23797344
000330 f0 2a 5c be b2 c4 89 bd 42 71 05 be 28 f2 01 be
       -0.21500754 -0.0672697 -0.13031486 -0.12690032
000340 81 1e b1 3e f7 d1 53 be 35 05 e0 3e ae 2e 6d bd
       0.34593585 -0.20685564 0.43753973 -0.057905845
000350 6a cb a4 3e 08 b5 a4 3d 44 cb ca 3e ad bf a2 bd
       0.32186443 0.080423415 0.39608204 -0.079467155
000360 8c 8d 7d bd 2a c0 9f bc 44 36 21 3e 2c d3 0b 3e
       -0.061902568 -0.01950081 0.15743357 0.13654774
000370 71 f8 89 be 92 57 64 3e d9 4f 2e 3e 45 c0 52 be
       -0.26947358 0.2229903 0.17022647 -0.20581158
000380 91 d1 dd bd cc 06 ed 3d b4 18 7b 3e 9f 5f 83 3c
       -0.10830987 0.11573562 0.24521142 0.016036807
000390 00 d2 aa be 18 35 82 be 28 2f 49 be ba 64 42 3d
       -0.33363342 -0.25431132 -0.19646895 0.04745934
0003a0 a4 fe 2d 3e dd c2 39 3e 0a da 22 3c 1f 8c ad 3c
       0.16991669 0.1814074 0.00993968 0.021184979
0003b0 d8 bb 6f 3d 54 87 4f bd 36 e8 f7 bd df 67 d2 3c
       0.05852875 -0.05066617 -0.121048376 0.025684295
0003c0 5d 9f ab 3b a9 d5 3e bc 51 23 83 3d 48 fa 1a be
       0.0052375034 -0.01164762 0.064032204 -0.15134537
0003d0 4a 7d 14 3e 28 2f 31 be a9 f8 b5 3d ce b5 b7 3e
       0.14500919 -0.17303145 0.08885319 0.35880893
0003e0 5d 94 62 bd 53 58 0e be af 0e 92 bd c4 91 02 bd
       -0.05531727 -0.1390088 -0.07131707 -0.031877294
0003f0 25 48 4c 3e 50 f2 d6 bd f0 6b cf bd 69 cc c6 bd
       0.19949396 -0.10495436 -0.10128009 -0.09706957

body_conv.2.bias f4 [12]
000000 17 b4 82 bc 78 7b 13 be 79 08 4f be a5 0f ed bb
       -0.015955014 -0.14402568 -0.20218076 -0.007234531
000010 24 75 27 ba d9 10 85 bb ae e9 87 bc ba 12 ce 3b
       -0.0006388 -0.0040608463 -0.01659092 0.0062888535
000020 0d 2a 45 3b d2 0f c7 bb 8f b2 87 38 84 9e 78 ba
       0.0030084879 -0.006074884 6.470561e-05 -0.000948407

body_conv.3.weight f4 [12, 12, 3, 3]
000000 f4 d2 6a 3d e2 ba e3 be 5f 27 e6 3d 42 63 06 3e
       0.057330087 -0.44478518 0.11237978 0.13123801
000010 df 46 e3 bd ba b6 06 3d 2e 6a 1c 3e da 62 20 3e
       -0.11097502 0.032889105 0.1527488 0.15662709
000020 a4 3a 0c be bf 6f 2f 3d 14 ab 74 3e 2d 7f 8c bd
       -0.13694245 0.04283118 0.23893386 -0.06860194
000030 4f b1 31 bd ad 31 60 be 2f 93 6e be 81 54 30 bd
       -0.043381985 -0.2189395 -0.23298334 -0.04304934
000040 ad a4 07 3e ce b2 4a 3e fc 14 23 be 51 40 5e 3c
       0.13246413 0.19794771 -0.15925974 0.013565139
000050 36 ad a0 3d 2b 31 2a bd c7 5b 9b be 0f b7 00 3e
       0.07845537 -0.041550796 -0.30343458 0.12569831
000060 1b fd b7 3d f3 09 1f 3e 76 9d 82 3d 83 a6 de bd
       0.08983823 0.15531139 0.063776895 -0.10871603
000070 1b de 87 bd 28 d0 4e bd be 10 1a be ca d7 3d 3e
       -0.0663416 -0.050491482 -0.15045449 0.18539348
000080 0b ed 2e 3e 83 78 02 3e fd 06 41 3b ad d7 d4 3d
       0.17082612 0.12741284 0.0029453628 0.103926994
000090 b9 31 6a be e6 fa c3 3d 60 50 ab 3d bd 3a 1a 3e
       -0.2287053 0.095693395 0.0836494 0.1506147
0000a0 4e 68 e2 bd c1 dd 81 3d 5e 3c 78 be 70 d9 96 bd
       -0.11055051 0.06341124 -0.24241778 -0.07365692
0000b0 63 fb ac 3d 90 85 70 3d 5d 78 5a be bf 3c 42 bd
       0.08446386 0.058721125 -0.21334977 -0.047421213
0000c0 77 f4 65 3c 17 fb ae 3d f2 98 0b be 96 8d 35 3e
       0.014035336 0.08543985 -0.13632563 0.17729792
0000d0 4e 77 bf bd 5b 07 74 bd 90 4e 29 3a 78 08 0a bc
       -0.093489274 -0.059577327 0.0006458545 -0.008424871
0000e0 5b cc 07 be e4 b0 75 be a3 39 f5 3e 6d aa 65 be
       -0.13261549 -0.2399326 0.47895536 -0.22428294
0000f0 42 c6 b0 bd 58 02 8c 3e 0d b8 63 bd 4e b8 05 bd
       -0.08631565 0.27345538 -0.055595446 -0.03264647
000100 0c e4 92 3d 19 9b dd bd 9a a7 21 be 09 73 1b be
       0.07172403 -0.10820598 -0.15786591 -0.15180601
000110 05 f0 df 3c a2 34 84 3d 33 ef eb 3d 90 26 50 3c
       0.02733613 0.064553514 0.11520233 0.0127045065
000120 58 07 1c bc 71 8f aa be e1 e9 e8 bc c9 21 d6 3d
       -0.009523235 -0.33312562 -0.028431835 0.10455663
000130 e6 9d 9e 3e 39 5f dd bd 67 b5 b5 3d 48 c1 5e be
       0.30979842 -0.10809178 0.088724904 -0.21753418
000140 6a bf ec bd d7 b6 17 be 1f 10 c6 be 64 94 42 bd
       -0.11559947 -0.14815842 -0.38684174 -0.047504798
000150 3c de ba be c9 7e 26 3f b7 56 ad be fd f8 08 3e
       -0.36497676 0.6503721 -0.3385522 0.13376231
000160 25 8c 23 be e9 5a cb 3b 3a e4 c4 3d a8 1e 7e 3e
       -0.1597143 0.0062059057 0.09613843 0.24816382
000170 7f df dd bd e0 f7 09 be 15 1f d1 bd d0 aa 88 bb
       -0.10833644 -0.13473463 -0.102110066 -0.004170753
000180 f2 fd 40 bd 1b d6 ca bd 08 50 9f bd 4f 09 01 3d
       -0.04711718 -0.099041186 -0.077789366 0.031503018
000190 db e1 66 be 06 25 a6 3d 99 6e 19 bf 5a 22 27 3f
       -0.22547095 0.081125304 -0.59934384 0.6528679
0001a0 fc 73 2f 3e 24 29 d5 bd 30 af 17 be e7 3e 70 3e
       0.17134088 -0.104082376 -0.14812922 0.23461495
0001b0 7c 15 d0 3d 77 c8 df 3d c3 61 30 3e f7 56 ca bc
       0.10160348 0.109269075 0.17224793 -0.024699671
0001c0 63 0f 53 bf 7f 15 83 3d b1 12 67 3e a3 3b 2a 3d
       -0.82445353 0.064005844 0.22565724 0.04156078
0001d0 e2 4f 1c 3e d6 19 6e 3c af a6 08 bc 76 3d 60 3a
       0.15264848 0.014532527 -0.008340522 0.000855408
0001e0 34 cf a0 bc b4 b9 fe 3d c4 51 df 3c 9f f3 1e bd
       -0.019630052 0.12437764 0.027260669 -0.038806554
0001f0 fa cd 41 3d 74 a6 ab 3b 68 e9 dc 3d da da 23 3e
       0.047315575 0.0052383486 0.10786706 0.16001454
000200 1c b4 27 3d e1 7d 11 3e d9 13 9b 3e af f1 2c 3e
       0.04094325 0.14208175 0.3028858 0.1688907
000210 8d 21 1d 3d 9b ea 12 3e 78 c6 81 3d 90 a4 84 3d
       0.038362075 0.14347307 0.06336683 0.064767
000220 85 e1 05 bd 21 4a eb 3d c6 70 dd 3d b5 31 4b bf
       -0.032685775 0.11488748 0.108125255 -0.7937272
000230 e6 72 82 be 23 02 1d 3e 0f 0e ea 3e 2e d5 4a 3e
       -0.25478286 0.15332846 0.4571385 0.19807884
000240 1a eb 05 3e 0a 5d ee 3d 5e 26 5a bd eb 4c 06 be
       0.13077965 0.116388395 -0.053259246 -0.1311528
000250 49 50 44 be 8a f6 d4 bb ad e1 a7 bd 78 09 d5 3c
       -0.19171251 -0.0064991163 -0.08197341 0.026005492
000260 ff e5 4b 3e 8c 0f 48 3d 9d 3d f0 bd 8f 09 90 3e
       0.19911955 0.04884295 -0.11730502 0.28132293
000270 9f 61 82 bd f6 47 b8 be af 35 36 3e b2 96 a0 3d
       -0.06366276 -0.35992402 0.17793916 0.07841243
000280 9a 4f 2a 3d ef 65 95 bd f1 d5 84 3d eb ee 01 bd
       0.04157982 -0.07294833 0.064861186 -0.03172199
000290 58 ec b7 3c 26 86 b7 bd b7 e3 51 be 18 ce 93 3d
       0.022451565 -0.08961134 -0.20497023 0.07217044
0002a0 16 2b bd 3a d2 6b df 3c 75 68 14 3e 7c d2 80 bc
       0.0014432396 0.027273092 0.14492972 -0.015725367
0002b0 19 dd c7 bd 19 90 84 be 6c 3e 4d bc c3 17 46 3f
       -0.09758968 -0.25891188 -0.01252709 0.7738001
0002c0 4f 3f 8b be 6f 04 94 bd 1d c2 3a 3d 9c 81 d0 bd
       -0.27196738 -0.07227408 0.045595277 -0.10180971
0002d0 6b 51 38 3c 10 24 1b 3d e4 7c 90 3d fe f0 65 be
       0.01124988 0.03787619 0.07055071 -0.22455212
0002e0 a6 64 86 3e 04 7b 92 be 59 37 c4 3d 75 ff 82 3d
       0.26248664 -0.28609478 0.09580869 0.06396381
0002f0 f5 2d e8 bc 5e 25 65 3e 8c 59 71 3e bf a6 69 3e
       -0.028342227 0.22377536 0.23569316 0.22817515
000300 83 03 f9 3e b8 05 5f bf 71 e2 50 be da df 1c 3e
       0.48635492 -0.871181 -0.2039888 0.15319768
000310 a0 03 4f be 93 53 00 bd 04 b1 57 bc 4a bb 2f be
       -0.20216227 -0.031329703 -0.013164762 -0.17161289
000320 61 30 8c 3c 4b 65 b3 3c cf 89 29 3e 63 b6 1d 3e
       0.017112913 0.021898886 0.16556476 0.15401606
000330 0e 12 94 3d fe b0 32 be c1 1d 82 bd 4b 93 97 3c
       0.07230006 -0.1745033 -0.06353331 0.018502852
000340 5d 7d ed bc 40 0e d7 3c ea ce 02 3e 33 7e 96 be
       -0.028990442 0.026251912 0.12774244 -0.29393157
000350 1a cc 44 3e 11 00 89 3a 84 b9 bb bd 40 c2 52 3d
       0.19218484 0.001045229 -0.09166244 0.051454782
000360 f2 1d cb 3c cc a5 a9 bd 29 f5 75 3d 55 da 71 be
       0.024794552 -0.08283576 0.060048256 -0.23618443
000370 99 01 c7 3e a1 ee 35 3e 6a ce 01 be 09 cf e1 bd
       0.38868406 0.17766811 -0.12676397 -0.11025817
000380 51 96 09 bd 85 f9 44 3d ca c4 5e 3e 65 1b 38 be
       -0.03359062 0.048089523 0.21754757 -0.179792
000390 92 9d f5 bd d6 ff 3d bd 6f 11 9d 3d 40 c4 fa bd
       -0.11992945 -0.046386562 0.07669341 -0.12244463
0003a0 3e 51 49 3e 64 eb c0 bd d8 58 01 bc 9b 2e 47 3e
       0.19659898 -0.09419897 -0.007894717 0.19451372
0003b0 12 5b 36 bd 71 e4 f2 bd 9d cd 6b bd fe d6 40 3d
       -0.044520445 -0.11859978 -0.057569135 0.047080033
0003c0 62 35 14 3d 25 fd b7 bd 1d 97 d7 3c f6 e1 11 be
       0.036183722 -0.0898383 0.026317174 -0.14246354
0003d0 26 6c b6 bd 1a 9f af bd 7f 79 31 be 31 28 c1 be
       -0.089073464 -0.08575268 -0.17331503 -0.37725976
0003e0 dc 31 a3 3e bd e8 69 3c ca b0 ce bc 8d fd 26 be
       0.31873977 0.014276681 -0.025230784 -0.1630766
0003f0 a1 83 63 3d 0c b1 2a 3e 5d 84 5b bd d3 da f6 3c
       0.055545453 0.166691 -0.05359303 0.03013364

body_conv.3.bias f4 [12]
000000 ed 9b 9b bc e4 b9 9f bd f1 c5 e3 ba 77 b3 b4 3b
       -0.01899525 -0.07799128 -0.0017377717 0.005514558
000010 62 48 d5 3b 1e e8 3d 3e 31 9c 14 bc a4 2b a8 3b
       0.006508873 0.18545577 -0.009070442 0.0051321555
000020 08 c8 58 3c 5f 2d 00 bd 5b 52 44 bb b3 b7 a2 bb
       0.013231285 -0.03129327 -0.0029956314 -0.0049657463

body_conv.4.weight f4 [12, 12, 3, 3]
000000 9b ba c1 bd d6 5a 38 be 40 65 37 3d 72 0a 96 be
       -0.0945942 -0.18003401 0.044774294 -0.29304844
000010 a0 da ac 3e cf 21 2d bb 49 97 a3 3b af 4e a0 3e
       0.33760548 -0.0026417857 0.0049924 0.3131003
000020 69 48 bf 3c d9 f3 f9 3d 9e 61 32 3e ae bb fe 3c
       0.023349958 0.122047134 0.1742005 0.031095352
000030 ca ca 36 3e 23 15 9d 3d 49 9b 2f be 72 d2 61 bd
       0.17850795 0.07670047 -0.1714908 -0.055132337
000040 69 a6 2e be 0a 5c 41 be c5 be 45 3c 3c 5a f0 3d
       -0.17055668 -0.18882766 0.012069409 0.11735961
000050 06 29 8c bc d0 97 71 3e ff 4a b2 be 84 d2 3f bd
       -0.017109405 0.23593068 -0.34822842 -0.046831623
000060 d6 d2 02 3c 93 b0 12 be 93 ee 11 3e 02 e1 0b be
       0.0079848375 -0.1432517 0.14251165 -0.13660052
000070 f9 92 c6 bd a0 84 73 bc c9 5e f9 bd b3 71 38 3e
       -0.096960016 -0.014863163 -0.12176282 0.18012123
000080 08 21 e0 3d 52 ea 12 3d de e1 e9 3d 9c f4 96 3a
       0.109438 0.035867997 0.11420034 0.0011516991
000090 0a 79 1b 3d d8 00 d2 3d fc 71 18 3d a9 2e 73 3d
       0.03795723 0.10254067 0.03721808 0.05937067
0000a0 b9 b1 b3 bd 74 4f 8d be 4b b1 1a 3d 9a a1 c8 bd
       -0.08774132 -0.2759968 0.037766736 -0.09796448
0000b0 72 a0 1c 3e 28 85 5c bd e5 cb 6a 3d 88 8b 58 bd
       0.1529558 -0.053837925 0.057323355 -0.052867442
0000c0 e2 85 73 3d 49 08 77 bd 3f e9 07 bd 06 ef 5b 3d
       0.059453852 -0.060310636 -0.033181425 0.053694747
0000d0 93 5d 7f bd f0 cf ad 3d 60 2f 63 3d 99 65 09 be
       -0.0623451 0.084869266 0.055465102 -0.13417663
0000e0 d3 79 36 3d 0c 74 18 3e 43 86 ab 3d 0b 4a a0 3c
       0.044549774 0.14888018 0.08375218 0.019566556
0000f0 5e 2c 04 3c 76 b1 16 be 6e 12 07 3d 90 01 9a 3d
       0.008067219 -0.14716133 0.03297656 0.07519829
000100 6a 71 ce bd 72 85 9a 3d 41 63 57 3d 93 7f 82 3c
       -0.10080226 0.07544984 0.05258489 0.015929973
000110 64 65 db bd 1b 5c 70 3d b3 63 b2 bd 18 30 4c bd
       -0.10712698 0.05868159 -0.08710422 -0.049850553
000120 88 42 a7 3d 5b de f7 3d 08 3b 0c 3c c7 f0 a3 bc
       0.08166987 0.12102958 0.008558996 -0.020012273
000130 05 11 eb bd 07 ca 72 be d3 67 89 bd e6 e6 d1 3d
       -0.114778556 -0.2370988 -0.06709256 0.102491185
000140 09 b2 e5 bd 6b 9d 36 bc d0 45 d8 3c b9 d0 3e bc
       -0.11215598 -0.01114593 0.026400477 -0.011646443
000150 59 d8 41 bd 8f 8d 1b bd b5 12 d3 3d ce db d5 3b
       -0.047325466 -0.037976798 0.103063025 0.006526447
000160 3c 38 96 3d 18 ab b2 bd 55 a1 9c 3d 53 50 8b bd
       0.073349446 -0.0872404 0.07647959 -0.0680243
000170 f4 73 56 3d ec 6a bf bd 00 11 1b bf ae ac 4f 3d
       0.052356675 -0.093465656 -0.60572815 0.05070179
000180 50 7c e3 3b df f2 99 3e d0 c4 8e 3e 68 ca 4c 3c
       0.0069423094 0.30068108 0.2788453 0.012499429
000190 79 d2 12 be d0 c4 d2 3c 80 40 1a 3e e9 d6 e2 3d
       -0.14338101 0.025728613 0.15063667 0.11076147
0001a0 19 e7 d5 bb de c4 6c bd c4 93 08 be 53 79 c6 3d
       -0.006527793 -0.057804935 -0.13337618 0.096911095
0001b0 50 22 4a 3e ee 03 36 3e d6 04 b1 3d 96 00 a5 3e
       0.19739652 0.17774937 0.086435005 0.3222701
0001c0 f5 8f 08 bc ff dd d0 3d 2f 7e b5 3d f5 73 e2 bb
       -0.008335103 0.101985924 0.08861958 -0.006910796
0001d0 78 a7 76 3c f7 42 94 3d 59 be 13 bd 07 07 2b bd
       0.015054576 0.07239335 -0.0360702 -0.04175475
0001e0 f1 39 78 bd fe 69 b8 3d 60 85 db 3c 66 1d 83 bd
       -0.060602132 0.090045914 0.026796997 -0.06402092
0001f0 17 3d 6d 3d e4 e5 77 bd c5 3f df 3b c0 7d 60 bb
       0.057919588 -0.060521975 0.006813022 -0.003425464
000200 11 bf f9 bc 6e dc e3 3d 67 bb 77 be 02 ac 46 bd
       -0.030486615 0.11126028 -0.24192582 -0.048503883
000210 76 d5 99 bd 06 ab f6 bc e2 1d 04 bd e8 8a b5 3d
       -0.075114176 -0.030110847 -0.03225506 0.08864385
000220 25 d1 f6 3d d5 3f bb bc 7c a0 f8 bd b3 08 d4 be
       0.1205161 -0.022857586 -0.12139985 -0.41412887
000230 e0 4d 22 3e 7b df d1 3c e7 a4 1b 3e 70 08 6c 3c
       0.1585002 0.02561926 0.15199624 0.0144063085
000240 19 af 07 bd bf ad 81 3c fb 66 b7 3d 03 f0 2a bc
       -0.03312597 0.015829919 0.08955189 -0.0104332
000250 95 8a 15 3e 55 e5 40 bd d0 15 70 3d b6 38 4e bd
       0.14603646 -0.047093708 0.058614552 -0.050347053
000260 00 86 d2 3d e8 39 f8 3d 60 ee 17 3e 83 cf 38 3b
       0.10279465 0.1212042 0.14837027 0.0028199858
000270 88 45 25 3c 1d 81 a0 be f0 e4 07 bd 6b ed 0f 3d
       0.010087378 -0.31348506 -0.033177316 0.03513853
000280 c2 29 d7 bc 4c 6f 06 3d 12 ca 67 3d 32 5b 1a 3d
       -0.026265029 0.032820985 0.056589194 0.037684627
000290 bd b2 86 bb b5 8d 80 3d f4 d9 0f bd 06 b7 60 bd
       -0.0041106627 0.062770285 -0.035119966 -0.054862045
0002a0 e6 20 b9 3d 36 86 94 bd fc 22 c3 bc e9 21 c7 3d
       0.09039478 -0.07252161 -0.023820393 0.09723265
0002b0 01 6a e7 3d 4c 4d 01 3e 2c b6 0a be 26 f1 6c 3e
       0.112995155 0.12627143 -0.13546056 0.23138866
0002c0 43 79 57 bc f5 41 89 bd e4 4a 37 3e 11 75 fd 3c
       -0.01315147 -0.067020334 0.17899662 0.03093961
0002d0 6c 78 29 be a7 34 a2 bd 2d 5b 81 bd 31 13 de bc
       -0.16549844 -0.07920199 -0.063162185 -0.02710876
0002e0 40 0f c8 3e 4b fe 45 be 68 0f 2d bc 99 cf 62 bc
       0.39074135 -0.19335286 -0.010562755 -0.01384344
0002f0 2d 9f f6 bc fe 5c d8 bd 79 fe 1c bd 33 53 21 bd
       -0.030105198 -0.10564612 -0.03832862 -0.039385986
000300 64 31 a2 3d a3 eb a5 3c 61 57 3a 3d d1 02 d3 3c
       0.07919577 0.020253962 0.045493487 0.025758179
000310 19 4f 1a 3d 0b 42 3a bd 06 e4 37 bc 17 1e 52 bd
       0.03767309 -0.04547314 -0.011223799 -0.051298227
000320 c4 7b 7c 3d ed 15 82 be 52 9e 0f be 35 06 51 3e
       0.06164147 -0.25407353 -0.14025238 0.20412524
000330 27 d4 cc bd 1a 2c 75 3d ea cf 02 3e 4b ce 06 3e
       -0.10001402 0.05985651 0.12774625 0.13164632
000340 5d 58 1a 3d 85 f3 bb 3d 30 61 fb bd 2d 54 a9 be
       0.037681926 0.09177307 -0.122743964 -0.33072034
000350 bc 5d 06 3e 42 1d 88 3c 35 86 4b be 04 a8 bd 3d
       0.13121694 0.016615514 -0.19875415 0.09260562
000360 c7 43 9d 3d 54 f7 77 3d a9 ad df bc a5 84 f8 3e
       0.07678943 0.060538605 -0.027304487 0.485387
000370 37 c8 bb be 9d 0c 57 bd 90 c7 a5 3d 84 62 dc ba
       -0.3667619 -0.052502263 0.08094704 -0.0016814028
000380 9a 60 93 3c 1e b9 85 bc 40 f7 a5 3d 1a ad 4a bd
       0.0179904 -0.016323622 0.081038 -0.04948149
000390 54 82 9a 3d 45 8b 03 bd ff 99 9e 3b 3b 8f 56 bd
       0.07544389 -0.03211524 0.004840135 -0.05238269
0003a0 25 dd 8d bd 06 b6 26 3d 16 1c 3f bd 8d 91 98 3d
       -0.069269456 0.040700935 -0.046657644 0.074496366
0003b0 4d b1 10 3c ee b2 60 be de 8c 41 3e 16 8e 4c bd
       0.008831334 -0.21943256 0.18901393 -0.04994019
0003c0 5c bd 27 bd 77 c0 82 3d 60 40 59 bd de 24 e7 3d
       -0.04095207 0.06384366 -0.05303991 0.11286329
0003d0 40 ce b9 bc 58 51 54 3d 31 73 85 3e c9 5a 26 bd
       -0.022681355 0.051835388 0.26064447 -0.040613923
0003e0 0a eb 97 bd b8 11 cb 3d 86 b1 93 bd 75 1b 4e 3d
       -0.07417877 0.09915489 -0.07211594 0.050319154
0003f0 42 57 c3 bd 1c 92 02 3e f1 14 96 bd 08 82 9d be
       -0.095381275 0.12751049 -0.07328213 -0.30763268

body_conv.4.bias f4 [12]
000000 cc 8a 68 bd 8d 53 71 bd fd 5f d6 bd ab be 2e be
       -0.056772992 -0.05891757 -0.10467527 -0.17064922
000010 86 38 13 be 82 ba 6a bd 78 fb f3 bd 7b 27 9b bd
       -0.1437703 -0.057306774 -0.11913198 -0.0757589
000020 25 51 04 bd 01 7b 83 bd 4a 9b 34 bd 18 aa a5 3b
       -0.032303948 -0.064199455 -0.044093408 0.005055677
